DR_Info_CFR/Jobs/Models/adversarial_vae.pth (torch, 24235 bytes, 32 tensors)

encoder_shared.shared1.weight f4 [15, 17]
000000 72 d1 3a 23 82 8d 4d a2 f2 e3 f0 21 1f 41 a9 a2
       1.0127432e-17 -2.7857594e-18 1.6323369e-18 -4.587649e-18
000010 04 00 70 23 cb 5d 98 22 b3 48 14 23 33 84 3f 23
       1.3010429e-17 4.129899e-18 8.038491e-18 1.0382125e-17
000020 f3 b3 4f 23 f2 88 5f 23 de 7e e5 a1 05 8d 84 22
       1.1259598e-17 1.21178535e-17 -1.5551225e-18 3.592798e-18
000030 0e 10 0e 23 29 fc fa a1 74 ac 1d a2 bd f0 c3 22
       7.701235e-18 -1.7007405e-18 -2.1368764e-18 5.3109747e-18
000040 74 cf 33 22 4a 83 91 01 5f 5f 0d 80 ac 65 05 81
       2.4368848e-18 5.345298e-38 -1.228074e-39 -2.4501188e-38
000050 c5 d7 50 81 f0 30 81 07 5a 83 1e 00 44 c9 3d 01
       -3.8358373e-38 1.9438526e-34 2.802185e-39 3.4858219e-38
000060 7f 3f d2 80 da 52 b1 01 15 90 99 01 1f 10 ca 00
       -1.9308232e-38 6.513842e-38 5.641007e-38 1.8556553e-38
000070 9c 0f 25 01 04 13 9c 81 eb cf ac 80 bf 76 d3 80
       3.0316913e-38 -5.7332636e-38 -1.5870292e-38 -1.9419888e-38
000080 38 aa 13 80 65 c3 4c 01 3c 8d ca 82 f3 70 94 80
       -1.805937e-39 3.760907e-38 -2.9762297e-37 -1.3632172e-38
000090 72 a5 88 82 ec 82 ce 02 43 fb 4b 83 17 2c 2e 83
       -2.0078365e-37 3.0344125e-37 -5.9944773e-37 -5.1184617e-37
0000a0 e2 b2 55 03 1d f7 54 03 d8 94 63 82 00 3e 5a 02
       6.280042e-37 6.2584873e-37 -1.6720042e-37 1.6033904e-37
0000b0 de 99 49 01 f4 7f 99 03 a6 c1 98 02 94 02 65 82
       3.7028264e-38 9.021908e-37 2.2445541e-37 -1.6825003e-37
0000c0 35 63 91 02 c2 ca 63 02 76 27 f2 82 d2 5f 0f 1f
       2.1362777e-37 1.6735515e-37 -3.5581354e-37 3.036069e-20
0000d0 ce e0 6c 1f b8 b0 1c 1e dc 72 20 9e e7 20 86 1f
       5.0160898e-20 8.295116e-21 -8.494082e-21 5.680564e-20
0000e0 38 e9 9d 1e f6 90 2f 1f 94 ad b7 9e ac e3 a8 1e
       1.6719479e-20 3.71776e-20 -1.9447669e-20 1.7881855e-20
0000f0 90 d5 ab 1d b4 25 49 1f 52 86 fe 1e a6 16 06 1e
       4.548414e-21 4.2594593e-20 2.694885e-20 7.0985845e-21
000100 53 37 4c 1e 1a 0c 41 1e 91 d1 3d 1f 9e 9b 9c 1e
       1.0811111e-20 1.02198375e-20 4.0195656e-20 1.6581504e-20
000110 5a eb 8d a8 2e a3 6f a8 71 59 a2 27 68 69 12 a7
       -1.5756212e-14 -1.3302549e-14 4.5061005e-15 -2.031871e-15
000120 59 40 6d a7 8f 37 ff 27 db 03 bd 27 76 d6 a0 a6
       -3.292524e-15 7.0836955e-15 5.246222e-15 -1.116036e-15
000130 d4 e0 61 a8 68 c5 0b a8 44 e3 b5 a8 5c bc 47 26
       -1.2538761e-14 -7.758856e-15 -2.0193597e-14 6.929727e-16
000140 6a 2e 0f 28 d2 80 28 a6 1d b1 88 a6 c7 3a a6 a7
       7.948159e-15 -5.8461293e-16 -9.484902e-16 -4.613798e-15
000150 42 2f d0 a6 14 e2 cc 00 3d a0 20 01 c5 7b 11 80
       -1.4445709e-15 1.8815543e-38 2.9502324e-38 -1.605604e-39
000160 40 7c 15 01 9b 39 89 01 95 ea ca 80 e8 f7 be 00
       2.7456123e-38 5.040851e-38 -1.8634922e-38 1.7537676e-38
000170 aa 6d 10 00 68 c3 60 00 f2 7f 71 00 02 93 20 80
       1.508708e-39 8.886306e-39 1.0423309e-38 -2.991472e-39
000180 8e 0b 72 01 34 c2 57 80 72 61 4f 81 94 0d 5d 81
       4.445667e-38 -8.059355e-39 -3.808981e-38 -4.060103e-38
000190 cf 10 90 80 bc 8d 16 00 54 6f f5 14 06 d9 ba 14
       -1.3230341e-38 2.071226e-39 2.4782589e-26 1.8866801e-26
0001a0 e1 50 51 14 14 d5 2f 93 09 65 13 15 64 ca a0 14
       1.0567754e-26 -2.2193161e-27 2.9766116e-26 1.62357e-26
0001b0 d3 f6 95 15 4b 00 28 15 04 0e b1 14 83 0b 73 14
       6.057004e-26 3.392756e-26 1.7877961e-26 1.2270635e-26
0001c0 fa 9d 87 14 de 84 46 15 82 a7 ee 14 54 7b 06 94
       1.3693827e-26 4.0090595e-26 2.4097929e-26 -6.789593e-27
0001d0 f4 db 47 94 91 34 60 15 fe 55 b3 13 88 6f 7a 89
       -1.00903106e-26 4.5277907e-26 4.5270747e-27 -3.0145097e-33
0001e0 5c 79 cf 8a 8a 9f 2b 8b 6c 55 21 0b ee 11 88 8b
       -1.9979025e-32 -3.3053426e-32 3.1071736e-32 -5.241227e-32
0001f0 d6 f7 0b 8a 98 a0 06 8b 23 30 07 8b 73 6d 20 8b
       -6.739219e-33 -2.592828e-32 -2.6036268e-32 -3.089722e-32
000200 f2 e0 aa 8b 3b 26 2e 8b 65 bd 84 8a 32 3a 10 8b
       -6.582008e-32 -3.3539942e-32 -1.278238e-32 -2.7777172e-32
000210 c5 cd 7a 09 c0 f6 50 0a 45 c2 04 0c eb 9a b8 89
       3.0189408e-33 1.0061244e-32 1.0227371e-31 -4.4442073e-33
000220 ab df 26 00 9b c7 02 00 3c fa 92 81 02 5e 81 81
       3.569986e-39 2.55276e-40 -5.3991e-38 -4.752201e-38
000230 44 4d 9b 81 fd 97 ac 81 aa 63 0a 00 7f 18 7c 80
       -5.704888e-38 -6.3400914e-38 9.54108e-40 -1.1396389e-38
000240 9c ad 26 80 c1 c4 70 80 a6 46 91 80 bf a9 b1 80
       -3.552028e-39 -1.0356158e-38 -1.3341491e-38 -1.6315776e-38
000250 86 22 1f 00 ea f1 55 80 2a 07 4b 81 da f9 66 00
       2.859285e-39 -7.8928e-39 -3.7290351e-38 9.45685e-39
000260 f0 57 01 00 49 f9 b5 27 7c 46 8a 2b db e8 f9 1c
       1.23382e-40 5.0507867e-15 9.825053e-13 1.653763e-21
000270 0a 4d 42 9b 63 5d 2f 9c bd 9f cc a9 54 ea 33 2d
       -1.6072197e-22 -5.802334e-22 -9.08713e-14 1.0227003e-11
000280 b8 8d 7a 2c 78 f6 1c 21 c7 32 a8 1d 91 8a c6 29
       3.5605806e-12 5.3181055e-19 4.4521732e-21 8.817004e-14
000290 a9 42 9f ab 67 eb 0e ab 7e 50 25 1a bc 25 d3 9b
       -1.1316131e-12 -5.077522e-13 3.418622e-23 -3.4931407e-22
0002a0 06 0b c0 2c 4f 70 93 9a 4c 58 2d 1e ed 55 18 1e
       5.458192e-12 -6.097922e-23 9.176803e-21 8.064582e-21
0002b0 c1 bf 61 1c 08 33 33 1d 60 f4 94 9d b2 5a 87 9d
       7.469409e-22 2.3716835e-21 -3.942795e-21 -3.582798e-21
0002c0 ea 55 81 1d 83 c0 81 1d bf 96 21 1e f2 df 17 1e
       3.423485e-21 3.434507e-21 8.5544426e-21 8.040184e-21
0002d0 20 60 22 1e 25 3c 30 9d 36 7a 71 9c cd 14 11 1d
       8.596087e-21 -2.33245e-21 -7.9898165e-22 1.9201344e-21
0002e0 2c 3d 10 1d d8 b3 40 1d c0 40 37 9b 5e 73 8b 92
       1.9089866e-21 2.5503965e-21 -1.5158327e-22 -8.800573e-28
0002f0 4a 1c 88 93 57 64 7f 13 74 a8 10 11 7c 30 2c 14
       -3.435912e-27 3.2234996e-27 1.1411506e-28 8.693343e-27
000300 3e 06 02 93 c1 a8 2e 14 29 a1 04 14 fc b5 82 92
       -1.6411384e-27 8.818036e-27 6.69608e-27 -8.249016e-28
000310 54 a6 3c 91 0c 6a 8a 93 1c 58 97 93 01 97 27 94
       -1.4881839e-28 -3.4940668e-27 -3.820464e-27 -8.461126e-27
000320 18 b2 ce 12 bd e2 d9 13 80 a6 51 13 60 35 cf 92
       1.3044331e-27 5.5002082e-27 2.64616e-27 -1.3076695e-27
000330 84 e5 f7 21 b2 92 4c a0 00 f1 71 a1 74 1b 83 9f
       1.6798123e-18 -1.732801e-19 -8.1972937e-19 -5.5526075e-20
000340 b7 a5 8f 20 81 63 e6 1f 53 3b 2e 22 f6 3f 44 22
       2.4334803e-19 9.7573404e-20 2.3612803e-18 2.6596814e-18
000350 ec a9 d0 21 06 a5 9e 21 f9 6b 8a a1 d2 a3 80 21
       1.4139606e-18 1.0750178e-18 -9.379824e-19 8.71698e-19
000360 b1 23 04 22 e6 d7 ce 20 02 31 90 a0 e6 88 72 21
       1.790823e-18 3.5040627e-19 -2.442698e-19 8.2173973e-19
000370 e7 7b 0a 21 b0 e3 9a ac cd 05 8d ae e3 5b 4e 2d
       4.69202e-19 -4.4022216e-12 -6.412968e-11 1.1730147e-11
000380 d2 36 17 ad 9c d9 04 af 86 23 60 2d fa 22 0e af
       -8.595529e-12 -1.208264e-10 1.2740814e-11 -1.2927251e-10
000390 e0 12 9d 2f 88 a0 57 ac 32 c0 01 ac 65 37 e7 ae
       2.8571545e-10 -3.064245e-12 -1.8438692e-12 -1.0514504e-10
0003a0 c2 5c 16 ae 42 bb 64 2f f2 92 80 2b 9f 57 3d 2d
       -3.4188437e-11 2.0803007e-10 9.135733e-13 1.0762862e-11
0003b0 7c 4a c1 b0 c4 7f 6c 2d fe 69 cf 95 6d 2c 1c 96
       -1.4063768e-09 1.34434165e-11 -8.377386e-26 -1.2615598e-25
0003c0 de 21 3b 96 f1 8b e0 95 56 34 eb 15 a0 a0 8a 95
       -1.5116426e-25 -9.069367e-26 9.4998316e-26 -5.599118e-26
0003d0 94 0e aa 14 f6 d3 98 15 53 e0 5c 95 58 1f f6 95
       1.7171363e-26 6.1726726e-26 -4.4605607e-26 -9.940806e-26
0003e0 13 0c 3c 96 b7 9d 45 15 e3 1d fb 95 5f 51 65 16
       -1.5190329e-25 3.9908248e-26 -1.01425246e-25 1.8524149e-25
0003f0 3c c2 55 16 2d 61 9b 95 b3 1b 6a 94
       1.7267293e-25 -6.275732e-26 -1.1819444e-26

encoder_shared.shared1.bias f4 [15]
000000 ec 2a cb 22 c2 08 8c 9a 10 cd 27 00 08 c2 8b 1f
       5.5068706e-18 -5.791679e-23 3.655147e-39 5.918979e-20
000010 70 fd 4a 28 72 8f a6 81 8e 08 48 15 59 08 07 0c
       1.1268208e-14 -6.1184603e-38 4.0396427e-26 1.0402534e-31
000020 50 ca 40 81 ad fb f7 af 26 14 b7 9d 74 fd 02 14
       -3.5409983e-38 -4.5107865e-10 -4.846053e-21 6.6133075e-27
000030 20 80 3f 21 4a 52 a1 af 71 9f eb 96
       6.488289e-19 -2.93442e-10 -3.806692e-25

encoder_shared.shared2.weight f4 [15, 15]
000000 40 ba 48 1e 60 06 98 32 3a 01 a6 82 db 1c 7e 9d
       1.06264274e-20 1.7698028e-08 -2.4392212e-37 -3.3631538e-21
000010 bb 3b 8d 28 54 6b 98 80 53 6a 01 15 41 5d a5 8a
       1.5680049e-14 -1.3997497e-38 2.6135218e-26 -1.5924e-32
000020 60 e1 cf 00 7a 5a 27 ad 21 98 ab 1d df 1f 43 93
       1.9090797e-38 -9.512941e-12 4.542062e-21 -2.4628174e-27
000030 92 23 10 20 ed cb 39 b0 3c b4 cf 96 3a 57 e1 9f
       1.2209044e-19 -6.7592404e-10 -3.3556398e-25 -9.543551e-20
000040 ce 8f 88 81 06 88 04 82 0a 5b 74 1c e2 f8 bd 25
       -5.016486e-38 -9.736865e-38 8.0850493e-22 3.2954923e-16
000050 52 4d bc 01 08 9f 3f 13 f6 2f 9a 8a 30 51 d3 00
       6.917124e-38 2.4185998e-27 -1.4847701e-32 1.9406414e-38
000060 ba 86 e1 9a 75 40 a2 9b 00 14 c2 8d b1 ac ba 20
       -9.327548e-23 -2.6842306e-22 -1.1960988e-30 3.1623903e-19
000070 3f 84 90 ac 25 18 3c 15 c1 51 1d a0 75 54 39 a1
       -4.1074084e-12 3.7985344e-26 -1.3325467e-19 -6.2792216e-19
000080 0a 77 0f 83 2c b4 fc 99 71 e9 7e 26 d7 75 76 80
       -4.2160573e-37 -2.612896e-23 8.8440325e-16 -1.0878862e-38
000090 d0 08 fc 13 3e d3 be 0b 43 97 00 81 0f 95 6c 9b
       6.3622433e-27 7.350318e-32 -2.3618412e-38 -1.9569626e-22
0000a0 d5 6b 11 1c dc 8e cc 90 c4 2d 4f 21 e1 76 09 ad
       4.8115845e-22 -8.068392e-29 7.01949e-19 -7.813945e-12
0000b0 2c 87 77 15 9a 99 21 81 ab 46 35 00 18 5a 21 00
       4.9987885e-26 -2.9681233e-38 4.892632e-39 3.062891e-39
0000c0 b6 a1 eb 80 aa da 68 00 26 7f 47 01 76 be 78 01
       -2.1639353e-38 9.629333e-39 3.6641752e-38 4.5687055e-38
0000d0 92 c6 69 01 14 dd 52 00 b2 27 75 81 51 57 1d 80
       4.2937808e-38 7.609819e-39 -4.5027873e-38 -2.694553e-39
0000e0 00 88 66 00 26 1a 19 81 ac 99 83 80 02 a3 46 00
       9.416008e-39 -2.8120422e-38 -1.2085577e-38 6.486961e-39
0000f0 cd d0 c6 25 d3 56 5f b3 a4 bc 9f 03 28 d2 ed 20
       3.4489014e-16 -5.20002e-08 9.38849e-37 4.0288431e-19
000100 da 00 97 26 b0 cb cf 00 ae 33 53 16 0d 1c 20 0c
       1.0477961e-15 1.9083017e-38 1.7060751e-25 1.2334393e-31
000110 7e fc 09 01 c0 c2 0e b0 13 8d 3d 1f 52 63 16 14
       2.534408e-38 -5.1936055e-10 4.0139e-20 7.592652e-27
000120 46 19 b2 22 b9 6f 8c 2f 28 32 8b 97 86 09 b3 9f
       4.8273756e-18 2.5545235e-10 -8.995326e-25 -7.5825204e-20
000130 0e f4 27 01 69 dd 15 02 8b 5f 10 1c 61 6e 8e 27
       3.0848156e-38 1.1010333e-37 4.776909e-22 3.953259e-15
000140 25 e5 0a 81 08 5d 1d 13 1e 67 8c 09 6c 69 f2 80
       -2.5511e-38 1.9862054e-27 3.3800745e-33 -2.2262008e-38
000150 0f ff e5 9a 82 cf aa 9a 0e ac 97 91 bf 90 85 20
       -9.512425e-23 -7.06456e-23 -2.3929636e-28 2.2626861e-19
000160 35 23 a4 ab 6e 50 3c 14 eb 40 05 a0 6a eb fe a2
       -1.1662673e-12 9.507436e-27 -1.1287018e-19 -6.9096092e-18
000170 7b f6 2f 83 c7 e7 23 1c ec 40 0c a8 e0 f7 d1 80
       -5.1710824e-37 5.423174e-22 -7.785639e-15 -1.928254e-38
000180 dd 5f 0f 14 36 64 31 0c 99 bc d8 80 dc ee 8e 9b
       7.238561e-27 1.366574e-31 -1.9904123e-38 -2.3646289e-22
000190 bb 1a 9e 1c f7 03 c2 92 a4 13 3a 20 91 af cd ac
       1.0462473e-21 -1.2244099e-27 1.5761311e-19 -5.8459422e-12
0001a0 c8 2e 50 15 ec f1 e5 80 78 6b 00 01 e9 6f 5e 00
       4.204217e-26 -2.1117114e-38 2.3586992e-38 8.672682e-39
0001b0 f2 bc 43 00 27 32 17 80 ac 16 ad 01 02 9c 67 80
       6.220759e-39 -2.130208e-39 6.3582696e-38 -9.515021e-39
0001c0 f2 e4 0e 80 b4 43 13 01 16 9b 58 80 18 1e 4e 80
       -1.367827e-39 2.704821e-38 -8.137158e-39 -7.173964e-39
0001d0 aa c4 28 80 34 29 ed 00 f0 0f b7 80 52 2f a5 00
       -3.74397e-39 2.1779793e-38 -1.6811613e-38 1.5169832e-38
0001e0 b1 c0 73 80 84 4f 86 81 77 3d 72 80 f8 e2 5e 00
       -1.0630207e-38 -4.9337925e-38 -1.0491296e-38 8.713958e-39
0001f0 d8 7e 2e 81 58 9e 27 80 bc 7e e4 00 89 d6 1b 81
       -3.2049759e-38 -3.638387e-39 2.0983957e-38 -2.8622925e-38
000200 e4 95 a2 80 62 10 ee 80 56 7e 35 81 c4 ae 98 80
       -1.4931121e-38 -2.1862725e-38 -3.333509e-38 -1.402169e-38
000210 c0 fe 53 80 94 b1 99 00 51 fe cd 80 c5 ca 06 00
       -7.713733e-39 1.4114534e-38 -1.8917508e-38 6.23753e-40
000220 7c cb 4d 81 e3 06 19 01 64 08 31 01 d5 45 87 01
       -3.7798546e-38 2.8106603e-38 3.2515786e-38 4.969137e-38
000230 43 21 eb 80 a2 73 a5 81 6e ea 0e 80 80 1f ae 80
       -2.1593274e-38 -6.077735e-38 -1.369794e-39 -1.5990676e-38
000240 cd 45 a5 00 66 1f 1e 00 2c 01 19 81 d2 cc 89 01
       1.5177897e-38 2.766329e-39 -2.8102503e-38 5.0619755e-38
000250 28 2b c7 00 b7 17 1c 80 d6 8a e4 00 0c ea 67 81
       1.8290745e-38 -2.579901e-39 2.0988298e-38 -4.259592e-38
000260 80 91 33 01 88 84 9d 80 64 a0 8c 01 1c 7d 4a 81
       3.29815e-38 -1.4465716e-38 5.1658027e-38 -3.7191302e-38
000270 1e 37 95 81 2c 80 5c 81 38 38 a3 81 08 14 f3 80
       -5.4813045e-38 -4.0499577e-38 -5.9957413e-38 -2.2323211e-38
000280 3c c4 11 81 30 b4 a7 80 f2 a7 b3 81 e6 9f 0f 81
       -2.6773085e-38 -1.5401167e-38 -6.5995205e-38 -2.6379673e-38
000290 7a b4 1d 81 79 38 4d 01 fe b3 46 81 66 c4 91 00
       -2.896583e-38 3.769307e-38 -3.6495995e-38 1.3386601e-38
0002a0 e7 c1 7d 80 94 92 87 81 ac 16 8c 01 b8 9b 12 80
       -1.1548996e-38 -4.98015e-38 5.146041e-38 -1.7089e-39
0002b0 65 ca fe 00 bc 3e 28 01 05 f9 3e 80 3c 28 82 81
       2.3398822e-38 3.0901736e-38 -5.783132e-39 -4.781219e-38
0002c0 6d fe 3c 00 2b aa a3 00 d0 dd b1 81 b4 0c 83 01
       5.6014e-39 1.503023e-38 -6.5337817e-38 4.814003e-38
0002d0 82 85 a4 81 de d9 c6 00 44 c6 05 01 fc 11 60 81
       -6.043566e-38 1.8261584e-38 2.457049e-38 -4.1155205e-38
0002e0 32 45 ff 96 56 17 3b 80 5a e0 f5 00 a2 d5 13 81
       -4.124114e-25 -5.426666e-39 2.2580179e-38 -2.715291e-38
0002f0 66 8e 42 01 23 cf 64 97 d9 54 5c 07 3a f2 ad 83
       3.5734338e-38 -7.3932217e-25 1.6575895e-34 -1.0223639e-36
000300 66 d2 96 0f 68 47 a3 93 2e df 0d 81 2b 2c 09 81
       1.4872185e-29 -4.1217397e-27 -2.6057733e-38 -2.5194615e-38
000310 aa f5 a4 81 7c fa 95 81 47 61 cd 80 d2 da 98 01
       -6.0596596e-38 -5.5093383e-38 -1.8861173e-38 5.6149973e-38
000320 94 1a bc 00 5b 25 af 01 24 20 df 80 ee 43 80 01
       1.7274608e-38 6.433845e-38 -2.0490846e-38 4.711725e-38
000330 0a 7d f3 00 d7 0b b2 01 d9 09 25 00 74 2d 0e 81
       2.2360881e-38 6.540386e-38 3.401446e-39 -2.6113892e-38
000340 5b 0f 7d 01 60 0b 76 00 94 4d 3a 01 cc ea 99 01
       4.6479778e-38 1.0840669e-38 3.4218464e-38 5.654024e-38
000350 2a 77 74 81 0c cf 4f 80 02 93 c3 80 be 17 fc 80
       -4.4901218e-38 -7.329279e-39 -1.7960658e-38 -2.3151062e-38
000360 e6 bd 39 01 cd 23 65 01 3a f3 03 81 bb ba 3f 00
       3.411538e-38 4.2086343e-38 -2.4235406e-38 5.852623e-39
000370 d4 f2 9a 80 18 38 4d 01 57 78 4c 81 6e f9 af 81
       -1.4229777e-38 3.76928e-38 -3.7555222e-38 -6.464276e-38
000380 58 2b 88 01
       5.0020705e-38

encoder_shared.shared2.bias f4 [15]
000000 c4 8f 6a 3e 28 00 f9 3c 90 7c 04 3d 54 8f 89 80
       0.22906405 0.030395582 0.032345355 -1.263288e-38
000010 40 67 87 3e f2 8f 5b 3c 13 3e ca 3d c8 b9 00 81
       0.2644596 0.013401018 0.09875121 -2.3643179e-38
000020 2d a8 22 81 96 93 e7 80 b8 0c 10 81 6b 44 13 81
       -2.987536e-38 -2.1266943e-38 -2.6457748e-38 -2.7048723e-38
000030 a2 3f d8 b9 4b 8a db 80 40 a7 4c 81
       -0.0004124614 -2.0161584e-38 -3.7588878e-38

encoder_shared.shared3.weight f4 [15, 15]
000000 d8 ec a8 01 1c 4c 25 81 44 f2 48 01 c5 5c 46 81
       6.205331e-38 -3.036032e-38 3.6908016e-38 -3.6433415e-38
000010 5a 3f 73 81 74 27 93 81 45 86 0a 81 b6 98 06 81
       -4.4677504e-38 -5.4055884e-38 -2.544293e-38 -2.4721478e-38
000020 52 c5 ce 00 ac 10 a2 80 bd c3 11 01 59 f6 57 81
       1.8988897e-38 -1.4883331e-38 2.677273e-38 -3.966601e-38
000030 04 7b 14 81 cc 65 3a 81 64 f5 91 00 a3 95 88 bc
       -2.7271566e-38 -3.423584e-38 1.3404177e-38 -0.016672915
000040 ab ed bb 3b 29 b9 ff bb c8 26 3a 80 49 e0 88 3d
       0.0057351193 -0.007804055 -5.340371e-39 0.06683404
000050 7d fd ab bc 06 fc 5a ba 62 aa 83 81 d4 10 4e 01
       -0.020994896 -0.00083535945 -4.836629e-38 3.7848298e-38
000060 cb 45 14 01 3d 57 0d 81 f0 82 8c 81 81 2f 18 3a
       2.723338e-38 -2.59602e-38 -5.1615764e-38 0.00058054185
000070 6b 06 ba 01 ff db 6d 81 c5 42 ad 3c f6 4a 83 bb
       6.833482e-38 -4.3687865e-38 0.021150002 -0.004006739
000080 df ad 4a bb 90 50 01 81 98 e1 b7 3c 7a ec fd ba
       -0.003092639 -2.375136e-38 0.022446439 -0.0019372844
000090 a6 a2 b2 39 58 fc 58 80 1a 0b 91 00 a1 04 aa 80
       0.00034071988 -8.172048e-39 1.332013e-38 -1.5613695e-38
0000a0 89 9f a1 81 4c 12 d9 80 e7 ee 1d 36 9d 75 27 81
       -5.937098e-38 -1.9934866e-38 2.3533883e-06 -3.075744e-38
0000b0 10 c1 ba 80 33 af 69 00 12 9c 49 81 02 a7 b0 81
       -1.715066e-38 9.705577e-39 -3.7029844e-38 -6.4891834e-38
0000c0 82 c0 41 80 42 8b 06 81 e0 e9 36 81 04 ad 84 80
       -6.038366e-39 -2.4711826e-38 -3.3595918e-38 -1.2184352e-38
0000d0 00 34 be 80 fe ae 39 81 72 ec 46 01 b3 f1 f3 80
       -1.7467398e-38 -3.4104684e-38 3.6536498e-38 -2.2402731e-38
0000e0 04 7d fd 00 7e 57 6e 00 2c be 7e 00 9c e5 91 00
       2.3279228e-38 1.0133291e-38 1.1639493e-38 1.3398515e-38
0000f0 b9 de 1a 3e f6 07 c0 3c 7e e1 32 bb 98 0a 35 00
       0.15124024 0.023441296 -0.0027295048 4.871082e-39
000100 94 d0 d9 3d 20 65 e4 3c db 3e e9 3d be cf 96 81
       0.10635486 0.027880251 0.11388942 -5.5399393e-38
000110 95 7e 33 01 00 c1 39 01 02 43 4b 81 a9 02 9a 81
       3.2967926e-38 3.4117604e-38 -3.7333287e-38 -5.657448e-38
000120 d0 03 9a 3b d0 f9 84 81 47 70 ee 80 3d cd 84 bd
       0.0047001615 -4.8847605e-38 -2.1897126e-38 -0.064844586
000130 a4 1a b2 bb f4 f8 47 bc 56 c0 10 81 4b f8 38 3d
       -0.0054353047 -0.012205351 -2.6586617e-38 0.045158666
000140 77 42 83 bc 2c 9d 9d 3c b0 d8 07 80 98 fe 8c 01
       -0.016022904 0.019239984 -7.20581e-40 5.17932e-38
000150 a4 c8 3b 01 4e 89 32 81 e6 08 19 81 9e a7 04 39
       3.4490428e-38 -3.2791948e-38 -2.8108046e-38 0.00012650943
000160 cf 5a aa 01 77 99 b8 01 91 12 ae 3b 32 d4 b1 bb
       6.257844e-38 6.7811136e-38 0.005312272 -0.005426907
000170 22 3e 5b ba 9d bf a3 01 cf 17 8c 3d 11 3c 17 bc
       -0.00083634455 6.0151695e-38 0.06840479 -0.00923063
000180 28 b3 27 3d 14 bf 10 81 88 fe 76 00 2f db 4d 00
       0.04094234 -2.6585715e-38 1.0927897e-38 7.149961e-39
000190 6c db 76 81 e1 4a 80 81 db f8 6d 39 0d 0c 78 00
       -4.5340492e-38 -4.712722e-38 0.00022694787 1.1024583e-38
0001a0 4c 57 11 81 9f 75 7d 00 e9 ac 83 01 20 01 41 00
       -2.6694926e-38 1.1521632e-38 4.8369914e-38 5.969711e-39
0001b0 71 f9 0c 01 b9 ec 84 80 80 c4 b4 01 aa 95 4e 00
       2.5892904e-38 -1.2207206e-38 6.640352e-38 7.216858e-39
0001c0 cb e9 2b 00 1a 0e 14 80 41 0e 94 81 da bd 85 01
       4.032795e-39 -1.841769e-39 -5.4387067e-38 4.912891e-38
0001d0 75 bc 30 80 82 6d 29 81 2d 4d 85 80 f8 cf 26 81
       -4.47571e-39 -3.1118966e-38 -1.2241806e-38 -3.0638595e-38
0001e0 d5 81 20 3e a2 dd a6 bc eb ee 1a 3c 98 26 a1 01
       0.15674527 -0.020369355 0.009456377 5.919744e-38
0001f0 4c 3f 03 3e d5 b5 75 3b ab d5 7e bc 79 2b 2e 81
       0.12817115 0.0037492414 -0.015553872 -3.1989943e-38
000200 dc a4 21 01 a2 ab 31 80 42 ac 60 00 73 41 8e 81
       2.968931e-38 -4.56151e-39 8.878002e-39 -5.2256477e-38
000210 e8 cf 73 bb 84 b5 6b 80 a1 d8 d0 80 44 ac 2b 81
       -0.003720278 -9.891514e-39 -1.9179495e-38 -3.1531334e-38
000220 34 2e ab 81 32 9f 42 81 b2 74 8e 81 e8 91 a9 80
       -6.288178e-38 -3.574639e-38 -5.233001e-38 -1.557254e-38
000230 76 60 56 01 48 48 86 81 3c 56 b5 80 05 3b 61 01
       3.93748e-38 -4.9327544e-38 -1.665316e-38 4.1368318e-38
000240 50 6d 0a 00 f7 05 f3 00 a9 72 fd 80 c4 0a 6e 81
       9.57569e-40 2.2318165e-38 -2.3275513e-38 -4.372142e-38
000250 56 95 37 00 61 53 15 80 18 5c 84 3d 05 16 38 bb
       5.104524e-39 -1.958456e-39 0.06462878 -0.0028089297
000260 ce 7b 60 bb 3c e2 25 81 af 8e 32 bd 81 ce 93 ba
       -0.003425348 -3.046803e-38 -0.043593105 -0.0011276753
000270 eb 82 ca bb 46 2a 32 81 da fc 8e 01 69 2c 10 01
       -0.0061801574 -3.2723766e-38 5.2525386e-38 2.6480486e-38
000280 d8 66 27 00 74 a6 82 81 0b e0 2e 37 d4 c6 4e 80
       3.618478e-39 -4.7993307e-38 1.0423372e-05 -7.234495e-39
000290 bd 5f 7a 01 4e f7 0f be 5c fc 2e 3d 19 95 2f 3d
       4.5986437e-38 -0.14059183 0.042721137 0.0428668
0002a0 94 98 88 00 bb b4 c1 3c 55 9a 4f 3d 78 de 9a bc
       1.2544362e-38 0.02364575 0.050684292 -0.01890491
0002b0 70 4e 9e 81 88 cd 70 01 0e 1b 68 00 b1 c5 33 80
       -5.8152586e-38 4.42285e-38 9.560597e-39 -4.754529e-39
0002c0 94 76 53 81 15 2f f0 ba ef 30 2a 00 b9 a2 e8 80
       -3.8839655e-38 -0.0018324578 3.874645e-39 -2.1364209e-38
0002d0 40 e9 8a 3d 72 37 b1 ba e0 c7 06 bb 48 70 21 01
       0.0678277 -0.0013520552 -0.0020565912 2.9651588e-38
0002e0 bc 7e 5f 3c 90 56 0b bb 24 5f a2 3a 40 7b 29 01
       0.013641056 -0.0021261312 0.0012387973 3.1128825e-38
0002f0 e2 2a 10 81 00 49 54 01 64 49 2b 81 86 b6 a2 80
       -2.647939e-38 3.8990625e-38 -3.1460395e-38 -1.4942827e-38
000300 1d 0a 91 37 70 7e bf 00 11 8d ff 00 05 33 70 3e
       1.7290056e-05 1.7585937e-38 2.3468657e-38 0.23456962
000310 0b 31 78 bb af 58 2d 3d 44 e0 ba 00 79 86 fa 3d
       -0.0037871029 0.042320903 1.7161854e-38 0.1223268
000320 f9 47 cd bc ec 1a e5 3c 39 b3 9d 81 df 0d 3a 01
       -0.025058733 0.027966939 -5.7929863e-38 3.4172757e-38
000330 f1 93 65 80 3a 75 6a 81 26 cb 9f 81 9f 83 ba 39
       -9.328456e-39 -4.3063118e-38 -5.869888e-38 0.0003557475
000340 03 56 66 80 ba c4 33 80 a0 36 9c 80 ea 21 26 80
       -9.398076e-39 -4.754182e-39 -1.4345933e-38 -3.501915e-39
000350 9a 13 99 81 d7 71 1f 00 d5 fb 33 00 a6 82 82 01
       -5.623145e-38 2.887738e-39 4.77395e-39 4.794193e-38
000360 0b db de 00 41 21 b6 80 f0 df 04 80 03 b1 24 80
       2.0466058e-38 -1.672599e-38 -4.47676e-40 -3.369578e-39
000370 54 34 ff 00 aa 1d 51 01 f5 ab 01 00 52 70 00 00
       2.3436823e-38 3.840852e-38 1.53522e-40 4.0293e-41
000380 12 37 5f 00
       8.744128e-39

encoder_shared.shared3.bias f4 [15]
000000 33 3e fc 80 13 cc 2d 3e 67 dd a0 3d df cb e0 80
       -2.3164858e-38 0.1697238 0.07854729 -2.0644286e-38
000010 73 6d 92 3d ff e4 17 3e 5f ee 04 3e 5e c3 a0 80
       0.07149782 0.14833449 0.12981556 -1.4763764e-38
000020 3e 89 88 3e 03 d0 e0 80 4d 96 00 3d 11 20 98 3e
       0.26667207 -2.0645772e-38 0.031393338 0.29711965
000030 f7 ff 08 3e 98 db 9b 3e f6 71 ea 80
       0.13378893 0.30440974 -2.1530388e-38

encoder_x.out.weight f4 [15, 15]
000000 22 6c 01 01 e2 9a 77 81 56 41 68 81 7f b7 a8 80
       2.377114e-38 -4.5477858e-38 -4.2658546e-38 -1.549419e-38
000010 da 35 1c 00 95 97 33 01 8c 97 6e 80 86 ad 2a 81
       2.590712e-39 3.2985862e-38 -1.015627e-38 -3.1348566e-38
000020 53 53 56 81 f4 be a0 00 64 af 9f 81 f2 95 74 00
       -3.9365375e-38 1.476218e-38 -5.865905e-38 1.0706708e-38
000030 26 71 3a 81 ba 54 fe 80 4e 45 a6 81 0c f5 aa 01
       -3.4243985e-38 -2.335661e-38 -6.1078217e-38 6.279976e-38
000040 16 ac a8 81 0a 64 56 81 04 14 41 80 28 b1 89 81
       -6.1960385e-38 -3.9377367e-38 -5.976488e-39 -5.058006e-38
000050 5c fd 95 81 e0 c5 3f 81 db c9 82 81 c5 b5 a9 81
       -5.509751e-38 -3.5223128e-38 -4.8044106e-38 -6.234162e-38
000060 ae 2f a4 01 d4 2f 57 80 c7 2b b7 81 cf 5f 82 81
       6.03125e-38 -8.006846e-39 -6.72864e-38 -4.7891937e-38
000070 c7 66 bc 81 28 2c e2 00 80 5f e9 00 5c 70 2f 3d
       -6.920777e-38 2.0770662e-38 2.143193e-38 0.042831764
000080 45 f0 2c 3c 81 2d 65 81 0d 51 00 3e 27 6f fc 3c
       0.010555332 -4.2093305e-38 0.12530918 0.03081472
000090 7b b9 f6 bb b0 b5 6f 80 3d d8 36 3e fd 10 56 00
       -0.007529435 -1.0258917e-38 0.17855926 7.903947e-39
0000a0 aa c1 0c bd 45 01 ac bc 43 c9 af bc 6f 29 54 3e
       -0.03436438 -0.0209967 -0.021458274 0.2071893
0000b0 1a 65 ea 80 26 9e e9 80 df 37 94 81 0e 6c 05 81
       -2.1525775e-38 -2.1454404e-38 -5.4446785e-38 -2.4505767e-38
0000c0 41 d2 4b 81 c9 4a 77 81 d4 f2 68 00 8e cd bb 81
       -3.743606e-38 -4.542039e-38 9.638002e-39 -6.898791e-38
0000d0 c1 e5 8e 81 26 3c 7f 81 be 76 c0 00 86 ff 3c 81
       -5.249224e-38 -4.6879257e-38 1.7675012e-38 -3.4713476e-38
0000e0 94 f7 ce 80 a1 41 0f 81 c8 d9 7a 81 de f3 6b 00
       -1.9006927e-38 -2.6312038e-38 -4.6073998e-38 9.913881e-39
0000f0 5e 53 1d 80 d8 a5 7f bd 52 2c 5a bd 05 8c 99 81
       -2.693136e-39 -0.06241402 -0.053264923 -5.640424e-38
000100 82 5f d9 bd 66 65 f1 bc 4b 3d 36 3e c0 f3 10 80
       -0.1061392 -0.029467296 0.17796819 -1.556809e-39
000110 50 e5 32 3e 2e 6a 11 80 e4 2a 2d 3d e4 38 4e 3e
       0.17470288 -1.599294e-39 0.04227723 0.2013889
000120 f4 82 d4 bc 83 27 42 bd 54 1a 7b 00 b1 97 d6 80
       -0.02594135 -0.047400963 1.1305211e-38 -1.9707213e-38
000130 e8 68 29 81 1e b0 5b 00 0b cb 78 80 1a c1 96 80
       -3.1115664e-38 8.420209e-39 -1.1093098e-38 -1.3844596e-38
000140 ec 1b ac 80 9e da 88 00 f8 66 3c 00 ab 63 a7 81
       -1.5805722e-38 1.2568053e-38 5.547068e-39 -6.148913e-38
000150 5b ed 7a 80 17 00 78 80 1a 76 a4 81 2b e5 d9 00
       -1.1289078e-38 -1.1020292e-38 -6.0413553e-38 2.0010513e-38
000160 a6 b7 15 81 7d 49 d6 80 b3 76 20 80 63 cf 31 81
       -2.749874e-38 -1.9679159e-38 -2.981317e-39 -3.2658558e-38
000170 f8 cc 62 81 7b bb 27 81 fe 38 95 81 9e c1 18 80
       -4.1656702e-38 -3.0807566e-38 -5.4815735e-38 -2.273509e-39
000180 f8 9f a1 81 1e 3a 74 01 d3 aa 2f 81 b1 cc 89 00
       -5.9371603e-38 4.485742e-38 -3.2264984e-38 1.2654892e-38
000190 f3 06 42 81 f3 42 47 81 d6 48 98 81 a3 bd 1d 81
       -3.5637158e-38 -3.659856e-38 -5.5940496e-38 -2.8972403e-38
0001a0 ad 97 00 81 c8 ab 3e 81 4c f8 b9 81 58 95 8c 81
       -2.361871e-38 -3.5020736e-38 -6.8314556e-38 -5.1642176e-38
0001b0 b0 71 1c 81 91 71 9b 81 4c fa d7 80 b0 9d a8 81
       -2.8734242e-38 -5.710097e-38 -1.9834421e-38 -6.1939724e-38
0001c0 b0 47 67 81 fe cb 99 81 58 56 17 80 4f a0 77 81
       -4.2479432e-38 -5.649604e-38 -2.143191e-39 -4.548175e-38
0001d0 c0 e0 b2 81 b2 0d aa 81 32 2b 9f 81 08 00 b4 81
       -6.5709374e-38 -6.246779e-38 -5.846936e-38 -6.61216e-38
0001e0 c7 b3 07 80 80 a4 13 81 8e 46 66 80 f0 ee 9a 01
       -7.0734e-40 -2.711766e-38 -9.392531e-39 5.6913524e-38
0001f0 8d b4 32 81 bc 99 e0 00 e6 11 1d 81 5c c2 57 81
       -3.2822975e-38 2.06263e-38 -2.8849187e-38 -3.962871e-38
000200 0d 03 ee 80 06 07 62 80 ca 85 43 81 84 5b 74 81
       -2.1857942e-38 -9.002398e-39 -3.5911832e-38 -4.488138e-38
000210 53 6a 30 81 d6 9b 04 00 7e 36 55 80 5d a2 9f 00
       -3.2402379e-38 4.23245e-40 -7.825565e-39 1.4660089e-38
000220 7a 5d 32 3e 48 a2 25 3d a0 b1 09 00 db 1d bf 3b
       0.17418471 0.040437967 8.9024e-40 0.0058324165
000230 97 a5 34 bd 10 45 eb bb 90 13 9d 80 ba 03 27 3e
       -0.04410323 -0.0071798638 -1.442519e-38 0.16310015
000240 8e be b6 00 d4 bc 85 3d a5 1b 73 3e 84 00 89 3d
       1.6782418e-38 0.06530157 0.23741014 0.066895515
000250 78 89 82 3c 7a 7c 0a 01 e2 01 88 81 76 f7 01 3e
       0.01593469 2.5435904e-38 -4.996121e-38 0.12692055
000260 28 89 08 3e 54 61 57 00 43 55 22 3d a0 71 2e bc
       0.13333571 8.024603e-39 0.039632093 -0.0106472075
000270 ce ee 96 bc a0 e5 8d 80 3c d2 3d 3e 0e 6c 96 01
       -0.018424418 -1.3031179e-38 0.1853723 5.525635e-38
000280 03 13 35 bd 1e 64 d0 bd 09 25 07 be 67 cd 3e 3e
       -0.044207584 -0.10175346 -0.13197722 0.18633042
000290 38 0c 90 01 8e 79 41 01 d1 65 ed bc 6f 2c b0 bd
       5.291478e-38 3.5535713e-38 -0.028979214 -0.08602225
0002a0 40 6a b8 01 5a 6e 16 3e 9c 2a 30 3e cf cd f6 3c
       6.7743386e-38 0.14690533 0.17203754 0.030127434
0002b0 18 a7 16 81 9d 0e f8 bd 13 25 5f 80 c9 1e 42 3d
       -2.7670533e-38 -0.12112162 -8.737672e-39 0.04739264
0002c0 b0 b5 d2 3d d1 2f ce 3d 4a 8d 6f 3e 94 a3 dc 80
       0.102885604 0.10067714 0.23393741 -2.026249e-38
0002d0 a4 88 f8 00 87 8a f6 3c 6f 4a a1 3d 9f 47 a2 01
       2.282422e-38 0.030095352 0.07875525 5.961217e-38
0002e0 07 33 86 bc 5c ad 07 3c 1e 6f 0e bd 78 bd 0b 00
       -0.016381754 0.008281078 -0.03477394 1.078159e-39
0002f0 60 72 24 3d 21 e8 a8 80 42 30 53 bc 24 29 17 3e
       0.04014814 -1.5511636e-38 -0.0128899235 0.14761788
000300 16 05 2b bd b9 eb 17 3e 64 a6 1d 81 aa 7b db 80
       -0.041752897 0.14836015 -2.8955725e-38 -2.0156336e-38
000310 78 08 1c 00 68 39 dd 80 73 82 d3 80 06 e9 94 81
       2.574432e-39 -2.0316238e-38 -1.9424086e-38 -5.4700986e-38
000320 ec 93 6b 01 ae 6f 3a 81 a4 43 58 01 d8 94 1b 81
       4.3268812e-38 -3.424293e-38 3.9721464e-38 -2.8575794e-38
000330 4e f0 01 81 18 fa 37 80 82 3c 5b 81 da ae 6e 81
       -2.3865968e-38 -5.140669e-39 -4.026736e-38 -4.3839146e-38
000340 1e a8 b6 81 10 75 34 01 48 ef c1 80 7a e6 ca 00
       -6.709748e-38 3.3144767e-38 -1.7810089e-38 1.863345e-38
000350 50 0d 6e 00 34 8d ef 80 7d d1 1e 01 fe 9b 55 81
       1.010668e-38 -2.1999338e-38 2.9170317e-38 -3.923384e-38
000360 9e ce 6b 01 48 51 65 80 09 da 34 00 02 20 b1 01
       4.3310924e-38 -9.304543e-39 4.853662e-39 6.506546e-38
000370 8b b8 6e 81 d8 01 0a 01 b8 d2 1c 01 a2 d3 2d 81
       -4.38461e-38 2.534792e-38 2.8803858e-38 -3.192692e-38
000380 6e 88 a3 81
       -6.007251e-38

encoder_x.out.bias f4 [15]
000000 03 6a af 80 d4 0d 7a 81 e7 25 79 bc 0c 3d be 80
       -1.6109242e-38 -4.592767e-38 -0.0152067905 -1.7470644e-38
000010 10 80 22 3e b9 f2 a3 81 5a 2b 74 01 6e bd 36 81
       0.15869164 -6.0225033e-38 4.4846825e-38 -3.356403e-38
000020 ff 80 f2 80 e0 86 3d 3e 8a 8e b4 bc 6e d2 84 3d
       -2.2270465e-38 0.18508482 -0.022040624 0.06485449
000030 5e 88 2f 3e 65 70 50 81 f9 c8 f8 80
       0.17141864 -3.8284206e-38 -2.2847298e-38

encoder_x.fc_mu.weight f4 [5, 15]
000000 b4 8a 49 81 6c 63 4f 80 94 dd d0 ba 18 58 7d 00
       -3.7017384e-38 -7.29067e-39 -0.0015935176 1.1511039e-38
000010 15 81 00 3d aa 20 96 01 90 12 76 01 8f f6 3e 80
       0.031373102 5.514817e-38 4.5196382e-38 -5.78225e-39
000020 34 84 32 00 24 a0 2e bd ba 5f c1 bc 40 ac 24 bd
       4.6392e-39 -0.04263319 -0.023605216 -0.040203333
000030 0d f9 24 3c 6c 35 4d 01 5c 8a c6 00 37 d5 82 00
       0.010069144 3.7690882e-38 1.8233062e-38 1.2015102e-38
000040 2a ed c8 00 86 4e da 3c f8 46 4e 00 12 38 d0 3d
       1.8452178e-38 0.026648771 7.188627e-39 0.101669446
000050 08 44 b6 80 74 46 da 00 b4 d0 64 80 26 1e d3 80
       -1.6738465e-38 2.0045412e-38 -9.258418e-39 -1.9388105e-38
000060 ed 88 95 3d 61 c6 82 3d 16 f0 fd bc 60 fa f4 3d
       0.07301507 0.06385494 -0.030998271 0.11961818
000070 54 d0 31 80 80 5c 8e 80 8d 49 50 00 38 f5 9b 00
       -4.574673e-39 -1.3073823e-38 7.373225e-39 1.432247e-38
000080 1a ea f8 3b 6e c5 3a 01 d8 f2 52 3e b8 1d 1c 01
       0.0075962665 3.4304453e-38 0.2060045 2.8673997e-38
000090 84 94 3c 80 cf 14 4d 81 7b b4 8a 81 59 0a 07 3e
       -5.563407e-39 -3.7667483e-38 -5.095217e-38 0.13187541
0000a0 5e 2a ba bc 0d 59 90 3e ab e3 b3 3c 29 27 27 81
       -0.02272528 0.2819294 0.021959146 -3.0701152e-38
0000b0 a0 5c 1a 00 5a 12 22 01 c5 57 ad 81 ea 99 5a be
       2.42095e-39 2.9767867e-38 -6.3676106e-38 -0.21347776
0000c0 12 7b 8d 81 f5 fd 02 be 88 d9 b0 00 34 b2 b5 01
       -5.1971817e-38 -0.1279219 1.6241083e-38 6.674461e-38
0000d0 02 56 22 81 b6 75 04 01 a1 2e 1c be 0e 4c 3f be
       -2.9816408e-38 2.4329024e-38 -0.15252163 -0.18681356
0000e0 fe b2 3c bd 1c 93 eb 3d 54 f4 1d 80 08 ae 86 81
       -0.046069138 0.11502668 -2.750878e-39 -4.947355e-38
0000f0 ad d5 b6 81 cf e1 45 81 dd b2 e8 bd 80 2d 69 80
       -6.716285e-38 -3.6345195e-38 -0.113622405 -9.65905e-39
000100 48 4d db 3c 60 78 40 81 34 ce c7 00 de 45 22 80
       0.026770249 -3.5351195e-38 1.8349235e-38 -3.14747e-39
000110 7a 96 11 00 89 56 b4 bc 50 cf 96 3c 15 2b 49 3e
       1.615184e-39 -0.02201392 0.018409401 0.1964534
000120 34 e9 95 3d cc bb 4d 01 d4 a7 31 80
       0.073198706 3.778729e-38 -4.560145e-39

encoder_x.fc_mu.bias f4 [5]
000000 48 36 79 3c 36 c1 b4 bd b3 75 21 be 24 23 e4 3d
       0.015210696 -0.088259146 -0.15767555 0.11139515
000010 4a dd 33 bd
       -0.04391221

encoder_x.fc_log_var.weight f4 [5, 15]
000000 92 fa a3 01 70 54 3d 80 5a b4 31 bd d0 d5 dc 00
       6.0236294e-38 -5.632256e-39 -0.043384887 2.028051e-38
000010 24 0b be 3d 04 4d 3b 81 78 97 9a 00 1e e4 72 01
       0.09279469 -3.4401732e-38 1.4197003e-38 4.4612046e-38
000020 16 7d 8f 80 90 da 2e 3c dc 40 2a 3d 08 49 20 bd
       -1.3177348e-38 0.010672227 0.04156576 -0.039132148
000030 97 96 09 3e 12 d6 1f 01 b4 4c 4c 01 70 b1 61 01
       0.13436352 2.9357276e-38 3.7523914e-38 4.1453278e-38
000040 da c3 66 81 f0 e4 a3 3c c0 e4 31 80 c0 68 57 3d
       -4.2384845e-38 0.020006627 -4.582e-39 0.05259013
000050 00 d6 bf 80 c8 a8 4a 01 db 9f 09 80 7e d7 27 01
       -1.7617349e-38 3.7222635e-38 -8.83865e-40 3.0827664e-38
000060 6f 94 cd bd b2 6a 82 bd 3c 62 f8 bc 55 39 b3 3d
       -0.10038077 -0.06368007 -0.03032028 0.087511696
000070 a8 3b 6a 00 68 6b 70 01 2d 73 4b 01 b4 f2 44 80
       9.755963e-39 4.4158098e-38 3.7367846e-38 -6.331879e-39
000080 47 cb 96 bd cc fc 5e 00 84 a5 ed bc 20 1a 57 01
       -0.07362991 8.723223e-39 -0.029009588 3.9508007e-38
000090 c0 5f 2a 00 8f 85 a4 81 2e aa df 00 dd 34 5f 3c
       3.89144e-39 -6.043573e-38 2.0540365e-38 0.013623443
0000a0 e0 30 0e bd 90 9b 16 bd 63 8b 84 be 14 dd 9f 81
       -0.03471458 -0.03676945 -0.25887594 -5.8724607e-38
0000b0 b4 9c 59 81 cb 45 13 01 b6 73 31 01 82 2c a9 3d
       -3.9969034e-38 2.704971e-38 3.2592784e-38 0.08260442
0000c0 0e 43 7c 01 da f3 db 3d f8 a3 33 00 4b 28 81 81
       4.63332e-38 0.1073987 4.742431e-39 -4.7444934e-38
0000d0 fa 79 21 81 ae 33 93 80 13 c7 24 3e 80 fb 0e bd
       -2.9658544e-38 -1.3518357e-38 0.16091566 -0.034907818
0000e0 95 b5 06 3d d0 f2 e2 3d 59 c7 3a 81 48 cd 1e 81
       0.032888014 0.11081469 -3.430583e-38 -2.91673e-38
0000f0 e4 ba ab 01 10 00 06 00 76 88 3a bd 7c 62 a7 00
       6.3083654e-38 5.51035e-40 -0.045540296 1.5371857e-38
000100 62 64 fc bc 80 d8 d0 00 b6 93 88 01 24 b5 24 81
       -0.030809585 1.9179449e-38 5.0170465e-38 -3.0252005e-38
000110 08 14 20 81 70 5d aa bd 0c d7 92 3d cf 57 2a 3e
       -2.940173e-38 -0.08318603 0.07169923 0.16635059
000120 fa 72 80 bd 1c aa 6a 80 14 c7 19 01
       -0.0627193 -9.795586e-39 2.8244493e-38

encoder_x.fc_log_var.bias f4 [5]
000000 e1 09 5e bd a4 0e f2 3b 1c cd c6 3d 1f 3b 04 be
       -0.05420864 0.007386999 0.0970709 -0.12913178
000010 9a 52 a9 3c
       0.02066927

encoder_t.out.weight f4 [15, 15]
000000 98 ca 36 01 d3 f1 02 81 6e 4a 2b 81 ba 63 75 00
       3.3573474e-38 -2.405073e-38 -3.146114e-38 1.0780528e-38
000010 a5 70 b0 81 24 e3 8e 81 9c 15 5b 00 57 c9 bd 81
       -6.4813826e-38 -5.248849e-38 8.364782e-39 -6.9716544e-38
000020 ef 13 39 80 e8 6e 71 00 63 4a 02 81 17 a6 65 81
       -5.241774e-39 1.0417197e-38 -2.39306e-38 -4.217982e-38
000030 e1 0b 04 80 6e 49 d8 80 b0 a9 40 80 34 1d 95 01
       -3.71603e-40 -1.9862809e-38 -5.938344e-39 5.477586e-38
000040 84 3a 43 81 7c a3 81 81 ad da 2d 80 88 24 f9 00
       -3.5857826e-38 -4.7621705e-38 -4.211043e-39 2.2880143e-38
000050 1a 36 90 01 14 59 c0 00 8e c1 06 01 cf b1 5c 00
       5.297488e-38 1.766437e-38 2.4750782e-38 8.512651e-39
000060 9c 73 0c 00 39 a2 34 81 45 10 92 80 e4 be 2e 01
       1.143499e-39 -3.3177168e-38 -1.3413819e-38 3.209571e-38
000070 5e 05 d2 80 74 45 06 81 a6 b4 73 01 2d 39 39 3d
       -1.928738e-38 -2.4661743e-38 4.476166e-38 0.045220543
000080 8e 84 c3 bc 4e 65 82 81 df 33 e6 3d dc f4 78 3c
       -0.023866918 -4.7899823e-38 0.112403624 0.015195098
000090 ae 76 8b 3d 60 b8 31 00 ed 51 b3 3d aa 75 12 81
       0.06809746 4.56608e-39 0.087558605 -2.6900385e-38
0000a0 bd e6 61 bc 49 43 f2 3d 1b 4b 0a 3c 09 40 02 3c
       -0.013787922 0.1182924 0.008440758 0.0079498375
0000b0 b6 9b 15 00 28 18 c9 80 77 ea 32 3b 83 d4 82 3a
       1.984404e-39 -1.84676e-38 0.0027300396 0.0009981546
0000c0 3c 0d 4d 01 30 67 1e 3b 50 54 f4 3a 30 12 e8 3a
       3.766205e-38 0.0024170391 0.001864085 0.0017705616
0000d0 e8 d1 35 00 1d 0a fc 39 ab a2 a5 81 03 64 91 b9
       4.942581e-39 0.0004807272 -6.0844845e-38 -0.0002773107
0000e0 f9 cb 76 3b 79 42 49 3b 8c dc 76 3b c2 b4 49 81
       0.0037658198 0.0030709787 0.0037668077 -3.7047557e-38
0000f0 40 2e 58 01 56 22 82 81 2f 15 96 81 7b 17 4b 81
       3.9706117e-38 -4.780373e-38 -5.5131695e-38 -3.7302058e-38
000100 a2 07 39 81 13 50 6b 81 2e 53 06 81 b7 11 bf 01
       -3.398461e-38 -4.3220134e-38 -2.4671591e-38 7.018774e-38
000110 07 24 83 81 e0 17 6c 81 ab 9c bd 81 72 44 5f 81
       -4.8173497e-38 -4.3363484e-38 -6.965244e-38 -4.1007738e-38
000120 5e e3 4c 81 79 8d 02 81 e2 9a 83 01 14 03 77 01
       -3.763201e-38 -2.397873e-38 4.8344046e-38 4.5368944e-38
000130 1a bf b4 3c b2 2d 8e 3d 5d 3d 79 80 15 4c 12 3e
       0.02206378 0.069423094 -1.1134108e-38 0.14286835
000140 74 a0 fc 3d 2b 16 42 3b 48 c8 8c 00 50 e7 cd bd
       0.123352915 0.0029615264 1.2928817e-38 -0.10053885
000150 55 ed 2d 81 39 6a 0a bd 85 51 05 3e 55 63 9e 3d
       -3.194536e-38 -0.033792708 0.13019378 0.0773379
000160 b8 f3 00 3e cd 0f 26 81 5e 29 2c 81 aa 4a 15 01
       0.12592971 -3.050072e-38 -3.162109e-38 2.7420547e-38
000170 c5 36 5e 80 3e cd a3 01 6a 81 e3 80 66 67 59 01
       -8.652184e-39 6.017125e-38 -2.0893083e-38 3.993079e-38
000180 55 6d 43 80 2d 1b 3e 81 51 de 14 00 ed 55 1d 81
       -6.192199e-39 -3.4916986e-38 1.916462e-39 -2.8897995e-38
000190 47 75 06 81 01 5b 38 00 fb 7c 06 81 f7 24 4a 80
       -2.4696055e-38 5.175434e-39 -2.4701582e-38 -6.809087e-39
0001a0 ef 67 1e 00 b2 47 87 01 75 47 70 3d d3 fb 83 3c
       2.792349e-39 4.9694046e-38 0.058661897 0.01611129
0001b0 6b 82 98 81 49 90 ef bb da 30 0e 3d d9 45 f6 3c
       -5.602312e-38 -0.0073109013 0.034714557 0.030062603
0001c0 88 a4 4b 00 3d f4 1e 3c f8 76 4c 81 62 5c de 3b
       6.946685e-39 0.009701786 -3.7554238e-38 0.0067859152
0001d0 9e 5b 42 bd 63 40 c8 ba d5 9f b0 3d 2a df ae 81
       -0.047450654 -0.0015277978 0.086242355 -6.423773e-38
0001e0 e4 5f 8d 80 c8 f8 5f ba 57 5a 8a 3b b9 5e ad 81
       -1.2983204e-38 -0.0008543846 0.004222195 -6.3686084e-38
0001f0 00 34 56 b9 87 98 2f 3b cd ce 27 3c 68 3a 98 00
       -0.00020428002 0.0026793794 0.010242176 1.3979948e-38
000200 3a df 4a 3c 8c fb 83 80 23 ff c0 b9 fb 8b 8b 3b
       0.012382323 -1.2120688e-38 -0.00036811185 0.0042586303
000210 f6 1f 66 3c fb 42 42 3d 32 e4 20 81 96 54 1e 81
       0.014045706 0.04742716 -2.955108e-38 -2.9080704e-38
000220 ec b5 e6 80 d7 18 03 81 f2 8e 3d 00 3f 5a 8a 00
       -2.1187425e-38 -2.4078722e-38 5.653244e-39 1.2705673e-38
000230 b8 d1 50 00 d8 5a 33 81 9e f7 3b 81 73 c2 70 81
       7.422073e-39 -3.2942285e-38 -3.4524132e-38 -4.422055e-38
000240 f8 66 95 80 71 05 85 01 c8 c3 59 81 a4 1e 00 81
       -1.3720427e-38 4.886429e-38 -3.9997071e-38 -2.353187e-38
000250 14 04 87 81 fb c6 1b 00 80 e1 4a 00 7e a2 20 01
       -4.959702e-38 2.550939e-39 6.876721e-39 2.950394e-38
000260 20 61 e8 80 ff a2 0b 01 87 15 ad 81 fe 53 83 00
       -2.1340677e-38 2.5647212e-38 -6.3581054e-38 1.2060581e-38
000270 66 37 8a 00 88 63 43 80 14 ee 36 80 58 71 b3 81
       1.2693172e-38 -6.188683e-39 -5.044523e-39 -6.5916856e-38
000280 e2 3e 00 80 98 59 0c 81 dc c3 01 81 8d db 39 00
       -2.2558e-41 -2.577822e-38 -2.383408e-38 5.313383e-39
000290 fc bb 6c 01 de e4 ba 81 72 be d7 18 44 5f 48 17
       4.3481226e-38 -6.865402e-38 5.57685e-24 6.4743727e-25
0002a0 e5 fc 50 81 22 4a a4 19 38 c2 b1 19 00 f2 9f 19
       -3.838501e-38 1.6987145e-23 1.8379815e-23 1.6537958e-23
0002b0 56 2b 6c 01 44 1c 11 1a 7e 7b 90 01 e7 a8 98 98
       4.3377446e-38 3.000813e-23 5.307445e-38 -3.9461627e-24
0002c0 f6 72 aa 18 10 21 94 19 0c e7 1c 1a 58 42 bb 01
       4.406005e-24 1.5316195e-23 3.2446682e-23 6.878815e-38
0002d0 b3 a1 8e 01 1b 16 8b 81 06 f4 18 81 e6 2b 31 01
       5.239459e-38 -5.1092256e-38 -2.809307e-38 3.254126e-38
0002e0 ce b8 7b 81 c1 cb 1a 81 49 70 96 81 4c 32 1b 01
       -4.623401e-38 -2.843152e-38 -5.526242e-38 2.850509e-38
0002f0 59 c2 95 81 28 6b 6d 00 59 b2 76 80 57 ae bc 81
       -5.501283e-38 1.004851e-38 -1.0900568e-38 -6.931046e-38
000300 0c 3a 9e 81 3d 56 85 81 97 bd b8 80 f9 96 6b 01
       -5.8123327e-38 -4.898023e-38 -1.6965743e-38 4.3271e-38
000310 11 34 e5 bb 95 64 66 3d bb 70 80 81 8f e7 dc bc
       -0.006994732 0.056248266 -4.7181534e-38 -0.026965884
000320 b9 57 36 bb 1f d1 99 3d f0 6e 97 00 8f 4f 32 3e
       -0.0027823283 0.0751059 1.3906957e-38 0.17413162
000330 15 cf 33 81 80 5f 0b 3c 80 40 0e 3e 6b b2 68 3d
       -3.3025682e-38 0.008506656 0.13891792 0.056810778
000340 15 b5 04 3e 66 05 b3 01 fb e0 34 00 a6 3e ad 81
       0.12959702 6.576196e-38 4.856154e-39 -6.364006e-38
000350 00 94 0d 81 98 b7 63 80 5e cf 3e 01 2c 05 c7 00
       -2.6003795e-38 -9.157575e-39 3.5046267e-38 1.8277119e-38
000360 3e 0b 8a 81 84 f6 0e 00 ea 9a 9c 81 d5 57 da 80
       -5.0709326e-38 1.37413e-39 -5.752764e-38 -2.0051646e-38
000370 26 5c ac 01 ea 74 a0 81 e4 bf 01 01 33 e3 a3 01
       6.331505e-38 -5.894248e-38 2.3831233e-38 6.020276e-38
000380 d8 84 22 80
       -3.170062e-39

encoder_t.out.bias f4 [15]
000000 ae cc 77 81 a3 04 34 80 22 9b e8 3b b1 90 a2 3d
       -4.5513586e-38 -4.777109e-39 0.0070985714 0.07937754
000010 1b 15 b0 80 38 c6 24 3e 9e 5d 1b 81 9d 86 05 3e
       -1.6170619e-38 0.1609124 -2.853617e-38 0.13039632
000020 4a db 34 3d 0e 6e a7 81 fe 4b b6 80 13 32 ee 99
       0.044154443 -6.150403e-38 -1.6741321e-38 -2.4628848e-23
000030 70 f5 06 01 0d 04 0d be 0a b4 5d 00
       2.4788006e-38 -0.13771077 8.605287e-39

encoder_t.fc_mu.weight f4 [1, 15]
000000 e8 10 77 80 4c ec 24 80 de 65 f3 3d d7 b1 6a 3d
       -1.0934489e-38 -3.390845e-39 0.11884664 0.057298508
000010 76 09 b4 81 ea 1d 83 3e aa 54 93 01 0e 0a d6 3d
       -6.6135133e-38 0.2560876 5.412076e-38 0.104511365
000020 c6 e1 4d 3d 92 73 aa 81 5e 59 15 81 d8 d4 a5 17
       0.050264142 -6.261397e-38 -2.7431096e-38 1.0716604e-24
000030 2b be 6e 00 dd 98 af 3d d9 2a d5 80
       1.0170124e-38 0.08574078 -1.9576332e-38

encoder_t.fc_log_var.weight f4 [1, 15]
000000 1d c9 83 01 a4 90 45 80 b0 5d a0 3d ce 9f 49 bd
       4.8410383e-38 -6.388537e-39 0.078303695 -0.049224667
000010 e2 44 9e 81 b6 45 98 3d eb ea b5 01 2a eb ee 3d
       -5.8138876e-38 0.07435171 6.682599e-38 0.11665948
000020 d9 28 13 bb 34 46 bb 81 1a 7b f0 00 18 ca 2b 98
       -0.0022454767 -6.879369e-38 2.208468e-38 -2.2203263e-24
000030 74 e3 04 80 eb f0 2a 3d 6c d3 73 01
       -4.48937e-40 0.041733664 4.478374e-38

encoder_yf.out.weight f4 [15, 15]
000000 c6 09 83 01 a6 59 d9 00 b6 f0 4a 01 3a 0a a9 01
       4.8135824e-38 1.9960462e-38 3.7274242e-38 6.209547e-38
000010 f2 41 0a 80 c2 d3 4e 01 a2 24 ba 80 08 4d 62 00
       -9.42012e-40 3.7988153e-38 -1.7094544e-38 9.027512e-39
000020 53 82 08 80 be c0 37 00 7c 5b 0f 01 74 bf bd 00
       -7.81435e-40 5.120095e-39 2.633059e-38 1.7425589e-38
000030 12 10 34 00 9b 96 ed 80 a8 c9 72 81 1d 49 78 00
       4.781211e-39 -2.181904e-38 -4.4593061e-38 1.1046488e-38
000040 58 ee e7 80 2c 3a 59 80 1a 88 9a 00 02 e0 7f 81
       -2.1299501e-38 -8.194227e-39 1.419149e-38 -4.699682e-38
000050 30 77 a2 00 82 ac 3b 81 85 4d 21 00 84 1a 05 81
       1.4920107e-38 -3.4470244e-38 3.05838e-39 -2.4447266e-38
000060 c3 f3 ca 00 31 ec 17 00 80 c6 79 80 63 8f c6 80
       1.8638215e-38 2.196946e-39 -1.1183303e-38 -1.8234866e-38
000070 31 4f 86 81 80 55 2c 00 5a 2c c2 80 2e c5 3f bb
       -4.933746e-38 4.071433e-39 -1.7831997e-38 -0.0029261815
000080 e5 47 a4 ba e0 74 77 80 82 f9 1f bb 78 b7 14 bb
       -0.0012533633 -1.0970351e-38 -0.0024410193 -0.0022692364
000090 b6 06 21 bb 08 29 a6 00 04 5d c0 bb bc db 3f 01
       -0.002457065 1.5259412e-38 -0.0058704633 3.523881e-38
0000a0 9e ca 87 b9 15 9a 69 bb fa 74 0f bb ba b7 1a bc
       -0.00025900168 -0.0035644819 -0.0021889792 -0.009443218
0000b0 a7 07 a3 01 78 c3 0e 80 e4 cf 26 01 cc f3 1b 81
       5.9887724e-38 -1.355818e-39 3.063854e-38 -2.864392e-38
0000c0 9d e2 6b 01 f2 89 a6 81 c3 dc 13 01 6f 63 81 01
       4.332527e-38 -6.117671e-38 2.7158025e-38 4.7529796e-38
0000d0 da 8b 6e 00 a6 69 66 81 06 80 89 81 35 87 a9 00
       1.0152074e-38 -4.2320127e-38 -5.0509557e-38 1.5568702e-38
0000e0 af 97 79 80 72 f0 56 81 6a 22 f5 80 90 72 a9 80
       -1.1166509e-38 -3.9478103e-38 -2.2512042e-38 -1.5561296e-38
0000f0 74 24 30 00 8e 04 c2 3d 86 98 38 bb 46 66 9c 01
       4.421181e-39 0.09473525 -0.0028167083 5.7452105e-38
000100 d6 4e 91 3d 14 f4 1a 3d d7 12 3e bd 40 72 61 80
       0.07095115 0.037830427 -0.046404686 -8.949028e-39
000110 6c 2c 77 bd c0 dd a1 01 54 e0 48 bc c8 92 88 39
       -0.0603451 5.9460255e-38 -0.012260515 0.00026049302
000120 b4 35 1a bd d4 2b 1b 3e 77 c2 08 80 d8 c3 86 00
       -0.03764887 0.15153438 -8.04445e-40 1.2376212e-38
000130 e0 65 15 01 74 7c ba 00 04 e5 eb 80 97 70 15 01
       2.744007e-38 1.7126048e-38 -2.1663497e-38 2.7447757e-38
000140 68 33 27 01 5e 19 a1 80 30 c2 cb 00 1f 61 6e 80
       3.0709938e-38 -1.4794615e-38 1.8712267e-38 -1.0136745e-38
000150 60 8a ae 01 d2 ef 91 01 12 e9 ab 81 de 75 95 00
       6.4116064e-38 5.3608713e-38 -6.314992e-38 1.3725772e-38
000160 da d4 ac 81 c8 1b bc 80 52 8b 84 00 10 3c 78 80
       -6.348825e-38 -1.727504e-38 1.2172264e-38 -1.1041806e-38
000170 75 33 1a 80 62 4c ab 81 d5 1d 1f 80 c8 94 b5 80
       -2.406182e-39 -6.2925083e-38 -2.857602e-39 -1.6675597e-38
000180 40 cb a9 00 8c 61 8e 00 02 96 94 01 28 f6 ee 80
       1.5593111e-38 1.3075634e-38 5.4581864e-38 -2.1945152e-38
000190 8c 41 af 81 ca 1a 16 81 ae b0 84 81 a1 39 68 01
       -6.43789e-38 -2.756987e-38 -4.8742665e-38 4.2653017e-38
0001a0 c4 47 57 01 80 34 6a 00 d0 d5 51 80 56 09 de 00
       3.9540753e-38 9.753396e-39 -7.515377e-39 2.0390829e-38
0001b0 fe 94 81 01 c6 20 02 80 a9 48 98 81 d4 a6 8c 00
       4.760091e-38 -1.95428e-40 -5.5940244e-38 1.2916816e-38
0001c0 44 08 6a 80 15 ea 9f 80 80 03 7f 80 a1 0d 84 01
       -9.737528e-39 -1.4685817e-38 -1.1664364e-38 4.85087e-38
0001d0 19 7f 4c 01 94 76 e5 80 07 cc 87 81 80 59 ee 80
       3.756007e-38 -2.1072866e-38 -4.9883933e-38 -2.1888955e-38
0001e0 b6 3c b1 80 3f 97 6b 3d 65 82 54 bc 44 06 72 01
       -1.6276662e-38 0.057517286 -0.012970542 4.4452876e-38
0001f0 90 31 75 3d 39 2b 04 3d 0a 3f 15 bc 40 c6 9f 80
       0.05986172 0.032267783 -0.009109268 -1.4672963e-38
000200 96 74 de bd 4d f7 6b 01 60 e0 13 3c 35 6f 93 3c
       -0.10862081 4.3340113e-38 0.009025663 0.017997364
000210 44 04 81 3d c4 1c 1e 3e c4 59 1e 81 f2 22 15 01
       0.06299642 0.1544066 -2.908442e-38 2.739205e-38
000220 8e 27 8e 81 aa 7a 3c 81 da ae 24 01 af 0f f6 80
       -5.221932e-38 -3.4618154e-38 3.0247493e-38 -2.2597158e-38
000230 41 94 82 81 24 4c 8f 81 f4 2b 14 00 70 fb 96 81
       -4.796719e-38 -5.263916e-38 1.852477e-39 -5.5462093e-38
000240 f4 ce 79 81 8c 4f 71 00 f6 e0 82 81 ac 3d 12 81
       -4.588256e-38 1.0405947e-38 -4.807726e-38 -2.6860212e-38
000250 3d fa 8e 81 a0 d3 1d 81 f6 b8 35 01 f0 6c b3 00
       -5.2521636e-38 -2.898818e-38 3.3377153e-38 1.6477633e-38
000260 49 b2 e7 80 cb 3f 3f 01 db 21 b1 80 78 9f 67 00
       -2.1277956e-38 3.512693e-38 -1.6267028e-38 9.516263e-39
000270 69 92 23 81 04 43 fe 00 39 09 8e 81 98 73 92 00
       -3.0043416e-38 2.3350257e-38 -5.2175796e-38 1.344945e-38
000280 ba ce 56 01 9b 4c 20 01 18 57 4d 81 b6 ae 15 00
       3.945391e-38 2.944232e-38 -3.771504e-38 1.99122e-39
000290 6c e3 57 00 1e e3 d7 80 13 28 5d 3d 87 0b d1 3d
       8.071272e-39 -1.9826106e-38 0.053993296 0.10207277
0002a0 d7 95 8c 80 5c 52 44 bc 70 ee 9b 3c fb 2a 0b 3e
       -1.2910722e-38 -0.011982527 0.019034594 0.13590614
0002b0 60 06 f3 80 ee 0a 01 3d 83 d3 96 01 57 74 04 3d
       -2.2318312e-38 0.031504564 5.54048e-38 0.032337513
0002c0 30 c4 11 3c cc 41 21 bd bf d9 10 3d 6d 68 7e 80
       0.008896872 -0.03936939 0.03536391 -1.1608733e-38
0002d0 27 a9 bc 81 50 f3 ee bb 4e 96 f2 ba 5d f0 a0 01
       -6.9303015e-38 -0.0072921887 -0.0018507929 5.911962e-38
0002e0 a1 b2 12 3c 18 af 97 ba 96 61 da 3c 70 e1 03 00
       0.008953721 -0.0011572568 0.02665786 3.56378e-40
0002f0 4e b2 b5 bb 08 e6 64 00 6c 07 a3 ba 43 35 4f 3c
       -0.005544937 9.266069e-39 -0.0012438125 0.012646976
000300 1c 29 06 bd 41 97 14 bd 22 fb 6f 81 d0 60 5b 80
       -0.03275405 -0.03627706 -4.4077546e-38 -8.39176e-39
000310 32 82 c5 a4 98 e3 f2 a1 c0 9e 71 01 3b 66 b8 a4
       -8.565569e-17 -1.6458801e-18 4.4378607e-38 -7.9970465e-17
000320 1c 2d b4 a4 ac 16 c0 a4 80 a5 28 80 20 8c 87 24
       -7.8138975e-17 -8.3305134e-17 -3.73279e-39 5.87843e-17
000330 5d 41 70 81 83 94 0c 23 b2 95 83 23 22 84 be a4
       -4.4127934e-38 7.620864e-18 1.4266447e-17 -8.262321e-17
000340 5a ae 33 24 78 09 58 00 dc 15 e7 00 04 31 5c 80
       3.896212e-17 8.08492e-39 2.1221841e-38 -8.466449e-39
000350 9e aa b5 80 46 29 6c 01 d0 0e ac 81 d0 41 24 80
       -1.6683431e-38 4.3375966e-38 -6.3204076e-38 -3.329687e-39
000360 10 47 2c 81 3e c7 65 81 3f 7f d3 80 bc 89 8e 80
       -3.1642396e-38 -4.2203606e-38 -1.9422937e-38 -1.309005e-38
000370 97 b7 91 81 e1 f8 13 80 24 a5 03 00 a9 84 2e 81
       -5.3528026e-38 -1.834155e-39 3.34748e-40 -3.2053932e-38
000380 fa 9f 4f 80
       -7.312393e-39

encoder_yf.out.bias f4 [15]
000000 a1 8a c6 80 c1 54 ef 80 e8 58 b5 3c df 53 62 00
       -1.8233159e-38 -2.1979088e-38 0.02213712 9.029966e-39
000010 46 e6 12 3e 47 20 22 80 38 32 c3 80 68 42 6f 00
       0.14345655 -3.133986e-39 -1.7925937e-38 1.0217562e-38
000020 44 9f 1d 3e 95 6c 8d 81 fa 7d 7b 00 b9 20 2e 3e
       0.15392786 -5.195103e-38 1.1340958e-38 0.1700467
000030 94 eb f2 3d 81 4c c1 a4 cb 84 5d 80
       0.11861339 -8.383001e-17 -8.588338e-39

encoder_yf.fc_mu.weight f4 [1, 15]
000000 42 5b 81 80 68 18 85 80 23 b0 a8 bc c6 ad ab 81
       -1.1879516e-38 -1.2222876e-38 -0.020591801 -6.306483e-38
000010 f4 88 25 3e b6 ca 1d 01 86 16 c4 00 e8 de 63 81
       0.16165525 2.8981784e-38 1.8007837e-38 -4.1853243e-38
000020 38 6a 16 3e 4d 94 cf 80 b0 1c 02 80 af d5 6d 3e
       0.14688957 -1.9063148e-38 -1.93962e-40 0.23226045
000030 16 d0 9f 3d c1 e6 21 25 31 8b 6a 80
       0.07803361 1.4042706e-16 -9.784495e-39

encoder_yf.fc_log_var.weight f4 [1, 15]
000000 74 3d 03 80 b9 58 89 81 fe ce 37 3d ff bd 0e 01
       -2.97552e-40 -5.045316e-38 0.044875138 2.6217596e-38
000010 e7 ae 76 3d d0 60 27 01 72 4d 5a 00 1e c7 1b 01
       0.060225394 3.0742515e-38 8.292977e-39 2.8611863e-38
000020 30 46 d2 3d 06 18 69 80 0a 37 88 00 d0 eb 09 3e
       0.102672935 -9.651345e-39 1.2509372e-38 0.13468862
000030 0b 2c e2 3c a6 8f 8e a4 9c ab 3e 81
       0.027608892 -6.1826033e-17 -3.5020612e-38
