DR_Info_CFR/Jobs/Models/dr_net_phi.pth (torch, 344619 bytes, 6 tensors)

shared1.weight f4 [200, 25]
0	0xbc05480b	-0.008134852
1	0x3d131a3c	0.03591369
2	0x3cfa15c9	0.030527966
3	0xbe12159c	-0.14266056
4	0x3cfa3e31	0.030547233
5	0xbe228f7f	-0.15875052
6	0x3d9d9d2f	0.07695996
7	0xbdccda94	-0.10002628
8	0xbd5e3edc	-0.054259166
9	0x3d127c6f	0.0357632
10	0xbe36204b	-0.17785756
11	0x3deea4b7	0.116525106
12	0x3dd0a64c	0.101879686
13	0xbe00e825	-0.12588556
14	0xbcbeafd6	-0.023277204
15	0x3b85e31e	0.0040859124
16	0x3d4358d2	0.047692128
17	0x3de9a271	0.11407936
18	0x3cb9fa4f	0.022702364
19	0x3e01a31e	0.1265988
20	0xbce78a3d	-0.02826416
21	0x3d784b50	0.0606187
22	0xbdbe368e	-0.09287749
23	0x3c7b0b39	0.0153225
24	0x3daadb79	0.08342642
25	0xbd8806c4	-0.066419154
26	0xbe49d817	-0.19711338
27	0xbd5578d9	-0.052117202
28	0xbcc74f3f	-0.02432978
29	0x3e51c0df	0.2048373
30	0xbd386d54	-0.04502614
31	0xbcc036cb	-0.023463627
32	0x3e3cacf4	0.18425351
33	0x3de7d038	0.113190114
34	0xbe22ce62	-0.15899041
35	0x3d3ba714	0.045813635
36	0x3e0e4f39	0.13897409
37	0xbdb94a80	-0.09047413
38	0x3cb37bac	0.021909557
39	0xbdc7efbb	-0.09762522
40	0x3e4f418f	0.20239852
41	0x3e17227b	0.14759247
42	0x3d488d62	0.04896296
43	0xbd81fd92	-0.06347193
44	0x3dcdeee7	0.10055333
45	0x3c951267	0.018197251
46	0xbe181f21	-0.14855625
47	0x3d474ae4	0.048655406
48	0xbd87d5ba	-0.06632562
49	0x3d5edd88	0.054410487
50	0x3df444f2	0.11927213
51	0xbcc4365d	-0.023951704
52	0x3cb9abd2	0.022664938
53	0x3d754197	0.059877004
54	0x3dfb97ff	0.1228485
55	0xbd2d2634	-0.04227276
56	0xbd56e21e	-0.052461736
57	0xbe5d6140	-0.21619129
58	0x3d0df1eb	0.03465454
59	0x3d780c9b	0.060558897
60	0x3d2bed74	0.0419745
61	0xbe142d44	-0.14470392
62	0xbd7d6e68	-0.06187287
63	0x3d5b6ef2	0.053572603
64	0x3d0705d6	0.03296455
65	0xbd944ae6	-0.07240848
66	0xbe445b9c	-0.19175571
67	0x3e15d574	0.14632207
68	0xbd58e155	-0.05294927
69	0x3ce7a795	0.028278152
70	0xbdac9afd	-0.08427999
71	0xbe11033d	-0.14161392
72	0x3e17a4f2	0.14809015
73	0x3e0c5e28	0.13707793
74	0xbe1c8bb0	-0.15287662
75	0x3d0cfb21	0.034419183
76	0x3e0bca8f	0.13651489
77	0xbe4c9fc8	-0.19982827
78	0x3c224e6c	0.009906393
79	0x3d29de65	0.041471858
80	0xbe326d79	-0.17424573
81	0xbd9ca0c2	-0.076478496
82	0xbdcf3bfc	-0.10118863
83	0xbe125e7d	-0.14293857
84	0x3e005c5f	0.12535237
85	0x3e3d3ad7	0.18479477
86	0x3e1d8395	0.15382226
87	0xbd4787ba	-0.048713423
88	0x3db4603e	0.08807419
89	0x3d85b134	0.065279394
90	0xbd2e330e	-0.04252916
91	0x3e43f760	0.19137335
92	0xbd2fbcab	-0.042904537
93	0x3e0a2a7a	0.13492766
94	0x3cdb1c78	0.026746973
95	0xbca48835	-0.02008448
96	0x3c8806ad	0.016604746
97	0xbca0d21b	-0.019631436
98	0xbde17566	-0.1100872
99	0xbdff32db	-0.12460872
100	0xbe5685e3	-0.20949511
101	0x3e355f80	0.17712212
102	0xbd2bf02e	-0.0419771
103	0xbe557643	-0.20845895
104	0xbdeee82f	-0.11665379
105	0x3e36eefe	0.17864606
106	0x3ded7fc7	0.11596637
107	0xbe46d097	-0.19415508
108	0xbe301f8a	-0.17199531
109	0xbddd38aa	-0.108018234
110	0xbdd71ca8	-0.105035126
111	0x3c54a496	0.0129786935
112	0xbdaab907	-0.083360724
113	0xbe399dca	-0.18126598
114	0xbe48dd5d	-0.19615693
115	0xbe4b57e9	-0.19857754
116	0xbd17a80f	-0.037025508
117	0x3cf3048e	0.029665258
118	0x3c8c7db0	0.017149776
119	0x3e2d8dee	0.16948673
120	0x3dc8f9df	0.09813284
121	0xbbd5e955	-0.0065280595
122	0xbc69194d	-0.014227224
123	0xbdaa917a	-0.08328529
124	0xbe3a7bbe	-0.18211266
125	0xbcb7a80e	-0.022419002
126	0x3de8c9de	0.11366628
127	0xbdc130f5	-0.09433166
128	0xbdc53c90	-0.09630692
129	0x3e33b4cd	0.17549439
130	0xbe01a66c	-0.12661141
131	0x3d3e2aaa	0.046427406
132	0xbe4ecfcf	-0.2019646
133	0x3dadf5f1	0.08494175
134	0x3df75cfd	0.12078283
135	0x3db17936	0.08665697
136	0x3e493e32	0.19652632
137	0x3de15545	0.11002592
138	0xbdbb86d1	-0.091565736
139	0xbd9c778a	-0.07639988
140	0x3d053efc	0.03253077
141	0xbdd6be7b	-0.1048555
142	0xbdb90d44	-0.09035733
143	0xbdf89e5d	-0.121395804
144	0xbc8b163e	-0.01697838
145	0x3d1339ba	0.035943724
146	0xbe4853e6	-0.19563255
147	0xbc8001c0	-0.015625834
148	0x3ddd237c	0.10797784
149	0x3d5c6d21	0.05381501
150	0xbe1b867f	-0.15188025
151	0xbdfca3fe	-0.123359665
152	0x3c57c5cc	0.013169717
153	0x3d283414	0.04106529
154	0xbe1b5e91	-0.15172793
155	0xbe352217	-0.17688785
156	0x3da63fe6	0.081176564
157	0x3e36dc3a	0.17857447
158	0x3dcebf5d	0.100950934
159	0x3dc5311f	0.0962851
160	0xbdfc097c	-0.123064965
161	0xbe23920a	-0.15973678
162	0xbbe7eff6	-0.007078166
163	0xbc807a23	-0.01568324
164	0xbe2e444b	-0.17018239
165	0x3d1a92d8	0.037737697
166	0xbd968f76	-0.07351582
167	0xbd91c3df	-0.071174376
168	0x3ca6c17e	0.020355936
169	0x3e13fc33	0.14451675
170	0xbda68eea	-0.081327274
171	0xbe4b82a3	-0.19874053
172	0x3e5b44c3	0.2141295
173	0x3be82375	0.007084305
174	0xbd0bb904	-0.03411199
175	0xbd7ee1b9	-0.062226985
176	0xbdf7618a	-0.12079151
177	0x3e21cdcf	0.15801166
178	0xbd931f31	-0.07183684
179	0x3e08de4f	0.13366054
180	0xbe26d1ae	-0.16290924
181	0x3e36284c	0.1778881
182	0xbddf3ede	-0.10900663
183	0x3da951c3	0.08267548
184	0x3db367d6	0.087600395
185	0xbdb656af	-0.08903252
186	0x3d26c332	0.040713497
187	0x3db83c1a	0.089958385
188	0x3e003c04	0.12522894
189	0x3e325202	0.17414096
190	0xbe1f5a55	-0.15561803
191	0x3deec1cd	0.11658058
192	0x3e01f712	0.12691906
193	0xbdb0122c	-0.08597216
194	0xbe20153c	-0.156331
195	0x3d403a98	0.04693088
196	0x3dfa45bd	0.12220333
197	0x3d888825	0.066665925
198	0xbccebcc8	-0.025236502
199	0xbcb1a5cb	-0.021685502
200	0xbdadc4f8	-0.084848344
201	0x3d862de6	0.06551723
202	0xbe1248dc	-0.14285606
203	0xbd37e014	-0.044891432
204	0x3e3356ef	0.17513631
205	0xbddae693	-0.1068851
206	0x3d851f46	0.065001056
207	0xbd3cad74	-0.046063855
208	0x3db63448	0.088966906
209	0xbafe6a45	-0.0019410333
210	0x3d8e934f	0.06961691
211	0x3e13109a	0.14361802
212	0x3cd27722	0.025691573
213	0xbe08672c	-0.13320607
214	0x3cd539d2	0.026028547
215	0x3c919091	0.01776913
216	0x3d2b0088	0.041748554
217	0xbe0a0085	-0.1347676
218	0x3cda0db5	0.026617864
219	0xbe18efd9	-0.14935245
220	0x3c0b6352	0.0085075665
221	0xbe234c99	-0.15947188
222	0x3e5ee290	0.21766114
223	0xbdcb6bd9	-0.0993268
224	0xbe1d214a	-0.1534473
225	0xbe2195b2	-0.1577976
226	0x3e124a61	0.14286186
227	0x3d2468a2	0.040138848
228	0xbc74a53b	-0.014931972
229	0x3e3ab6bb	0.18233769
230	0xbddc825e	-0.10767053
231	0xbd94388d	-0.07237349
232	0x3e0615e1	0.13094284
233	0xbe0407e0	-0.12893629
234	0x3e0cb5dc	0.13741249
235	0x3dd4fa44	0.10399297
236	0x3d236078	0.03988692
237	0xbe71f725	-0.23629434
238	0x3d3ea52d	0.046544243
239	0xbe89ab1c	-0.2688836
240	0x3d66e5af	0.056371387
241	0xbbaa8a5c	-0.005204482
242	0x3e017f4e	0.12646219
243	0xbe38516a	-0.17999807
244	0x3dd4e12a	0.10394509
245	0xbc977e40	-0.018492818
246	0xbe5b974b	-0.21444432
247	0xbe555893	-0.2083457
248	0xbe173e03	-0.1476975
249	0x3e2e54d2	0.17024544
250	0xbe05f3f1	-0.13081338
251	0x3e24df95	0.16100915
252	0x3c82a365	0.015947053
253	0xbace1025	-0.0015721364
254	0xbe0c9118	-0.13727224
255	0x3d59ff16	0.053221785

shared1.bias f4 [200]
0	0xbe35647a	-0.1771411
1	0x3c31d1e2	0.010853263
2	0xbdd61000	-0.104522705
3	0xbd7d81ad	-0.061891247
4	0xbd84d364	-0.06485632
5	0xbc9a538b	-0.018838665
6	0xbe1521d9	-0.14563693
7	0x3dd82cbe	0.10555409
8	0xbdba0c7d	-0.09084413
9	0x3d2b65e6	0.041845225
10	0x3dbf669f	0.09345745
11	0x3d8a7ca7	0.06762057
12	0xbd56561c	-0.052328214
13	0x3dfba990	0.12288201
14	0x3dcdf2b0	0.100560546
15	0x3e17e2d1	0.14832617
16	0x3cac9149	0.021065371
17	0x3e435c2f	0.19078134
18	0x3e432566	0.19057235
19	0xbe07b8ec	-0.13254136
20	0xbd90e253	-0.07074418
21	0x3e544570	0.20729613
22	0x3da7b747	0.08189254
23	0xbca91bce	-0.020643141
24	0x3de73e63	0.11291196
25	0x3e2b6e40	0.16741276
26	0xbd80e548	-0.06293732
27	0x3d2752e3	0.04085053
28	0xbd7be155	-0.06149419
29	0x3da4e246	0.08050971
30	0x3e0cc5b4	0.13747293
31	0xbdc2400c	-0.09484872
32	0x3deacee9	0.11465246
33	0xbdc64cb2	-0.09682597
34	0xbc689e82	-0.014197947
35	0x3d52c6c6	0.051459096
36	0x3e064b15	0.13114579
37	0x3dfb6b94	0.12276378
38	0x3dff3a4d	0.12462292
39	0x3e041948	0.12900269
40	0x3e489517	0.19588123
41	0x3d98902d	0.07449374
42	0xbc32f277	-0.010922066
43	0x3dae2acd	0.08504257
44	0x3b42001a	0.0029602111
45	0x3da636e6	0.0811594
46	0x3e4b20c3	0.19836716
47	0xbd380829	-0.044929657
48	0x3d032ad5	0.03202327
49	0xbcbee26f	-0.023301331
50	0x3d1d5d5d	0.038419116
51	0x3cea8bb1	0.028631063
52	0xbe19ebed	-0.15031405
53	0xbde8ae24	-0.1136134
54	0xbe1627d3	-0.14663629
55	0x3d99f3d5	0.075172104
56	0xbd199d11	-0.037503306
57	0x3d8b6bae	0.06807648
58	0xbdf974c8	-0.121804774
59	0xbe094711	-0.13406016
60	0xbda27df5	-0.07934181
61	0x3d93f050	0.0722357
62	0x3e1f4c54	0.1555646
63	0xbd492a6e	-0.04911273
64	0x3da154db	0.07877513
65	0xbe4221e1	-0.18958236
66	0xbd48d0bf	-0.0490272
67	0xbd8b2e43	-0.06795933
68	0xbcefaa49	-0.029256003
69	0x3dc3ea23	0.095661424
70	0x3df52c2f	0.11971318
71	0x3cba43bd	0.022737378
72	0x3e40561c	0.18782848
73	0xbd3ecc29	-0.04658142
74	0xbd9b982a	-0.07597382
75	0xbd371572	-0.044698186
76	0x3d1d92a8	0.03846994
77	0xbdc575f7	-0.09641641
78	0xbb9cf1f3	-0.004789585
79	0xbd7c4d28	-0.06159702
80	0xbde35371	-0.110998996
81	0x3b693fbb	0.0035590965
82	0x3dbace31	0.09121359
83	0xbd26582b	-0.040611427
84	0x3e558487	0.20851336
85	0xbe1d93fa	-0.1538848
86	0x3d3230e0	0.043503642
87	0xbe354fbc	-0.17706198
88	0xbb93e35e	-0.0045131883
89	0x3d9ab4fa	0.0755405
90	0xbd79296b	-0.060830515
91	0xbe2b69ea	-0.16739622
92	0xbde41a2e	-0.11137806
93	0x3d136394	0.035983637
94	0xbe31af2e	-0.17351982
95	0xbd6856e6	-0.056723498
96	0x3d685839	0.05672476
97	0xbe0d6a4e	-0.13810083
98	0x3cb64a76	0.022252303
99	0xbdb0f147	-0.0863977
100	0xbe181d6e	-0.14854977
101	0x3e01f021	0.12689258
102	0xbdf9d23a	-0.12198301
103	0x3de684c9	0.112557955
104	0x3d942337	0.07233279
105	0xbd4d0b7f	-0.05005979
106	0x3d212084	0.03933765
107	0xbb8a99b2	-0.0042297477
108	0x3e4185f0	0.1889875
109	0x3d4e71be	0.05040144
110	0xbe3b736b	-0.18305747
111	0x3dc65819	0.09684772
112	0xbe18588c	-0.14877528
113	0xbe2693d5	-0.16267331
114	0xbe153bae	-0.14573547
115	0x3e32bc41	0.17454626
116	0xbd78898f	-0.06067806
117	0x3e418e8b	0.18902032
118	0x3d0443c1	0.032291178
119	0xbda305c7	-0.07960086
120	0x3e5e8483	0.21730237
121	0x3d8c346a	0.06845935
122	0x3cb1ec1f	0.021719037
123	0xbe464dc9	-0.1936561
124	0xbe05337a	-0.13007918
125	0x3e27178c	0.16317576
126	0x3cd33e26	0.02578647
127	0x3e39ab9e	0.18131873
128	0xbd1a983b	-0.037742835
129	0x3e1a133c	0.150464
130	0xbd40b758	-0.04704985
131	0x3c9557ae	0.018230285
132	0xbca1d56a	-0.019755084
133	0x3bbf57a0	0.005839303
134	0x3cc6b9d6	0.024258535
135	0xbe40d1ad	-0.18829985
136	0xbe11e491	-0.14247347
137	0xbe0c055d	-0.13673921
138	0xbe57ffca	-0.2109367
139	0xbdfb88fd	-0.12281988
140	0x3c46ae19	0.012126469
141	0x3c96ab59	0.018392252
142	0x3e0058f0	0.12533927
143	0xbd86f279	-0.06589217
144	0xbd953554	-0.07285562
145	0xbd52273e	-0.051306956
146	0xbe049aa2	-0.12949613
147	0x3e4c6b47	0.19962798
148	0xbe4a01de	-0.19727275
149	0xbe0f270e	-0.13979742
150	0xbda2f8b7	-0.07957595
151	0x3c6dc8c2	0.014513196
152	0x3dea1a2f	0.114307754
153	0x3e411dc9	0.18859018
154	0x3d85a150	0.065249085
155	0xbe3e275a	-0.18569699
156	0x3da7dfa9	0.08196957
157	0xbc4f60ab	-0.012657325
158	0xbd4ce861	-0.0500263
159	0xbe4c4339	-0.19947518
160	0x3d90d7b6	0.070723936
161	0xbdb5c40c	-0.088752836
162	0xbd68ca70	-0.056833684
163	0xbcfcfe85	-0.030883083
164	0x3dc48a5e	0.09596704
165	0xbd6f24da	-0.058384754
166	0x3d9f48ff	0.07777595
167	0xbe207fae	-0.15673706
168	0x3db8ac3b	0.09017225
169	0x3d8be0e4	0.06830004
170	0xbdfe3776	-0.12412922
171	0x3d8f3bcd	0.06993828
172	0x3dfd21dd	0.123599745
173	0xbca631aa	-0.020287354
174	0x3d030307	0.03198531
175	0xb905b834	-0.0001275249
176	0x3e4ada67	0.19809876
177	0xbe2258f5	-0.15854247
178	0xbe1d1191	-0.15338732
179	0xbc848138	-0.016174898
180	0x3d7ee9ee	0.06223481
181	0x3dd9c865	0.10633925
182	0xbdcad8e0	-0.09904647
183	0x3e11aa6f	0.14225172
184	0x3da1038b	0.07862004
185	0xbd9e076b	-0.077162586
186	0x3de3907d	0.11111543
187	0x3dcf1d60	0.10113025
188	0xbdde5d18	-0.108576
189	0x3d5eb087	0.05436757
190	0xbd217315	-0.03941639
191	0x3d82851c	0.06373045
192	0xbbac6267	-0.005260754
193	0xbd0b67a9	-0.034034405
194	0x3e016580	0.12636375
195	0xbdd978bc	-0.106187314
196	0x3cd3ee8a	0.02587058
197	0x3deb4662	0.11488034
198	0xbdbdded2	-0.09271015
199	0x3da06a7d	0.07832811

shared2.weight f4 [200, 200]
0	0x3d5b4d5c	0.053540573
1	0x3c058a0e	0.008150591
2	0xbd865729	-0.06559593
3	0x3cc3b5d9	0.023890423
4	0xbb909729	-0.004412551
5	0xbdae6196	-0.08514707
6	0xbd56abd1	-0.05240995
7	0x3c9e7637	0.019343479
8	0x3ba8ee72	0.005155378
9	0xbd63186f	-0.055443224
10	0x3d39ef44	0.045394197
11	0x3d602aae	0.054728203
12	0x3c842007	0.016128553
13	0xbd101dde	-0.035184734
14	0xbc95e1f8	-0.018296227
15	0xbc9c6c7c	-0.019094698
16	0x3d34b281	0.044115547
17	0xbb369865	-0.002786183
18	0x3af58bf3	0.0018733725
19	0xbc129aae	-0.008948011
20	0x3d12bacf	0.035822686
21	0xbc0d8cc3	-0.008639517
22	0x3d371aa0	0.044703126
23	0xbc8ffeb4	-0.017577507
24	0x3c9d943c	0.019235723
25	0x3d27cd58	0.040967315
26	0x3d077827	0.03307357
27	0x3d8794c5	0.066201724
28	0xbd907597	-0.070536785
29	0xbd09a7f0	-0.033607423
30	0x3b7126dc	0.0036796844
31	0x3d7355d4	0.059408024
32	0x3d1fefcc	0.039047047
33	0x3c567309	0.01308895
34	0xbc6be21f	-0.014397173
35	0x39c21f55	0.00037025908
36	0xbc7fce1e	-0.015613107
37	0x3d86b0b6	0.06576674
38	0xbd4e4f76	-0.05036875
39	0xbd928326	-0.07153921
40	0xbc775e29	-0.015098133
41	0x3d1fe04f	0.039032277
42	0xbcd00e56	-0.02539746
43	0xbd7dcdd2	-0.061963864
44	0x3d53cc61	0.051708583
45	0xbbd977f0	-0.006636612
46	0x3dce5051	0.10073913
47	0xbd2a0b7a	-0.04151485
48	0x3d8113b2	0.06302585
49	0xbc231873	-0.00995456
50	0xbcc24b0a	-0.023717422
51	0xbc28a3d7	-0.010292969
52	0xbd82ad77	-0.06380742
53	0xbd440689	-0.047857795
54	0xbd025e59	-0.03182826
55	0xbd22cabe	-0.03974413
56	0x3d12a03d	0.035797346
57	0x3d80aca7	0.06282931
58	0x3d791099	0.060806844
59	0x3c78243c	0.015145358
60	0x3c4ba30e	0.012429012
61	0xbd31d935	-0.043420035
62	0xba92712a	-0.0011172642
63	0x3c1ed0b4	0.009693313
64	0xbbeb3381	-0.0071777706
65	0x3c163054	0.009166796
66	0xbcdf603f	-0.027267573
67	0x3d2478c8	0.04015425
68	0xbd8abc48	-0.06774193
69	0x3cfb86dd	0.030703956
70	0xbd173bf3	-0.036922406
71	0x3d812801	0.06306458
72	0xbd6cb868	-0.05779305
73	0xbc86a361	-0.016435327
74	0xbda3b98b	-0.07994374
75	0x3c9e474a	0.019321103
76	0xbcb6b2c4	-0.022302039
77	0xbdb18397	-0.08667677
78	0x3dbd96d7	0.09257286
79	0x3d5dfb9c	0.05419503
80	0x3d2c1135	0.042008597
81	0x3d058d3b	0.03260539
82	0x3d08ca7f	0.03339624
83	0x3c9697ca	0.018382926
84	0x3d604a39	0.054758284
85	0x3c9d341b	0.019189885
86	0xbc9cd4e4	-0.019144483
87	0x3dba2d77	0.09090703
88	0xbc761015	-0.015018483
89	0xbd5218db	-0.051293235
90	0xbd0f472c	-0.034979984
91	0xbc9048bb	-0.017612806
92	0x3d2cc35c	0.042178497
93	0xbd45bd42	-0.048276193
94	0x3c9aa3a5	0.01887686
95	0x3c70be1c	0.014693763
96	0xbd55a5e4	-0.05216016
97	0x3c01f085	0.0079308795
98	0x3d8bcfa5	0.068267144
99	0xbd07217a	-0.03299091
100	0x3d22b512	0.039723463
101	0x3d9c52ce	0.07632981
102	0xbd56506f	-0.0523228
103	0x3d2a7d29	0.04162327
104	0xbd3be6e9	-0.04587451
105	0xbcd593ec	-0.026071511
106	0x3c6e5f2c	0.014549058
107	0xbd449791	-0.047996107
108	0x3d0fdc18	0.035122007
109	0x3c6d58f9	0.014486545
110	0xbd9d4c25	-0.07680539
111	0xbb82bcd2	-0.0039897943
112	0xbc915925	-0.017742703
113	0xbce5a9b3	-0.02803502
114	0x3d156c1a	0.036480047
115	0xbd02a23b	-0.031892996
116	0xbd6504d1	-0.055912796
117	0xbd0813bf	-0.033221956
118	0xbd71c14d	-0.059022237
119	0x3c90e6cf	0.017688183
120	0xbc0073bb	-0.007840092
121	0xbca81cda	-0.02052157
122	0x3d63f862	0.0556568
123	0xbd9296a0	-0.07157636
124	0xbc2fb5bf	-0.010724484
125	0xbcc50e0e	-0.024054553
126	0x3d89493a	0.0670342
127	0xbd51ce7b	-0.051222306
128	0x3dbd1ad6	0.09233634
129	0xbd23d84f	-0.04000121
130	0x3dc830d8	0.09774941
131	0xbc8060fd	-0.015671248
132	0x3bb65cf1	0.0055652787
133	0x3c54fd30	0.012999818
134	0x3d86e340	0.06586313
135	0x3c5aa02f	0.013343855
136	0x3d44fb34	0.04809113
137	0x3d544273	0.051821183
138	0xbd26d20e	-0.040727668
139	0xbd6df22c	-0.05809228
140	0x3b9100f1	0.004425161
141	0x3d2adc1f	0.04171383
142	0xbca5e3d6	-0.020250242
143	0x3ca1269f	0.019671736
144	0xbd84d9dd	-0.064868666
145	0x3d1ec067	0.038757708
146	0xbcd606a3	-0.026126212
147	0xbc91e11c	-0.017807536
148	0x3c126607	0.008935458
149	0xbc0b2bfd	-0.008494374
150	0x3b859ff5	0.0040779063
151	0xbc261fc4	-0.010139409
152	0x3d0ebf90	0.034850657
153	0xbd6d4f13	-0.05793674
154	0x3d3c70ad	0.046005893
155	0x3c2f24de	0.010689942
156	0xbdb9fc3d	-0.09081314
157	0xbcb0e66e	-0.021594252
158	0xbd8643f4	-0.0655593
159	0xbd6b7025	-0.057479996
160	0xbd752947	-0.05985382
161	0xbd69b18a	-0.05705408
162	0xbcf2db09	-0.02964546
163	0xbd551f8f	-0.05203205
164	0x3cc8fd1a	0.02453475
165	0xbd4ee132	-0.05050773
166	0x3d233e11	0.039854113
167	0xbd5694e0	-0.052388072
168	0xbc0604d8	-0.008179866
169	0xbd1fc9b9	-0.039010737
170	0xbd5fc500	-0.054631233
171	0x3c271ac6	0.010199254
172	0xbcd4fc77	-0.02599929
173	0x3ca016fb	0.019542208
174	0x3d98746f	0.07444083
175	0xbd6b7c5e	-0.057491653
176	0xbcc92baf	-0.024556963
177	0x3a55fc0a	0.0008162862
178	0xbca778dd	-0.020443374
179	0xbd3c1726	-0.045920514
180	0x3d8a7dfd	0.067623116
181	0xbccc83ba	-0.024965156
182	0x3bc04f78	0.0058688484
183	0x3cc6a2a9	0.024247484
184	0xbd98a037	-0.074524336
185	0xbd2f76e8	-0.042838007
186	0x3d393adc	0.04522215
187	0x3d819281	0.063267715
188	0x39585bb5	0.00020633529
189	0x3d06e47a	0.032932736
190	0x3d255178	0.040360898
191	0xbd054e44	-0.032545343
192	0xbcd646c6	-0.026156794
193	0x3d3ebcfa	0.04656694
194	0x3cd7e4fe	0.02635431
195	0x3c944a3a	0.0181018
196	0x3d13d55a	0.03609214
197	0xbd8a255a	-0.067454055
198	0xbca8f7e0	-0.020626009
199	0x3d1c249a	0.038120843
200	0xbd87a879	-0.066239305
201	0xbd8e32d1	-0.06943286
202	0x3b1bb1dd	0.0023757138
203	0xbdd29ac6	-0.10283427
204	0x3ac4743a	0.0014988251
205	0xbd8d890c	-0.06910905
206	0xbce62d46	-0.02809776
207	0xbc6b7849	-0.01437194
208	0xbd55aeff	-0.052168842
209	0xbce53e2a	-0.027983744
210	0x3d23d90b	0.04000191
211	0x3c1fe5e5	0.009759401
212	0xbd2556d1	-0.040365998
213	0xbd0b2073	-0.033966493
214	0xbd7777d9	-0.06041703
215	0xbd7a116b	-0.061051767
216	0xbd2ff7e2	-0.04296101
217	0xbd98fda5	-0.07470254
218	0xbd39086a	-0.04517404
219	0xbd2244cd	-0.039616395
220	0xbd41c504	-0.04730703
221	0xbc262ff7	-0.010143272
222	0xbdc81c7a	-0.097710565
223	0x3d948b75	0.07253162
224	0x3dacb82b	0.08433565
225	0xbcfcc0c7	-0.030853642
226	0xbd35e2ab	-0.04440562
227	0x3c93c98a	0.018040437
228	0x3d726d18	0.05918607
229	0x3c72dd30	0.014823243
230	0x3d70b2ee	0.05876439
231	0x3b3f6057	0.002920171
232	0x3d6e6f07	0.058211353
233	0xbd1c1bbf	-0.0381124
234	0xbca91b58	-0.020642921
235	0xbd783695	-0.06059893
236	0xbdf458ef	-0.11931025
237	0x3c8766d0	0.016528517
238	0xbdb0daf1	-0.0863551
239	0xbb60066f	-0.0034183522
240	0xbd990bde	-0.074729666
241	0xbc53747d	-0.012906191
242	0xbd67dc02	-0.0566063
243	0x3de94d1c	0.113916606
244	0xbd87df41	-0.06634379
245	0xbce95752	-0.02848402
246	0x3cc4d82f	0.024028866
247	0xbd358985	-0.044320602
248	0xbce182e7	-0.02752824
249	0xbd238457	-0.03992113
250	0x3debf26b	0.11520847
251	0xbd52e143	-0.051484358
252	0x3e048972	0.12943056
253	0xbd8fc583	-0.07020094
254	0xbd0b20c8	-0.03396681
255	0x3d933d98	0.071894825

shared2.bias f4 [200]
0	0xbcb7eaea	-0.022450883
1	0x3c8c66bc	0.017138831
2	0x3cbf7cdd	0.02337497
3	0x3d7d041e	0.061771505
4	0x3d1f610e	0.038910918
5	0xbd17040d	-0.036869098
6	0x3d8217a1	0.06352163
7	0xbc534997	-0.012895963
8	0xbc140df4	-0.00903653
9	0x3ca91251	0.020638617
10	0xbbf9f83a	-0.007628468
11	0xbd519826	-0.05117049
12	0xbcd4ffbe	-0.026000854
13	0x3d0eecfd	0.03489398
14	0x3ce3c6b7	0.027804716
15	0xbd11d76d	-0.035605837
16	0xbcebfc67	-0.028806878
17	0xbd43dd21	-0.047818307
18	0xbc7cce33	-0.015430021
19	0x3d020752	0.031745262
20	0xbd9274f5	-0.07151214
21	0xbda1de3e	-0.079037175
22	0x3d80f23d	0.06296203
23	0xbc4fbd71	-0.012679444
24	0xbd764eec	-0.06013386
25	0xbcaf3d53	-0.021391546
26	0x3925a397	0.00015796568
27	0xbce4bcfa	-0.027922142
28	0x3d6bdc82	0.05758334
29	0x3cb2fde4	0.02184958
30	0x3d3d280a	0.046180762
31	0x3ba5b2f5	0.0050567337
32	0xbd695bc9	-0.0569723
33	0xbd0e8d75	-0.034802873
34	0xbd14fa91	-0.03637177
35	0x3ca76f9e	0.020438965
36	0x3d01c17e	0.03167867
37	0x3d90be0c	0.070674986
38	0xbc4bedff	-0.012446879
39	0xbc13dfa5	-0.009025489
40	0xbcf1ddc0	-0.029524684
41	0xbc5873ba	-0.013211185
42	0x3d0d744f	0.03453475
43	0xbd68b21a	-0.056810476
44	0x3ce52ed2	0.027976427
45	0x3d9213e5	0.07132701
46	0xbd1a896d	-0.037728716
47	0xbd37a9c1	-0.044839624
48	0x3d753d29	0.05987278
49	0x3cc38102	0.023865227
50	0x3d60d385	0.05488922
51	0xbd236c21	-0.03989804
52	0x3cbaad88	0.022787824
53	0xb95c532c	-0.00021011819
54	0x3bf55522	0.0074869553
55	0x3d8f7e03	0.07006457
56	0xbc46de10	-0.012137905
57	0xbd98fe29	-0.07470352
58	0x3d19ade5	0.037519354
59	0xbbaa4dae	-0.0051972484
60	0x3d9852af	0.07437646
61	0x3cd3a761	0.025836648
62	0xbb85388a	-0.004065578
63	0xbd0afd69	-0.033933077
64	0x3db64935	0.08900682
65	0x3bfb3709	0.007666473
66	0xbd1431fd	-0.036180485
67	0xbdae9bb0	-0.08525789
68	0xbd545c58	-0.05184588
69	0x3d68b38c	0.056811854
70	0xbd4de2de	-0.050265186
71	0x3d349a54	0.04409249
72	0xbcdd88b1	-0.027042719
73	0x3d3342c7	0.043764856
74	0x3c6a003f	0.014282285
75	0x3d7933a2	0.060840257
76	0x3d9ed52c	0.07755503
77	0x3d576d41	0.052594427
78	0x3a485fd4	0.0007643674
79	0xb9035bc3	-0.00012527317
80	0x3d036594	0.032079294
81	0xbd4c4fc7	-0.04988077
82	0x3c890e4d	0.016730452
83	0x3d004d8e	0.031323962
84	0xbcff11a2	-0.031136338
85	0x3c38b7ef	0.011274322
86	0x3cd9f4d4	0.026606001
87	0xbc9fcea4	-0.019507714
88	0xbd3e1829	-0.04640976
89	0x3d1d0e1f	0.038343545
90	0xbc2139c0	-0.009840429
91	0x3d87e914	0.06636253
92	0xba8b859c	-0.0010644677
93	0x3ca49254	0.020089306
94	0xbd0ad109	-0.033890758
95	0x3bc2acde	0.0059410175
96	0x3b5808ba	0.0032964186
97	0xbd9f72a4	-0.07785538
98	0xbcee0711	-0.029056104
99	0x3d51a3c4	0.05118157
100	0xbd83660d	-0.06415949
101	0xbd7db15b	-0.061936717
102	0x3d72f972	0.05931992
103	0x3bb29686	0.0054500727
104	0xbd35d734	-0.044394687
105	0x3c885c19	0.016645478
106	0x3beeb984	0.007285299
107	0xbc08ea44	-0.0083566345
108	0xbd4d4b04	-0.05012037
109	0xbda1cb52	-0.079001084
110	0xbd2d53bb	-0.04231618
111	0x3cfd6721	0.030932965
112	0xbd8250e0	-0.06363082
113	0xbcdb5785	-0.026775131
114	0x3d3685fc	0.04456137
115	0xbd681712	-0.056662627
116	0x3d35d7f3	0.0443954
117	0x3d01a453	0.031650852
118	0x3ca8e4cb	0.02061691
119	0x3d8a085d	0.067398764
120	0x3d416a14	0.047220305
121	0x3c90ea5d	0.017689878
122	0xbc9f2180	-0.019425154
123	0xbd8c3d94	-0.068476826
124	0x3ac7b701	0.0015237035
125	0x3c31f7ba	0.010862285
126	0x3c2d77cb	0.010587643
127	0x3d6f1b23	0.05837549
128	0xbcd82ac2	-0.026387576
129	0x3d820584	0.06348708
130	0x3c4ec711	0.012620703
131	0x3d096a81	0.033548836
132	0xbd268d54	-0.040662125
133	0x3c72cc3e	0.014819203
134	0xbc27de7b	-0.010245915
135	0xbcb9f596	-0.022700112
136	0x3cc8f7d1	0.02453223
137	0xbca8d0b5	-0.020607332
138	0xbc155419	-0.009114289
139	0xbbd2e5f6	-0.006436105
140	0x3ccc250e	0.024920013
141	0x3d62f112	0.055405684
142	0xbcd3297a	-0.025776614
143	0xbd04629d	-0.032320607
144	0xbd59dfde	-0.053192012
145	0x3d32cf64	0.043654814
146	0xbc6a3c77	-0.0142966425
147	0xbd964832	-0.07337989
148	0x3cdb798b	0.026791355
149	0xbd61e1e2	-0.05514706
150	0xbd668b0e	-0.056284957
151	0x3da289dc	0.07936451
152	0xbcf4c124	-0.029877253
153	0x3d93a6bf	0.07209539
154	0xbd0b54a1	-0.034016255
155	0xbcceaa54	-0.025227703
156	0x3da39733	0.07987823
157	0xbdb3eba2	-0.08785178
158	0xbcfe87d6	-0.031070631
159	0x3cfeb686	0.031092893
160	0xbceb50c8	-0.028725043
161	0xbb498a09	-0.0030752441
162	0xbd906214	-0.07049957
163	0x3c8890a1	0.016670527
164	0x3d3db153	0.046311688
165	0xbd2c3681	-0.042044166
166	0x3d6887b6	0.05677005
167	0xbd1e5440	-0.038654566
168	0x3cb719b6	0.022351127
169	0x3d0b94c6	0.03407743
170	0xbb258554	-0.0025256472
171	0xbd35a87d	-0.044350136
172	0xbcb40126	-0.021973204
173	0xbbe47cd8	-0.0069728903
174	0xbcc42211	-0.023942025
175	0xbcf3d9fc	-0.029767029
176	0xbd98d356	-0.07462184
177	0xbd90e463	-0.07074811
178	0x3d439bed	0.047756124
179	0xbc8be47a	-0.01707672
180	0x3d698fbf	0.057021853
181	0x3d5c2560	0.05374658
182	0x3d543cf3	0.05181594
183	0x3d8c3720	0.06846452
184	0x3d46874d	0.048468877
185	0xba757550	-0.0009363489
186	0xbd1dc3cc	-0.038516805
187	0xbd6292e6	-0.055315875
188	0x3d176d7c	0.036969647
189	0xbc21a040	-0.009864867
190	0xbd3ef880	-0.046623707
191	0x3d7608ef	0.060067113
192	0xbd448feb	-0.047988813
193	0x3c6de89c	0.01452079
194	0xbc0a8bb9	-0.008456164
195	0xbd9677df	-0.07347082
196	0xbc9f55fc	-0.01945018
197	0xbce4acbd	-0.0279144
198	0x3c19d386	0.00938881
199	0xbd92ae00	-0.07162094

shared3.weight f4 [200, 200]
0	0xbd562f5f	-0.05229127
1	0x3c9da5f5	0.019244174
2	0xbd0c4779	-0.03424785
3	0xbd8794df	-0.06620192
4	0xbd4d67a8	-0.050147682
5	0xbcc4fceb	-0.024046382
6	0xbd1075f5	-0.035268743
7	0x3d83bba3	0.06432273
8	0xbca5028f	-0.020142822
9	0x3cbb5d2c	0.022871576
10	0x3d9e1613	0.07719054
11	0x3cbb5977	0.022869809
12	0x3d806279	0.06268782
13	0xbb81e1fa	-0.003963706
14	0xbd7682bd	-0.060183275
15	0x3b99bfee	0.0046920693
16	0xbc9faea3	-0.019492453
17	0x3d5db3af	0.054126438
18	0xbb462dbe	-0.0030239667
19	0x3d76b352	0.060229607
20	0x3cb024cf	0.021501927
21	0x3d5c0907	0.053719547
22	0xbda09351	-0.078405984
23	0xbd287592	-0.04112775
24	0x3d200701	0.03906918
25	0xb9508a72	-0.00019888
26	0x3ab7c311	0.0014019926
27	0x3cddbddd	0.027068073
28	0x3d38cd34	0.045117572
29	0x3cc08546	0.02350105
30	0x3c03381f	0.008008986
31	0xbc5e10c1	-0.013553799
32	0x3d8e28af	0.069413535
33	0x3d05a3f7	0.032627072
34	0xbbf0837e	-0.007339894
35	0x3d757151	0.05992252
36	0x3c90ebf5	0.017690638
37	0x3d526e47	0.0513747
38	0x3d6ebd13	0.058285784
39	0xbc5a226f	-0.013313874
40	0xbd396b67	-0.045268442
41	0xbcad7308	-0.021173015
42	0x3d4e1cb2	0.050320335
43	0xbce6ff14	-0.028197803
44	0x3ce374ab	0.027765593
45	0xbd35c64d	-0.044378567
46	0xbbc65b28	-0.006053347
47	0xbd1263ec	-0.035739824
48	0xbbf7f17c	-0.007566629
49	0xbd33705a	-0.04380832
50	0x3cbbf879	0.02294563
51	0x3d5a0a1b	0.053232294
52	0xbcb707a8	-0.022342518
53	0xbc1586a4	-0.009126339
54	0x3d29889c	0.041390046
55	0xbbd1e229	-0.006405134
56	0xbd591be2	-0.053005107
57	0x3b4bed0e	0.0031116637
58	0xbce523a2	-0.027971093
59	0xbd553714	-0.05205448
60	0xbce19183	-0.027535206
61	0x3d4ad0ca	0.049515523
62	0x3d93ff92	0.072264805
63	0x3cc69a1a	0.024243403
64	0xbda48f3f	-0.080351345
65	0xbc93d270	-0.01804468
66	0xbd11f467	-0.03563347
67	0x3c694558	0.014237724
68	0x3d162244	0.036653772
69	0xbd413171	-0.04716629
70	0x3d5dcc92	0.05415017
71	0x3ccefdc6	0.025267493
72	0xbd4a1230	-0.04933375
73	0xbd128ba7	-0.035777714
74	0x3d24436c	0.04010336
75	0xbd02d2c7	-0.031939294
76	0xbd4a1ffb	-0.049346905
77	0x3d938e20	0.072048426
78	0x3d90c193	0.07068171
79	0x3da336ff	0.07969474
80	0xbc8bd21b	-0.01706796
81	0x3d97bd3d	0.07409141
82	0x3d4d0dc0	0.05006194
83	0xbd6c9220	-0.057756543
84	0x3caef9f4	0.021359421
85	0x3d2db15f	0.042405482
86	0x3d3b252a	0.04568974
87	0x3b6e3461	0.0036347138
88	0x3d04f55d	0.03246056
89	0xbcb47e70	-0.022032946
90	0xbb69a940	-0.003565386
91	0xbd2ebcbc	-0.04266046
92	0x3d7396b9	0.059469912
93	0xbd279fc1	-0.040923838
94	0x3d410689	0.047125373
95	0xbbd9cebf	-0.0066469605
96	0x3bcd62e9	0.0062678945
97	0xbca44b57	-0.020055456
98	0x3d4246d4	0.04743083
99	0x3d6e5270	0.058184087
100	0x3d4f1be2	0.0505637
101	0x3d84ebe4	0.06490305
102	0xbcd5b628	-0.026087835
103	0x3d550670	0.052008092
104	0x3d7b867b	0.061407547
105	0xbd654b27	-0.055979874
106	0x3b512e75	0.003191856
107	0xbd1d452d	-0.03839605
108	0x3d3bfc54	0.045894936
109	0xbc9d2526	-0.019182753
110	0x3d673754	0.05644925
111	0x3c48357f	0.012219786
112	0xbccb79af	-0.024838297
113	0x3cc76359	0.024339365
114	0xbaa39eca	-0.0012483236
115	0x3d80ea55	0.06294695
116	0xbd9976f8	-0.074933946
117	0x3cb2dbd5	0.02183334
118	0x3c06a733	0.008218574
119	0xbbc75149	-0.006082688
120	0x3d1643e4	0.03668584
121	0x3c9e0cbd	0.019293183
122	0x3d349039	0.044082854
123	0x3d8e5abd	0.06950901
124	0xbc8458ab	-0.016155561
125	0x3cb1da1f	0.021710454
126	0xbd382590	-0.044957697
127	0x3d42208d	0.047394324
128	0x3b472dc5	0.003039227
129	0x3d808b1d	0.06276534
130	0x3c730fd1	0.014835314
131	0x3cea76b7	0.02862106
132	0xbd2b8569	-0.041875277
133	0xbd65723e	-0.056017153
134	0xbcbd0681	-0.02307439
135	0xbc53e3a5	-0.012932693
136	0x3d5a6c53	0.053325962
137	0x3d0dfda3	0.034665715
138	0x3bd850ba	0.00660142
139	0xbc871a75	-0.016492108
140	0xbd5b4865	-0.053535838
141	0x3d8aeb01	0.06783105
142	0xbd781cf1	-0.060574476
143	0xbb25a3e3	-0.0025274686
144	0xba6f0711	-0.00091181794
145	0x3ce08b2a	0.027410109
146	0xbcb9f094	-0.022697724
147	0x3d80e71f	0.06294083
148	0xbae3d526	-0.0017382249
149	0xba86026d	-0.0010224112
150	0xbd06d33f	-0.032916304
151	0x3d53e52a	0.05173222
152	0xbd46be25	-0.04852118
153	0xbb69b285	-0.0035659384
154	0xbd62c201	-0.055360798
155	0x3d8b154d	0.06791172
156	0x3c80ccec	0.015722714
157	0xbd63440f	-0.055484828
158	0x3d582e0f	0.0527783
159	0xbcfc1a35	-0.030774215
160	0x3d037808	0.032096893
161	0xbd66cf03	-0.056349766
162	0x3cab8521	0.020937504
163	0xbd0e4807	-0.03473666
164	0x3d2ac925	0.041695733
165	0x3c6b9076	0.014377704
166	0x3d63bb3c	0.055598482
167	0x3d534671	0.05158085
168	0x3cf42022	0.029800478
169	0x3d191829	0.037376557
170	0xbd9bbc0b	-0.07604226
171	0xbc3521da	-0.011055434
172	0x3d91432a	0.07092889
173	0x3d55c60e	0.052190833
174	0xbd5e509d	-0.054276098
175	0x3d765fa8	0.06014982
176	0x3c37606c	0.011192422
177	0x3cb95f1a	0.022628356
178	0xbccd17f5	-0.025035838
179	0xbaa0f367	-0.0012279571
180	0xbd88cbe2	-0.066795126
181	0x3d633aa2	0.05547584
182	0xbcd28930	-0.025700182
183	0xbcd98de5	-0.026556918
184	0xbc259c7f	-0.010108112
185	0xbd7d0df2	-0.061780877
186	0xbbb859bb	-0.005625931
187	0xbd8d0659	-0.06885976
188	0xbda2b87c	-0.07945344
189	0x3c9d5875	0.019207219
190	0xbd2e9adc	-0.042628154
191	0xbd86cd5e	-0.065821394
192	0x3d4cdad6	0.050013386
193	0x3b3ae24d	0.0028516233
194	0x3d27d3d8	0.040973514
195	0xbd004e08	-0.031324416
196	0x3cbd345f	0.023096262
197	0xbd802be1	-0.06258369
198	0xbca2fea1	-0.019896807
199	0xbc5d2c80	-0.013499379
200	0xbcc0a807	-0.023517622
201	0xbc941f8a	-0.018081445
202	0xbc10135a	-0.008793676
203	0x3d126253	0.0357383
204	0x3d603a16	0.054742895
205	0xbc9d4434	-0.01919756
206	0xbc98d2f4	-0.018655278
207	0xbd539c02	-0.051662453
208	0xbd1b6aa3	-0.037943494
209	0x3cf1a8fa	0.02949952
210	0x3d5715eb	0.052511137
211	0x3a08678c	0.0005203418
212	0x3a7879c8	0.0009478596
213	0xbd0c1d22	-0.03420747
214	0x3cc765fa	0.024340618
215	0xbd90f9b7	-0.07078879
216	0x3d12e5a2	0.035863526
217	0xbcb9b4d6	-0.022669237
218	0x3cf3db10	0.029767543
219	0x3c60ba28	0.013716258
220	0x3d7134e6	0.05888834
221	0x3b24bfa3	0.0025138638
222	0x3cf4c266	0.029877853
223	0xbcb1c341	-0.02169955
224	0x3d02793d	0.031853903
225	0x3d8a0787	0.06739717
226	0xbcf4db90	-0.029889852
227	0xbd4892a8	-0.048967987
228	0x3d970727	0.07374411
229	0x3cceda0e	0.025250461
230	0xbd89d253	-0.06729569
231	0xbd42f089	-0.047592673
232	0xbd83dc0a	-0.064384535
233	0xbcac0ac2	-0.021001223
234	0xbd8fdd45	-0.07024626
235	0xbd947db2	-0.07250537
236	0x3d175d9d	0.03695451
237	0xbca672e2	-0.020318452
238	0xbb8d6cca	-0.004315947
239	0xbd251cf9	-0.040310834
240	0xbd5c627a	-0.053804852
241	0xbbc04fdb	-0.0058688945
242	0xbd9e7eb4	-0.077390105
243	0x3d2207b8	0.039558142
244	0xbc7aa5bd	-0.015298304
245	0xbc62feb7	-0.013854674
246	0x3c68b0fc	0.014202353
247	0xbd8f65af	-0.070018165
248	0x3c6d5bcc	0.014487218
249	0x3c9cfc88	0.019163385
250	0x3d8bfe05	0.0683556
251	0x3d8ef741	0.06980754
252	0x3d3569d9	0.044290397
253	0xbd54d060	-0.051956534
254	0xbd6dce1a	-0.058057882
255	0xbc0c38a6	-0.008558428

shared3.bias f4 [200]
0	0x3d3f9ee4	0.04678239
1	0x3ca9b0c6	0.020714175
2	0x3d8436b0	0.06455743
3	0x3d1b3d51	0.037900273
4	0x3d9d4557	0.07679241
5	0x3cc02c6e	0.023458686
6	0x3c1ffcb6	0.009764841
7	0x3d8fb84f	0.07017576
8	0x3daf90d4	0.08572546
9	0x3d8872a8	0.06662494
10	0x3d534291	0.051577155
11	0xbd886ef2	-0.06661786
12	0xbd7adb00	-0.06124401
13	0x3d1a3b59	0.037654255
14	0x3d9ad9da	0.07561083
15	0xbc311dcd	-0.010810328
16	0xbc35465f	-0.011064141
17	0xba829d36	-0.0009965065
18	0x3c6783f4	0.014130581
19	0xbd0a1c63	-0.033718478
20	0xbd6e0904	-0.058114067
21	0x3d350097	0.044190016
22	0xbd53995e	-0.051659934
23	0x3c1b030d	0.009461177
24	0xbd40496c	-0.04694502
25	0x3d4333ac	0.0476567
26	0xbbb529cc	-0.005528664
27	0x3d2c635f	0.042086955
28	0xbd90cb6f	-0.07070052
29	0xbd306ebc	-0.043074355
30	0x3b357008	0.0027685184
31	0xbcd70d7a	-0.026251543
32	0x3d5d43a4	0.054019585
33	0xbc25b561	-0.010114045
34	0xbd713196	-0.05888518
35	0x3c0f2b3c	0.008738335
36	0xbcdf2182	-0.027237657
37	0x3bb26350	0.005443968
38	0x3d8401cf	0.064456575
39	0xbcc99141	-0.024605395
40	0xbcb745e8	-0.022372201
41	0xbc1fb258	-0.00974711
42	0xbc8b1b89	-0.016980903
43	0xbb57a561	-0.003290497
44	0x3d8c7b5c	0.068594664
45	0x3c1bb374	0.009503234
46	0xbca17795	-0.019710341
47	0x3d64cb4e	0.05585795
48	0xbc5bfc98	-0.013426922
49	0x3d8da02f	0.06915318
50	0x3d24ca51	0.040232006
51	0x3d12422b	0.035707634
52	0xbd914ae8	-0.07094365
53	0x3ce72843	0.02821744
54	0x3d18053e	0.037114374
55	0x3d2f8a87	0.04285672
56	0xbd8e0b9a	-0.069358066
57	0x3d663ea4	0.056212083
58	0xbd971710	-0.07377446
59	0xbc72e0d3	-0.01482411
60	0xbd61eeaa	-0.05515925
61	0xbcb53da5	-0.022124121
62	0x3d27fc2f	0.041011985
63	0xbc8d60e7	-0.01725812
64	0xba4b8715	-0.0007763964
65	0x3d3a481c	0.045478925
66	0x3d07230b	0.032992404
67	0xbc08cba7	-0.008349336
68	0xbbaa644e	-0.0051999455
69	0xbd54d91e	-0.05196487
70	0xbd9f9f42	-0.07794048
71	0xbd24a827	-0.040199425
72	0xbd9e07ca	-0.077163294
73	0xbd8c7a24	-0.06859234
74	0x3d18c393	0.03729589
75	0x3c0da092	0.00864424
76	0xbd466788	-0.04843858
77	0x3cb59677	0.022166474
78	0xbd22b89a	-0.03972683
79	0xbca57c90	-0.020200998
80	0x3c64b9a9	0.01396028
81	0xbda17a6b	-0.078846775
82	0x3c40793b	0.011747654
83	0xbc87b800	-0.01656723
84	0xbd31188a	-0.043236293
85	0x3c160ddb	0.009158577
86	0xbba9513d	-0.005167155
87	0x3da96ef6	0.08273117
88	0x3d083780	0.033256054
89	0x3d062821	0.032753114
90	0x3bc15c08	0.0059008636
91	0xbd25112e	-0.040299587
92	0xbd1ed5e9	-0.03877822
93	0x3b979557	0.004625957
94	0xbcac0497	-0.020998282
95	0x3d9a6b19	0.075399585
96	0xbd63d3bc	-0.055621848
97	0x3d60ecab	0.054913204
98	0x3b2256e4	0.002477103
99	0x3d69d2dd	0.05708586
100	0xbd8610c9	-0.0654617
101	0x3cd5166e	0.026011672
102	0xbce8a0a0	-0.028396904
103	0x3d0dea2f	0.034647163
104	0x3d1e3807	0.03862765
105	0x39aeefe2	0.00033366593
106	0xbd11438d	-0.035464812
107	0x3d13ae1b	0.03605471
108	0x3db1b115	0.08676354
109	0xbd80ef61	-0.06295658
110	0x3c087d6c	0.008330684
111	0x3c1aafea	0.009441355
112	0xbc210a98	-0.009829186
113	0x3ce01852	0.027355347
114	0x3d61923e	0.055071108
115	0x3d83c3eb	0.06433853
116	0xbb8ee721	-0.004361049
117	0x3c9f8e25	0.01947696
118	0x3ccf3acd	0.025296593
119	0x3c0d64ae	0.008629961
120	0xbd143492	-0.036182947
121	0x3c7d2ab3	0.015452075
122	0xb822905d	-3.875826e-05
123	0xbd071a00	-0.03298378
124	0xbd998156	-0.07495372
125	0x3d8fa240	0.070133686
126	0x3cc1d3b8	0.023660526
127	0xbc08be3c	-0.008346137
128	0x3c969a35	0.018384079
129	0x3c04176c	0.008062225
130	0xbd9a8382	-0.075446144
131	0xbd79640a	-0.06088642
132	0xbd4bccab	-0.049755733
133	0xbd83461a	-0.06409855
134	0xbd8c8705	-0.068616904
135	0x3d02a1e6	0.03189268
136	0xbcd7ac2c	-0.026327215
137	0xbd1e6841	-0.038673643
138	0xba450730	-0.00075160246
139	0x3d9a9210	0.075473905
140	0x3d43d137	0.047806945
141	0xbb9578bd	-0.0045615123
142	0xbd8c7e50	-0.0686003
143	0xbd84f73c	-0.06492469
144	0xbca7ba98	-0.020474717
145	0x3d694bce	0.05695706
146	0x3c8025d5	0.01564304
147	0x3bf3f980	0.007445514
148	0x3d8f181c	0.069870204
149	0x3d6b7a12	0.057489462
150	0xbdb69df3	-0.08916845
151	0xbd000042	-0.031250246
152	0x3d8629b0	0.0655092
153	0x3d967c12	0.07347883
154	0x3d0ef9ea	0.034906305
155	0xbcf86d75	-0.03032563
156	0xbc429e0a	-0.0118785
157	0x3d145fcf	0.036224183
158	0xbd181f34	-0.037139133
159	0xbd880aad	-0.06642661
160	0x3d4cc53b	0.04999278
161	0x3d041ead	0.032255817
162	0x3c451fcf	0.01203151
163	0x3cf0d7c0	0.029399753
164	0xbc9f0bb2	-0.019414756
165	0xbd9b9c41	-0.075981624
166	0x3d90a951	0.070635445
167	0x3d159e90	0.03652817
168	0xbd114a92	-0.035471506
169	0xbd087716	-0.033316694
170	0x3d4e1edc	0.0503224
171	0x3baee75e	0.0053376397
172	0xbbc830c5	-0.0061093294
173	0x3c21a78a	0.009866605
174	0xbd31d2c5	-0.043413896
175	0x3d57a6d2	0.052649327
176	0xbd04b061	-0.03239477
177	0x3ce4546b	0.027872285
178	0x3d183085	0.037155647
179	0xbca4dd85	-0.02012516
180	0xbd7deb15	-0.06199177
181	0x3d417b31	0.047236625
182	0xbbec3371	-0.0072082807
183	0xbd12709b	-0.03575192
184	0xbd8ac69a	-0.067761615
185	0xbd87f319	-0.06638164
186	0x3d28b15a	0.04118476
187	0xbd9814ca	-0.0742584
188	0xbd63cb36	-0.05561372
189	0xbd1ccaba	-0.038279273
190	0xbd48d15f	-0.049027797
191	0x3d20e517	0.039280977
192	0x3d05e8d1	0.032692734
193	0x3d93d823	0.07218959
194	0x3c8d7525	0.017267773
195	0x3d9a8be7	0.075462155
196	0x3d9a9bac	0.07549223
197	0x3d7a3ec4	0.061095014
198	0xbccf7b67	-0.025327398
199	0x3d2f3b22	0.042781003
