DR_Info_CFR/Jobs/Models/mu_net.pth (torch, 348071 bytes, 11 tensors)

hidden1_mu.weight f4 [200, 26]
000000 a9 1d 87 3d 1a 60 86 3d d4 12 19 3e 9a 37 3f 3e
       0.06597454 0.06561299 0.14948589 0.18673554
000010 66 39 fa bc 9e 39 58 3c 85 03 01 3e df 37 d6 bd
       -0.030544948 0.013197331 0.12598999 -0.10459875
000020 28 08 d9 bc ab 53 9f 3d ca c0 d6 3d 11 9d 94 bd
       -0.026493147 0.0777963 0.1048599 -0.072565205
000030 7e cd 08 3d ad 32 3e 3d 45 9f b8 bd 50 6e 41 3d
       0.033399098 0.046435047 -0.09014753 0.047224343
000040 78 3e 18 3d 39 85 89 3d 58 8d 22 bd d6 a0 2c 3b
       0.03716895 0.06714863 -0.039685577 0.0026340983
000050 09 a9 b3 bd bb 91 9a 3d 9f 01 40 bd 12 1d 5b 3d
       -0.08772475 0.07547327 -0.046876546 0.05349452
000060 f4 6f 8c bd 86 af fe 3d 7c bf 4e 3d 79 dc ac 3d
       -0.06857291 0.12435822 0.050475582 0.08440489
000070 41 3a 0c be 71 f1 9a bd 0c f4 00 3d 43 e1 07 3e
       -0.13694097 -0.075655825 0.03148274 0.13269524
000080 6e 19 5c 3c 9f 92 99 3a 12 3e a0 3d 7e 12 1f bd
       0.013433797 0.001171667 0.07824339 -0.038835995
000090 01 80 a6 3d 8d 07 7f 3d 48 04 ac 3d c0 7f 96 3d
       0.081298836 0.06226306 0.08399254 0.07348585
0000a0 7f 46 1c 3e 10 eb 33 bd 77 44 63 bd fb 34 df bd
       0.15261267 -0.043925345 -0.055485215 -0.10898777
0000b0 22 44 a9 3c 3b c1 33 bd 4f ce 74 3d 46 23 ae bc
       0.020662371 -0.04388545 0.059767064 -0.021257054
0000c0 70 67 46 3d 20 7c a9 3d 65 f6 47 bc 57 b6 ba bb
       0.04843849 0.08275628 -0.012204741 -0.005698006
0000d0 2f 92 0b 3e 88 5d 24 be 5e 31 d3 3d 50 f8 fe 3d
       0.13629983 -0.16051304 0.103121504 0.124497056
0000e0 17 82 f4 bd cc 35 03 be d8 82 74 3a 68 59 40 bd
       -0.11938875 -0.1281349 0.00093273586 -0.046960264
0000f0 78 4a 14 3e e9 07 a7 bd 0e df 23 3c 01 e9 bb bc
       0.14481533 -0.081558056 0.010001911 -0.022938253
000100 12 bb c7 3d 08 66 9f bd c4 23 cc 3d 70 37 22 3d
       0.09752478 -0.07783133 0.09967759 0.03960365
000110 1a 0f 26 be 84 9a 0f 3e 1d ae 23 3d fa 7b 87 3d
       -0.16216698 0.14023787 0.03996097 0.066154435
000120 e5 dd ab bd 05 00 f0 3d 42 02 9a bd f1 6f bf 3d
       -0.083919324 0.11718754 -0.07519962 0.09347523
000130 ff 48 a4 bd 42 7e b4 bd e7 90 66 3d d2 d3 0e 3e
       -0.080217354 -0.08813144 0.056290533 0.1394799
000140 88 49 88 bd 92 d4 d1 bd bb 82 ae 3d 29 ca 10 3d
       -0.0665465 -0.10245623 0.085210286 0.035349045
000150 f5 9b 21 bd 71 8d 03 bd dd 5e 05 3e dc 16 21 be
       -0.039455373 -0.03211731 0.13024469 -0.15731376
000160 df fb 10 3e db 3c 28 3e 00 23 b0 bd e0 55 81 bd
       0.14158581 0.16429465 -0.08600426 -0.063152075
000170 f0 44 f5 bd c4 bb 4e bd aa 17 ed 3c d5 d9 e6 bd
       -0.119760394 -0.050472036 0.028941948 -0.11272017
000180 b3 ea e8 3d fd c4 cf 3d fd 2c db bd b1 03 cc bc
       0.1137289 0.101449944 -0.1070194 -0.024904104
000190 3d 80 1d 3d 44 bb 6d 3d b1 89 1a be 4c b0 70 3e
       0.038452376 0.05803992 -0.15091588 0.23504752
0001a0 07 da 98 3d 0a 11 0c 3e e3 58 63 b9 82 6f ac bd
       0.074634604 0.13678375 -0.0002168152 -0.08419706
0001b0 c5 46 ff bc fe 33 8d 3d f9 2f d4 bd f9 2c 08 3c
       -0.031161675 0.06894682 -0.103607126 0.008311504
0001c0 00 c7 15 3e 04 b1 40 bb b4 fe 7c 3b 13 ff 47 3d
       0.14626694 -0.0029402385 0.0038603963 0.048827242
0001d0 00 a3 2c bc 8e 9b 08 be 70 0b 0e be c4 ad 16 be
       -0.010536909 -0.1334059 -0.1387155 -0.14714724
0001e0 15 7b 9b bd c8 b0 e4 3c b8 3b 00 3e e4 66 85 3c
       -0.075918354 0.027916327 0.12522781 0.016284414
0001f0 d3 77 04 3e 30 e2 43 bd bc c1 8a bb 4b 2d 6c 3c
       0.12936334 -0.04782313 -0.0042345207 0.014415096
000200 3d 8d 14 3c 7f 9b 01 be 18 b6 fe bb 7c ef 1e 3e
       0.009066877 -0.12656973 -0.007773172 0.15521044
000210 37 54 2f bd 02 89 70 bd 64 d2 19 3e fa 40 11 3c
       -0.042804923 -0.05872441 0.15021664 0.008865589
000220 33 4e 46 bd 59 cb c3 bc a7 8c b2 3c 5f 65 2b be
       -0.04841442 -0.023900675 0.021795584 -0.16737889
000230 1a cc 6b bd 8f 6f 91 bd 48 c4 16 3e 08 92 63 3d
       -0.057567693 -0.07101356 0.14723313 0.055559188
000240 db c6 11 3e 24 33 e1 3d af 80 b9 bc 39 fd 9c bd
       0.14236014 0.109960824 -0.022644369 -0.07665486
000250 7c 58 2f 3d 66 3f 29 be 63 3e f6 bd a8 10 01 be
       0.042808995 -0.16528091 -0.12023618 -0.1260401
000260 37 c8 de bd 61 23 ca 3d 47 75 ea bd de 1c 8c 3e
       -0.10878032 0.09870029 -0.1144815 0.27365774
000270 b2 76 6c 3d ac bc 5e bd 1d 71 20 3e ff 63 8f bd
       0.057730384 -0.05437915 0.1566815 -0.070014946
000280 bd e1 78 bd 7d 76 d5 bd d2 e3 98 3d c3 43 1c bd
       -0.060762156 -0.104229905 0.07465328 -0.03815056
000290 d2 c5 26 be f0 99 3d bd 8c 64 16 bc 1d 74 6a 3d
       -0.162864 -0.046289384 -0.009179246 0.05723964
0002a0 19 38 19 be 98 25 44 3c ea be 8d 3d a3 03 07 be
       -0.14962806 0.011971854 0.069211796 -0.13184981
0002b0 98 b3 88 bb 04 a5 0d 3d 10 ee c9 bc b8 f1 9a 3d
       -0.0041718 0.0345812 -0.02464965 0.075656354
0002c0 12 f5 ef 3d 17 62 d0 bc bd 5c c4 bb 40 e8 36 bd
       0.11716665 -0.025437398 -0.0059925006 -0.044655085
0002d0 fb cb 17 3b 42 96 2b be 1f 88 6b bd f2 b8 09 3e
       0.0023162353 -0.16756538 -0.057502862 0.13449457
0002e0 08 dd 45 3c 54 d1 17 3e 91 59 c0 bd a3 4b 8b bb
       0.012076624 0.14825946 -0.093920834 -0.00425096
0002f0 1b f0 5c bd 30 ee ca bd ae 18 ab 3c d4 4f cd 3d
       -0.05393992 -0.09908712 0.020885792 0.10024992
000300 2b 6b 73 bd 0f 23 c7 3d 19 0c 24 be 95 5e ab 3c
       -0.059428375 0.09723484 -0.1602024 0.020919124
000310 b4 e3 1f 3e 4d dd 97 bd 46 b3 c2 3d 2e cb f0 3d
       0.15614206 -0.07415257 0.0950685 0.117575034
000320 c6 88 81 bd 73 1e e1 bc b1 5e f1 3c 44 b7 05 be
       -0.063249156 -0.02748034 0.029464098 -0.13058192
000330 75 4b 0c 3d 3f 9a a1 bc 8c a4 19 3e 43 7c a8 bd
       0.03425165 -0.01972687 0.15004176 -0.08226826
000340 b6 18 1e 3e 73 d2 8c 3c f9 86 d3 bc b6 12 3d be
       0.15439114 0.017190194 -0.025821196 -0.18464169
000350 e5 78 27 3e 39 c3 bb 3d a5 d9 1e 3e 75 74 e1 3c
       0.16354711 0.09168095 0.15512712 0.027521351
000360 40 67 08 be 08 29 28 3e 7e d3 71 ba 77 70 02 be
       -0.13320637 0.16421902 -0.0009224935 -0.12738214
000370 99 51 95 bd fd bf 0f be a7 d3 54 3d a6 3d 05 3e
       -0.07290954 -0.14038081 0.05195966 0.13011798
000380 06 9e b5 bd 51 2a 4f 3d da e0 0a bd 51 92 c8 3d
       -0.08868031 0.050577465 -0.03390584 0.09793533
000390 76 5c 91 3d 17 b5 1a 3d 54 4d bc bc 2e f3 a7 3d
       0.07097714 0.037770357 -0.022986092 0.0820068
0003a0 79 1b 37 3e 47 38 37 be e8 d9 48 bd ca 53 06 be
       0.17881574 -0.17892562 -0.049035937 -0.131179
0003b0 bd e9 12 3e 03 69 c6 3d 03 c1 2e bc 97 ca 8a 3d
       0.14346977 0.09687998 -0.010666135 0.06776922
0003c0 e3 3a 14 3e 0e c7 4d bd 3a ea 35 3d f3 58 1a bd
       0.14475589 -0.05023866 0.04441283 -0.037682485
0003d0 65 79 c8 bd b3 bb f7 bd 11 82 11 3e b8 50 da bd
       -0.09788779 -0.12096348 0.14209773 -0.10659927
0003e0 26 98 74 bd 5d db ec bd 9b 3c ec bd 3f 27 e1 bd
       -0.059715413 -0.11565278 -0.11534997 -0.10993814
0003f0 0c 42 da bd 91 a6 bb bc e7 f4 a8 bc 74 04 fa bc
       -0.10657129 -0.022906573 -0.020624591 -0.030519702

hidden1_mu.bias f4 [200]
000000 48 5e 75 3c bf 29 12 be 8a d6 11 3d 45 6c 81 bc
       0.014976092 -0.14273737 0.03560499 -0.015798697
000010 c4 69 16 bc 65 45 42 be 86 0c 80 bd d4 8e d4 bd
       -0.00918049 -0.18971784 -0.06252389 -0.10378805
000020 d2 9b d9 bd b3 a5 03 be 9b d2 cc bb a5 14 10 be
       -0.106254235 -0.12856178 -0.006250692 -0.14070375
000030 45 db 92 3c 60 39 17 3e 5f fb 31 bd 7e b8 1a be
       0.017926821 0.1476798 -0.043452617 -0.1510944
000040 39 47 bc 3d f5 1a 26 be e2 b0 e1 3d 9a 99 1c bd
       0.09193272 -0.16221221 0.11020066 -0.038232423
000050 3d 06 ed bd 24 48 25 3d e0 f2 22 be f4 32 ac 3d
       -0.115734555 0.040352 -0.15912962 0.08408156
000060 8a 70 25 3e b5 6b d7 bd a5 be 52 3d 50 5b 48 3d
       0.16156211 -0.1051859 0.051451344 0.048915207
000070 8c 35 1a 3e 12 08 88 3d f4 c1 3a bd 15 f2 0a bd
       0.15059489 0.06642164 -0.045595124 -0.033922274
000080 46 c4 2d 3e 0c bb 20 3e 42 0e 11 be d4 8c 88 3c
       0.16969404 0.15696353 -0.14165595 0.016668715
000090 bf 29 14 3e fa f4 54 3d ca 88 5c bd 6b 2b 1a be
       0.1446905 0.05199144 -0.05384139 -0.15055625
0000a0 20 ea 47 be 27 99 07 be c0 46 1f 3e 50 4a b7 3c
       -0.19522905 -0.13242017 0.15554333 0.022374302
0000b0 ed 83 21 3e fe 05 a7 bd 6d fd 22 3b d0 8a c7 bd
       0.15772982 -0.0815544 0.0024870292 -0.09743273
0000c0 d7 9a 15 3e 09 b2 14 be 60 75 07 3b df 7b 1f 3e
       0.14609848 -0.1452104 0.0020669326 0.15574597
0000d0 48 dd 8a bd 54 a0 02 bd 14 fa 00 be 4e 93 14 be
       -0.06780487 -0.031891182 -0.12595397 -0.14509317
0000e0 6d d5 c5 bd 1d e1 1f 3e 60 89 eb 3c 27 16 eb 3d
       -0.09659848 0.15613218 0.028752029 0.114788346
0000f0 a5 41 18 be 60 39 1c be b8 70 10 be ad 6f ff 3d
       -0.14868791 -0.15256262 -0.14105499 0.12472472
000100 24 d9 76 bd 53 04 18 be 5c e1 02 3d 87 b7 fb bd
       -0.060265675 -0.148454 0.0319532 -0.122908644
000110 18 17 9a bd 65 3f 11 3e 79 56 b9 bb 4e 6a d2 3d
       -0.07523936 0.1418434 -0.0056560603 0.10274182
000120 29 9b ae 3d 08 e5 cb 3d 37 c9 05 be d3 75 42 3c
       0.08525688 0.099557936 -0.13065039 0.011868912
000130 ab e3 a7 bd 38 c0 9b bd de 3e 77 3c b4 1b b7 3d
       -0.08197721 -0.07605022 0.015090672 0.08940831
000140 ba b4 b9 bd 40 a5 af 3b ea 97 31 3e 39 13 a9 3d
       -0.09067674 0.0053602755 0.17343107 0.082556196
000150 56 ed 69 3d d9 01 ea 3d 92 4e 94 3d 40 f1 0a 3d
       0.057111107 0.11426134 0.072415486 0.03392148
000160 2e 45 c2 bd 23 89 17 be ad 88 e0 3d a6 8b 18 3e
       -0.09485851 -0.14798407 0.10963569 0.14897022
000170 47 33 3e be 86 0b 38 be 94 f8 49 3d 51 5b 0b be
       -0.18574248 -0.17973146 0.04930933 -0.13609053
000180 0c df c7 3d a1 f1 18 be 02 ad 16 be c1 2c bf 3d
       0.0975934 -0.14935924 -0.14714435 0.09334708
000190 c5 7a 28 be 35 93 14 3e 13 90 0d 3e f8 a9 2c be
       -0.16453083 0.1450928 0.13824491 -0.16861713
0001a0 01 7b 14 3e 0c 5a 69 bc 2a 5b 00 3e cd 74 43 3e
       0.14500047 -0.01424266 0.12534776 0.19087525
0001b0 c0 9d b6 bd bb 1c de bd 36 d1 6c bd b3 55 8b 3d
       -0.08916807 -0.10845324 -0.057816707 0.06803455
0001c0 97 e4 95 3d 5f c8 02 3e 95 d6 01 be 7d cb 96 3d
       0.07318991 0.12771748 -0.12679513 0.07363031
0001d0 78 4e 7e bd 12 93 c1 bc a6 a8 1d be 32 5f 2d 3e
       -0.062086552 -0.023629699 -0.15396366 0.16930845
0001e0 dc fa 92 bd 51 ed 22 3d 90 14 bd bd a7 d3 0e bd
       -0.07176754 0.039777104 -0.092324376 -0.034869816
0001f0 95 e1 29 be 2a 7f d7 3c 61 d4 52 3c 07 30 fb bd
       -0.16589959 0.026305754 0.012868018 -0.1226502
000200 83 f5 cf bd 4f a3 e5 bd a6 2e 41 3d bb df f9 bd
       -0.101542495 -0.11212789 0.047163628 -0.12200876
000210 f8 27 54 3d f4 f4 d4 bd 5a e4 08 be 18 76 29 be
       0.05179593 -0.103982836 -0.13368359 -0.16548955
000220 37 4e 1e 3d 46 bf 1d 3e fb bd 12 3e 6e ae f1 bd
       0.03864881 0.15404996 0.14330284 -0.11800848
000230 66 3d b8 3d 57 d9 a2 bc d1 bc e6 3d ee 1c b9 bc
       0.08996086 -0.019879026 0.112664826 -0.022596803
000240 d6 3e 1d 3e 12 2f f6 3d 1e 46 0f 3d ad 02 e8 bc
       0.15356001 0.12020697 0.03497898 -0.028321588
000250 82 4e ea bd fb 4d 07 be 85 b4 88 3d c4 36 98 bb
       -0.114407554 -0.13213341 0.06675056 -0.0046452004
000260 e4 fe cd 3d 50 39 c4 bc 96 f5 2b bb bd 00 9d bd
       0.10058382 -0.02395311 -0.002623891 -0.076661564
000270 d3 da 45 bd 8d f9 4b 3d 72 3d 27 3e 69 eb d1 3d
       -0.04830439 0.049798537 0.16332033 0.10249979
000280 13 48 9a 3d 5a 82 0a 3e 5e 3e a1 3c 82 c5 20 3d
       0.07533278 0.13526288 0.01968306 0.039250858
000290 37 77 a7 3d 34 19 26 bd e0 ce 3c be fd e5 33 3e
       0.08177035 -0.04055138 -0.18438292 0.17568202
0002a0 fe da 35 3e d3 2c 14 3e 31 6a d2 bc 42 c7 07 be
       0.1775932 0.14470224 -0.025685402 -0.13259605
0002b0 8a a0 14 3d 04 bb 0d be f7 4c 57 3d 3a 8c b1 bc
       0.036285914 -0.13840872 0.052563634 -0.02167331
0002c0 79 0e 20 be 72 bd 05 3e 20 fa 5c 3d 98 e3 26 3d
       -0.15630521 0.13060549 0.053949475 0.040744394
0002d0 92 38 82 bc 63 fd b2 3d ed 7d 94 bd b3 7f 58 bd
       -0.015896115 0.08739736 -0.07250581 -0.05285616
0002e0 42 b6 14 be bf 47 c5 3d d5 b9 c7 bc 48 ba 4a bd
       -0.14522651 0.09632825 -0.024380604 -0.049494058
0002f0 bc 34 cf 3d 01 93 f1 bc c8 0c ca 3d 89 8f f8 3c
       0.1011748 -0.029489042 0.09865719 0.03034188
000300 0a 08 ab bd 6f c4 04 3e 63 dc c6 bd cd c6 46 3d
       -0.08351143 0.12965558 -0.09710004 0.048529435
000310 e2 b0 e7 3d b3 83 f3 bd 40 ac fd 3c e1 c9 85 3d
       0.113130346 -0.11890354 0.030965924 0.06532646

hidden2_mu.weight f4 [200, 200]
000000 d9 13 ba bc 31 fb 17 bd 82 e8 28 3d fb 21 76 bd
       -0.022714542 -0.03710479 0.04123736 -0.060091
000010 6e b7 3e 3d f7 ce 8e 3c 72 ec 8a ba de 86 ac bb
       0.04656165 0.017432673 -0.0010599031 -0.005265101
000020 3c 12 01 bd 64 cd 37 bd 9b 93 58 3d 23 41 1d 3d
       -0.03151153 -0.04487361 0.052875143 0.038392197
000030 5c e7 35 3d 5c ae 2d bd e7 ff c2 3c fb a7 8e 3d
       0.044410095 -0.04240261 0.023803664 0.069656335
000040 e4 35 c2 bc 9b dc cd bc 0e 98 54 3c 95 08 6b bd
       -0.023707338 -0.025129607 0.012975706 -0.05738123
000050 f1 e0 a7 3c 2c 90 54 bd d9 bb e2 bc a4 e7 f4 bc
       0.020493003 -0.051895306 -0.027677463 -0.029895611
000060 40 03 07 3c 58 03 55 bc a8 e6 a7 3a 77 84 ed 3c
       0.008240521 -0.0130012855 0.001280983 0.028993828
000070 0a 41 14 bb bb 39 35 3c 33 f7 fe 3b aa 7f 01 bc
       -0.0022621774 0.011061127 0.0077809333 -0.007903973
000080 a9 6b 0d 3b d9 0c 4a bd 4f d6 22 3c 80 37 1f 3b
       0.0021579063 -0.04932866 0.00993879 0.0024294555
000090 5b 9a e1 3c 8d 6c 0a 3d 0d 3a 81 3b be 3d 87 3d
       0.027539423 0.03379493 0.003943688 0.06603573
0000a0 66 63 02 bc c4 86 56 3b d4 3a f2 3c b2 14 79 3d
       -0.007958269 0.0032734135 0.029569067 0.060810752
0000b0 8d f4 a1 bc 9c 0c 87 bd 17 1c 07 bd 39 d8 21 bd
       -0.019769931 -0.06594202 -0.032985773 -0.039512847
0000c0 e6 90 b6 3d 92 6c 12 bd a2 62 2b bd 89 0a 9f 3d
       0.08914356 -0.035748072 -0.04184211 0.07765681
0000d0 31 3a 97 3d 96 c2 35 bd 74 fe 92 bd 19 f6 9b 3c
       0.07384146 -0.044375025 -0.07177439 0.019038247
0000e0 c6 02 b9 3c a8 ee 80 bc e2 a6 d3 bb 25 c5 86 bc
       0.02258433 -0.0157388 -0.006459103 -0.016451428
0000f0 42 5b 09 bd dd 96 84 3c 5e c5 86 b9 5f 71 0d bd
       -0.033534296 0.016185218 -0.00025705522 -0.034531947
000100 d3 0a b8 3d f4 90 47 3b 31 46 61 bc 1e 1a 16 bc
       0.089864396 0.003045139 -0.013749645 -0.0091615
000110 a0 97 cb bc 4c ee cf ba 2b aa 4c bd 84 91 13 3d
       -0.024852574 -0.0015863865 -0.049966972 0.036027446
000120 2d af fb 3b c1 27 1e bd f5 61 9f 3c 8a dc 38 3d
       0.0076807947 -0.03861213 0.01945589 0.045132197
000130 8e 64 cc bc 8a 45 5c bc 5b d1 37 bd 27 d9 16 3c
       -0.024950292 -0.013444314 -0.04487739 0.009207047
000140 bb c7 79 bc d3 79 77 bd d0 42 93 bc 1a 6a af 3c
       -0.015245373 -0.060418915 -0.017976195 0.021412898
000150 79 be 4c bd e6 6c 28 bd 56 83 51 3d c7 f0 ea bc
       -0.049986336 -0.04111948 0.051150642 -0.028679265
000160 a9 8d 1c bc fe 30 6b 3c b9 e4 85 3d 33 d2 8f bc
       -0.009555259 0.014354942 0.06537766 -0.017556285
000170 7a 78 14 3a d4 e2 57 3c 05 50 f1 3c c6 23 a9 b7
       0.00056637044 0.013176639 0.029457102 -2.0163028e-05
000180 c4 8b d2 bc dc 44 11 3d d1 63 db bc 6a 49 78 bd
       -0.025701411 0.03546606 -0.026780995 -0.060616888
000190 2a 50 22 bd 9e d9 70 bc f0 60 22 bd 23 c3 e4 bc
       -0.03962723 -0.0147003215 -0.039643228 -0.02792508
0001a0 17 cc 2d 3d 7f 6a 52 bd 97 f4 ff 3c 0d e7 fa 3c
       0.042430963 -0.051371094 0.03124456 0.030627752
0001b0 17 4c 85 3b 3d 2f 07 3d 6b 69 13 3d 92 04 24 3d
       0.0040679085 0.033004034 0.035989206 0.04004342
0001c0 fa 30 4d 3d f0 5a ab bc c6 77 c6 bc 78 a5 26 bd
       0.050095536 -0.020917386 -0.024227034 -0.040685147
0001d0 f7 11 d5 3c aa 12 29 3d 8e 74 a4 3d 2a af 96 3c
       0.026009543 0.041277565 0.080300435 0.018394072
0001e0 9d 6f 19 3c 54 53 47 bc 63 ee 72 bd bd 34 88 3d
       0.00936499 -0.012165863 -0.059309375 0.06650684
0001f0 98 76 03 3d 61 de 28 3d 21 b4 52 3c 48 37 78 bd
       0.03209552 0.041227702 0.012860329 -0.060599595
000200 c8 7d 04 3c cb bb 40 3b 68 16 b1 3c 79 a6 96 3d
       0.008086629 0.0029408808 0.02161713 0.07355971
000210 3e e2 65 bb ee 84 d1 39 4d db 84 bd e0 b3 cb bc
       -0.0035077478 0.00039962627 -0.06487141 -0.024866045
000220 96 73 8e 3b db c2 58 3d a3 d5 2b bc c1 25 52 3c
       0.004347275 0.052920204 -0.010487947 0.012826384
000230 31 dd 94 3d 70 da 6c bd 15 bb 60 3c ef 84 31 3d
       0.072687514 -0.057825506 0.013716479 0.043339666
000240 b4 26 8e bb ed e0 28 bd 10 74 62 bd 9b 44 75 bd
       -0.00433811 -0.04123013 -0.055286467 -0.05987988
000250 0d 66 8d bc 04 87 78 bd 64 73 8e bd d0 00 54 3b
       -0.017260576 -0.060675636 -0.06955603 0.0032349117
000260 50 57 3a bd 62 d3 66 3a b3 b8 a3 bc 55 5c a0 3b
       -0.045493424 0.0008805302 -0.019985532 0.0048938193
000270 32 fc b7 3d ea 07 21 3d 47 46 14 3c 46 d6 57 bc
       0.08983649 0.039314188 0.009049959 -0.013173645
000280 9e f6 b9 bc c2 be ca bc 77 b2 13 3a 7d 1f f9 bc
       -0.022700604 -0.024749164 0.00056341983 -0.030410523
000290 5e cd 7a 3d 31 db 62 bc 44 dc 0c bc 88 7d 86 bd
       0.06123101 -0.013846205 -0.008597437 -0.06566912
0002a0 41 27 06 3d 24 f8 55 bc b0 e0 81 3d 94 21 e7 3c
       0.03275228 -0.01305965 0.06341684 0.028214253
0002b0 28 33 88 3d eb b2 97 bd 0d c6 fb 3c 42 37 77 bd
       0.06650382 -0.07407173 0.030734086 -0.060355432
0002c0 35 59 d2 bb 55 71 b1 3d e5 be b7 3d 06 2a 92 bd
       -0.0064193257 0.086641945 0.08971957 -0.071369216
0002d0 70 21 29 bd e9 2b 9b 3b e5 24 b0 3c 39 a5 90 3c
       -0.041291654 0.004735459 0.021501968 0.01765691
0002e0 9f 98 9c bc b4 8c 2f bd 5c 12 a2 bc 35 66 8a bd
       -0.019115744 -0.042858794 -0.019784145 -0.06757776
0002f0 fe 46 36 3d b9 28 a9 3c a5 bc 65 3c ed 00 80 3c
       0.044501297 0.0206493 0.014022027 0.015625441
000300 df 68 59 bd f9 44 e2 3b 28 9d 6a 3c cf ab e4 bc
       -0.05307853 0.006905195 0.0143196955 -0.027913956
000310 ff 15 ee bc 39 bf 1b 3d a2 88 01 bd dc 90 a8 3b
       -0.029063223 0.03802416 -0.031624444 0.0051442217
000320 dc ce 90 bc 45 3e 7f 3d 31 66 98 3c ec e7 4a bc
       -0.017676763 0.062315244 0.018603416 -0.012384396
000330 8d f5 14 bd 79 f8 b5 3c eb 72 11 bd 50 bb e5 3c
       -0.036366988 0.022213208 -0.035509985 0.02804342
000340 4c 66 93 bc d1 19 9c 3c f7 a7 ae 3c b2 17 b1 bd
       -0.017993115 0.019055279 0.021320326 -0.08647098
000350 c5 9f f2 bc 76 c8 35 3d 6a 64 d3 3c 15 cc 48 bd
       -0.0296172 0.044380628 0.025804717 -0.049022753
000360 b3 26 5b 3d 1f 88 28 3d 7e 47 96 3d 2c 42 6e bd
       0.053503703 0.04114544 0.07337855 -0.058168575
000370 d5 89 c8 bb 58 08 27 bd ff 5b f2 bc bc 91 08 3c
       -0.0061199465 -0.04077944 -0.029584883 0.008335527
000380 b1 15 02 3c a4 f1 9b 3c cd 59 6c bd d2 c3 50 3d
       0.007939742 0.019036122 -0.05770283 0.050968
000390 d7 5e 0c 3d 6b 68 8c 3a b2 53 14 bc de 8b 92 bc
       0.034270134 0.0010712271 -0.009053158 -0.01788896
0003a0 af 78 2b 3d 6e 89 9a 3c 89 b6 96 bc fb 64 00 bd
       0.04186314 0.01886436 -0.018397586 -0.031346302
0003b0 d9 a8 10 bd 65 5c 07 bc f4 69 03 3d 32 f7 21 bd
       -0.035317276 -0.008261775 0.032083467 -0.039542384
0003c0 d2 cb 17 bb d6 fb 90 3c 06 07 b5 3d a6 71 94 bc
       -0.0023162258 0.01769821 0.0883923 -0.018120598
0003d0 76 8f d5 bc e7 3f 29 3d cf 87 20 3c d0 5f 80 3d
       -0.026069384 0.041320708 0.009798004 0.06268275
0003e0 ab bd e1 bc 2f 4e f1 3a cf 1e e6 bc d2 c5 6b bd
       -0.027556261 0.0018410141 -0.028090863 -0.057561703
0003f0 fb 3a ce bc 7b 77 84 3c 90 c2 0a bd 1b fa b1 3c
       -0.025174608 0.016170254 -0.033876956 0.021725705

hidden2_mu.bias f4 [200]
000000 ff 54 38 bd 8c 07 0b 3d 33 7a 1a 3d 98 6d 5d 3c
       -0.045002934 0.033942744 0.037714195 0.013514899
000010 ec eb 82 bd dc 17 bd bc 1f 76 18 3c ec 86 5a bc
       -0.06392655 -0.023082666 0.009305506 -0.013337832
000020 39 00 2f 3a ec 68 13 bd 82 3c 7c 3d 57 e9 0a 3d
       0.00066757534 -0.035988733 0.061581142 0.033913936
000030 b2 e7 2a bd 58 73 80 bb 6e b6 92 bd ff 7b 5a 3d
       -0.041724868 -0.00392 -0.07163702 0.05334091
000040 ef 23 4d 3d 2f 25 07 bd 5a 1d a5 3c f8 59 5d bd
       0.050083097 -0.032994445 0.020155597 -0.05404088
000050 09 94 5a bd 78 5a 44 3d 48 65 84 3c e2 dc 5c 3d
       -0.053363834 0.04793784 0.016161576 0.053921588
000060 bb 4a bd 3c 42 02 5a 3d 37 77 84 bc fb c5 25 bc
       0.023106923 0.05322481 -0.016170127 -0.010118003
000070 ea f9 5f 3d d2 f2 88 3d 7e 72 20 bc d4 2d a8 3c
       0.054681696 0.06686939 -0.009792922 0.020529665
000080 83 5f 7a 3c e2 16 28 3c 57 cd 84 bd 67 56 82 3c
       0.015281561 0.010259362 -0.06484478 0.01591034
000090 f0 55 bf 3c 1c 79 34 bd 52 69 14 3d a0 77 d0 bb
       0.023356408 -0.04406081 0.036233254 -0.0063619167
0000a0 8a 5d 38 bd 10 c8 3c bd 3c 18 7e bd 64 53 1d bd
       -0.04501108 -0.046089232 -0.06203483 -0.038409606
0000b0 e3 b7 49 bd 9a 05 7a bd 93 a2 29 3d 5e fd ae bc
       -0.049247634 -0.0610405 0.04141481 -0.02136105
0000c0 76 c5 ce 3b 51 77 79 bd 52 cf 40 3d f9 ab 5a bd
       0.0063101603 -0.060904805 0.047072716 -0.053386662
0000d0 77 12 96 bc 69 3a ff b9 67 3e 7b 3d ba b1 97 3d
       -0.018319352 -0.0004868091 0.06133881 0.074069455
0000e0 e4 ef 69 3c ff 06 72 3d e7 55 82 bc 6f 54 6b bd
       0.014278386 0.059088703 -0.015910102 -0.05745357
0000f0 85 2e 5e 3d ef ac 51 bd ba 41 d0 bc c4 b9 1d 3c
       0.054243583 -0.051190313 -0.025421966 0.0096268095
000100 1e 21 81 bd a9 0d 26 3c 30 cb 04 3d 55 db 65 bd
       -0.06305145 0.010135093 0.032420337 -0.056117374
000110 46 c7 b7 3c 90 b5 12 3d a5 0a 8f 3c c1 41 5a 3d
       0.022433888 0.035817683 0.01746113 0.053285364
000120 e1 4f fa bb 6e 94 a0 bc cf 67 93 bc 44 aa 09 3d
       -0.007638917 -0.019602027 -0.017993836 0.033609644
000130 64 dd 45 bb db ce 78 3d 15 ac 19 3b 99 d8 3d bd
       -0.0030191774 0.060744148 0.0023448516 -0.04634914
000140 ce c5 21 3d af 7e 28 3d a3 4b 80 bd 26 18 7c 3d
       0.039495282 0.04113644 -0.062644266 0.061546467
000150 ac 77 44 bd 9a 33 8d bd 2a 25 8f bd 62 8a 10 bd
       -0.04796569 -0.06894608 -0.0698951 -0.035288222
000160 f6 c6 13 bd 33 f0 03 bd 0d 75 81 bd ef 02 16 bc
       -0.036078416 -0.032211494 -0.06321154 -0.009155973
000170 74 1f 04 bc 21 2b 85 bd 8d 06 e0 bc 77 4c 29 bc
       -0.00806414 -0.06502367 -0.027346874 -0.010333172
000180 be 9a a7 bc 49 18 a7 3c 65 5e 42 bc 18 fc 36 bd
       -0.020459529 0.020397322 -0.011863326 -0.04467401
000190 5d ae a7 bb e2 c4 7d bd 29 e0 99 bc 46 13 e7 bb
       -0.0051172213 -0.06195534 -0.018783646 -0.007051858
0001a0 00 87 4b 3b 18 73 4c bd ca 77 b4 bc 44 44 06 bb
       0.0031055808 -0.04991445 -0.022029776 -0.0020487467
0001b0 04 ee ae bc b4 05 a5 3c 83 ce 05 bd 1c 29 02 bd
       -0.02135373 0.020144321 -0.032667648 -0.031777486
0001c0 e7 d5 8a bd 40 28 1e 3d f1 a3 f9 bc 01 01 32 bd
       -0.0677908 0.038612604 -0.030473681 -0.04345799
0001d0 ae 12 b6 3c 46 06 55 bb 19 e2 5e bd 7b 4e 10 3d
       0.022225704 -0.003250496 -0.054414842 0.035231095
0001e0 fa d2 31 3d be d0 37 3d 1b 35 f3 3c 63 ea df 3c
       0.043414094 0.044876806 0.029688409 0.027333444
0001f0 c4 e4 76 3d 63 12 c2 bb d0 fb 28 3d 7b 25 82 bd
       0.06027676 -0.005922602 0.041255772 -0.06354805
000200 6f 34 07 3d f5 03 75 bb 8a 29 35 bd ab 4f 47 bb
       0.03300899 -0.0037386392 -0.044229068 -0.0030412476
000210 65 70 4d 3c 2d 8c 92 bc 7c 5c 1e bd 63 cb d3 bc
       0.012539004 -0.017889107 -0.03866242 -0.025853818
000220 89 57 9a bc 0d dd 24 3b 99 15 5b bd 48 58 3a bd
       -0.018840568 0.002515617 -0.053487394 -0.045494348
000230 20 00 5e 3c 9f 9a 26 3d 24 02 5e 3c b7 40 0b 3d
       0.0135498345 0.040674802 0.013550315 0.033997264
000240 0f 1a d2 3c f3 27 92 3c d5 b7 34 3c 0e 3b 79 3d
       0.025647191 0.017841315 0.011030157 0.060847335
000250 84 24 47 bd 0f b4 4d bd 45 f4 1a bd f1 3e ee bc
       -0.04861881 -0.050220545 -0.03783061 -0.029082747
000260 11 fa 3c bd 5a be aa 3c 1f 29 e6 bc f6 16 a3 bc
       -0.04613692 0.02084272 -0.02809578 -0.01990841
000270 a0 ab 39 3d 60 cd 59 3d 48 c9 87 bd b6 6d 8f bb
       0.04532969 0.053174376 -0.06630188 -0.0043770922
000280 b3 c5 ec 3c 22 8f 63 bd c4 be 17 3d 0e 64 86 bd
       0.028902864 -0.055556424 0.037047163 -0.06562053
000290 c5 b5 b7 3c 07 0d 5a 3d 91 78 2f bd 75 4b 44 bc
       0.022425542 0.05323508 -0.04283959 -0.011980881
0002a0 d7 c8 b6 3c e9 80 96 3c ab 21 d5 bc f9 23 6e 3d
       0.022312565 0.018372016 -0.02601703 0.058139775
0002b0 aa 35 ac 3c eb 13 9b bc 7d d5 44 3d 53 63 d2 b9
       0.021021683 -0.018930396 0.04805516 -0.00040128324
0002c0 2a 15 17 3d 0e 66 e9 bc 98 57 13 3d be 70 39 bd
       0.036885418 -0.028491046 0.035972208 -0.045273535
0002d0 02 e8 03 3d 2d 5c 2f bd 02 f5 e7 3c 14 86 39 bd
       0.03220368 -0.042812515 0.028315071 -0.045293882
0002e0 0b bb 5d bd 3e 37 90 bc d8 4f d9 3b 18 ab 3e 3d
       -0.054133456 -0.017604467 0.0066318326 0.046549886
0002f0 68 0b 1b 3d 67 98 94 3d b2 1c af bc e8 e8 81 bd
       0.037852675 0.07255631 -0.021375988 -0.063432515
000300 4c a4 8e 3d d2 25 f6 bc c2 89 6e bd 9e 67 d1 bc
       0.06964931 -0.030047331 -0.058236845 -0.025562104
000310 cd d3 56 bd 30 9f 22 3d a8 f1 3b bc e4 38 0d bd
       -0.052448083 0.039702594 -0.01147119 -0.034478083

hidden3_mu.weight f4 [100, 200]
000000 90 c8 e3 3c b8 4c 49 bc 4a 54 dc 3c 2f e7 54 3d
       0.027805597 -0.012286358 0.02689566 0.051978286
000010 0d e0 41 bd 6b ab e7 bb 3f a9 79 bc 86 40 42 3c
       -0.047332812 -0.007069995 -0.015238105 0.011856204
000020 ad b6 7e 3d ef 02 b9 bd 15 d7 f9 ba e7 f3 b2 bc
       0.062185932 -0.09033763 -0.0019061292 -0.021844817
000030 c8 8d b7 bb 10 40 90 3c db ac 97 bc 42 e3 8b 3d
       -0.0056016184 0.017608672 -0.018515041 0.06830455
000040 96 9a dd 3d c5 42 9a 3d 9d f8 00 3d e4 c8 fc 3c
       0.108205006 0.075322665 0.031487096 0.03085751
000050 dd ba 2a bd e5 bd 8c bd cd a2 96 bc e9 88 1a bd
       -0.041682113 -0.06872157 -0.018388176 -0.037728224
000060 9b f4 52 39 ee 44 c0 3c d2 aa 40 bc ab bf 41 bd
       0.00020118283 0.023470368 -0.011759477 -0.04730193
000070 ef ba 28 3c 69 13 8a 3d 0e be 2d 3d 34 fc d0 bb
       0.010298475 0.067419834 0.04241758 -0.006377721
000080 ad 5a 19 bd 86 ac cf bc da 1e 75 3c 13 7a 52 3d
       -0.03743999 -0.02535082 0.014960969 0.05138595
000090 7c 30 d3 bc 5d 0b 16 bd 8a 66 20 bd af 10 95 3d
       -0.025779955 -0.03663193 -0.03916029 0.07278573
0000a0 e6 cb b9 3c 2b 8f 6d 3d b4 3f fc ba ef 70 17 3b
       0.022680234 0.057997864 -0.0019245059 0.0023108085
0000b0 1f 03 78 3d f5 31 ed 3c 2f db 18 bb 47 86 04 3d
       0.06054985 0.028954485 -0.0023324003 0.03235462
0000c0 88 a1 ad bd e4 26 60 bc 8d 95 b2 3b 86 c6 9e bc
       -0.08478075 -0.013681147 0.0054499567 -0.019381773
0000d0 8e 9d be b9 3b c4 92 3d 5f 7d 1c 3d a7 02 1b bd
       -0.0003635701 0.07166334 0.0382055 -0.037844326
0000e0 c5 2e 20 3c 6f a1 c1 3c f3 36 85 3c 93 28 dd bc
       0.009776776 0.023636548 0.016261553 -0.026996886
0000f0 bc e4 4d 3b 6a d1 7a bd 72 d5 34 3d 51 1d 6a bc
       0.0031416854 -0.06123487 0.04414887 -0.014289216
000100 a6 09 48 3c 7c ed a0 3c fb f6 c9 bc ce ca 04 3c
       0.012209332 0.019644491 -0.024653902 0.008104993
000110 55 cf 7f 3c 60 60 a4 3c ee 16 29 3d 35 3f 26 3d
       0.015613397 0.020065486 0.041281633 0.040587623
000120 03 f3 a5 bc dc 42 27 bc 6c c0 3a bd 73 cf 28 bd
       -0.020257479 -0.010208812 -0.045593664 -0.041213464
000130 6c 4a 14 bd 77 47 17 3d 4f 3e 75 3d e2 c3 64 bd
       -0.036203787 0.03693339 0.059873875 -0.05585087
000140 72 5b 52 3d 80 6b b6 3d dc 4a 0a 3d 0c ac c2 bc
       0.05135674 0.08907223 0.033762798 -0.023763679
000150 d9 06 a9 3b 5a 45 3a 3b cb b2 2e bd 97 ec d6 bc
       0.005158287 0.0028422684 -0.04265098 -0.026235862
000160 04 db 04 3d 9d 1d 01 3c ed 54 f6 3c 01 ad b2 bd
       0.032435432 0.0078805955 0.030069793 -0.08724404
000170 27 7e cb 3c e2 a2 8f bd d3 de 0e bd bf 85 e3 bb
       0.024840428 -0.07013489 -0.03488047 -0.006943434
000180 9b 53 29 bc ae d2 6e bd 55 23 4f bd a1 22 a5 bc
       -0.0103348745 -0.05830639 -0.050570805 -0.020158114
000190 ac 14 90 bd 2d 07 c1 bc 20 76 43 3c e7 22 d9 3b
       -0.07035193 -0.023562992 0.011930019 0.006626475
0001a0 92 4d fb 3c 6a 27 73 bd 6c eb 4d bc b9 2f 2c 3c
       0.030676637 -0.05936376 -0.012568336 0.010509425
0001b0 86 ac 88 bd 85 aa e7 3b 71 75 11 bd 68 52 8f 3c
       -0.06673531 0.007069888 -0.03551239 0.017495349
0001c0 72 a5 cf bc a2 23 40 3d 42 2f 96 3d 51 54 d1 3a
       -0.025347445 0.046908982 0.073332325 0.0015970563
0001d0 c7 9b 8c bd ff 63 e0 bc 94 1e 81 3d 51 ed ad 3d
       -0.0686565 -0.027391432 0.063046604 0.0849253
0001e0 54 92 db bb 66 95 8c bd be 90 95 bd 23 55 11 bd
       -0.0067007933 -0.06864433 -0.07302998 -0.035481583
0001f0 8c a2 3e bd 96 33 d3 bc fa 14 c4 3d 78 e7 86 3c
       -0.046541736 -0.025781434 0.095743135 0.016467795
000200 b5 81 74 b9 7d c5 4c 3d 8c 4d 95 3c eb c7 d2 3c
       -0.00023317973 0.049993027 0.018225454 0.025730094
000210 22 ea 49 bc 4a f6 fa bc f1 a6 2f bd 53 c9 b4 3d
       -0.012323888 -0.030635018 -0.042883817 0.08827462
000220 d0 9e 97 3a a6 5c 7a 3d 3e e9 54 bd 87 ea a0 bc
       0.0011567716 0.061123513 -0.05198025 -0.019643081
000230 e6 68 f7 ba 50 44 a3 bd 58 0e 35 bd da 22 8d 3b
       -0.0018875867 -0.07972014 -0.044203132 0.004307133
000240 14 c5 8b bd b0 79 61 3d a5 40 7d 3d d4 fb 4b 3d
       -0.06824699 0.05504769 0.061829228 0.04980071
000250 b5 1b 9e 3d d7 0b bd 3c a2 c2 85 3c 29 9d ab bb
       0.077201284 0.023076935 0.01632816 -0.005237241
000260 09 12 72 bd 9a 58 96 3d 8e 11 e7 bd 4f bc ca bc
       -0.05909923 0.07341118 -0.11282645 -0.024747996
000270 e0 f4 9f bc 8a b5 9a 3d 47 27 66 bd 6c 90 52 3d
       -0.019525945 0.07554157 -0.0561898 0.051407263
000280 e1 24 03 3d a4 87 6b bc 6b 52 6a bd 22 b6 a0 bd
       0.032017592 -0.014375601 -0.057207506 -0.07847239
000290 91 77 87 bd 6d 1c 3b 3d d4 a8 57 bd b8 9d a5 3c
       -0.06614602 0.045681406 -0.05265124 0.020216808
0002a0 15 a1 92 bb 0c ae d7 3c 51 7e 9b bb aa 36 7e ba
       -0.004474769 0.02632811 -0.0047452827 -0.00096974766
0002b0 a7 39 8c 3b fe 46 00 3d ea 7d 86 3d 5a 03 18 3d
       0.0042793336 0.031317703 0.06566985 0.03711257
0002c0 a7 63 dd 3c 3a bf 95 bd 72 a4 ab bc d2 eb 56 3d
       0.027025057 -0.07311864 -0.020952437 0.05247099
0002d0 f0 94 87 bd 60 de a7 bd 4b 53 c9 bc a0 cb 03 3c
       -0.066202044 -0.081967115 -0.02457585 0.008044153
0002e0 2d 62 d1 bb 31 df 30 bd 4c 42 30 3b eb ed 8b bd
       -0.0063898773 -0.043181602 0.0026894985 -0.068324886
0002f0 fa eb 98 3c d0 cf ce 3c 29 3e 73 bd 5b 25 78 bc
       0.01866721 0.025245577 -0.059385452 -0.015145625
000300 d0 ec f9 3c 67 af 9e bd aa 01 67 b8 a4 f5 25 3d
       0.030508429 -0.07748299 -5.507624e-05 0.040517464
000310 06 af 3e bb c0 6d 40 ba 4e 05 0f 3c 53 02 1f bd
       -0.0029096021 -0.0007340573 0.008729292 -0.038820576
000320 7f fc 65 bd 7f 28 4e 3d 1d 1a fb bc 03 05 ba 3c
       -0.056149002 0.05033159 -0.0306521 0.022707468
000330 6d 3d 1a bd 16 ca d4 3b 60 f3 ad 3c 5d c6 44 bb
       -0.037656236 0.006493817 0.021234214 -0.003002546
000340 07 7f 49 3c 3b 69 20 bd ea fd cd 3a 86 c8 d6 bc
       0.012298352 -0.039162856 0.0015715931 -0.026218664
000350 f4 ea c3 3b 35 46 20 3b e9 a8 19 3d a5 0a 54 bc
       0.0059789363 0.002445591 0.0375146 -0.012941991
000360 8f d9 44 bd c4 7c 41 bd e1 99 8d 3c a1 37 0a bd
       -0.048059043 -0.047238126 0.01728529 -0.033744458
000370 24 80 00 3d 94 c3 08 bd c3 31 06 bd 92 e3 97 b9
       0.031372204 -0.033389643 -0.0327623 -0.00028970517
000380 6a 72 3a bd c9 03 96 bc 39 e2 ed 3c eb b1 92 3b
       -0.04551927 -0.018312352 0.029038535 0.004476776
000390 9a 73 78 bc 9b d3 ee bc 1f dd 89 3c b6 f1 37 3d
       -0.01516428 -0.029153636 0.016829072 0.044908248
0003a0 8c 0f 75 3b 6d 49 99 bc 40 2a b4 bc 1f 4a 3b 3d
       0.00373933 -0.01871177 -0.021992803 0.045724984
0003b0 5c e1 1a bd 69 0d ac bc 8e 14 e7 bb 8b 4e 22 3b
       -0.037812576 -0.021002488 -0.007052011 0.0024766054
0003c0 df 8e e1 3b 6f 2c 23 bd 0d f2 fb bc d1 13 20 bd
       0.0068834866 -0.039837297 -0.030755067 -0.0390814
0003d0 ed f9 48 3b ff 64 98 3c e4 e9 3c 3d 7d 31 99 ba
       0.0030666545 0.018602846 0.046121493 -0.0011687722
0003e0 71 72 ba bc dc b8 31 bd d3 03 7f bc 12 ec 96 bc
       -0.022759648 -0.043389186 -0.015564877 -0.018423114
0003f0 38 74 79 3c c9 86 30 3d 8a 3f 61 3a ab cd cd 3c
       0.015225463 0.04309729 0.0008592537 0.025122484

hidden3_mu.bias f4 [100]
000000 b4 18 48 bd b2 0b 6f 3d 2b 92 5e bc f0 9d 5c bc
       -0.048851684 0.058360763 -0.013584654 -0.01346539
000010 5e 28 81 bc ce 33 7a bd 26 61 53 3d 96 01 33 3d
       -0.015766319 -0.06108456 0.05160632 0.043702684
000020 96 48 bf 3c ec 4f 2d bd e2 db a6 b9 0d 6b 72 bd
       0.023350041 -0.042312548 -0.00031825813 -0.059184123
000030 b0 03 9e bb 2a 92 b4 3c 92 45 85 bc c8 c2 2f bd
       -0.004822217 0.022042353 -0.016268525 -0.042910367
000040 d6 bf eb 3b 01 87 4d bc d4 2d 65 3c f7 52 4b 3c
       0.0071944995 -0.0125443945 0.013987977 0.012409917
000050 4d 97 dd bc 40 d8 74 bd d3 17 63 3d db 87 38 3d
       -0.027049685 -0.059776545 0.055442642 0.045051437
000060 88 b4 a9 3c 1c b1 82 bd e4 f5 ae 3c c0 4e 2e 3b
       0.020715967 -0.06381437 0.021357484 0.0026597232
000070 57 53 9d 3c 9f b1 0f bd 86 e2 0e 3d 3c f5 ac bb
       0.019204779 -0.035081502 0.034884 -0.0052782577
000080 f8 e0 97 bc d0 0e f3 bb ff 38 07 bd 51 c3 99 bc
       -0.01853989 -0.0074175373 -0.03301334 -0.018769892
000090 1f c7 a5 bc 8f 81 12 bd 14 a7 88 3b 18 bf 5f bd
       -0.02023655 -0.035768088 0.004170308 -0.0546256
0000a0 11 37 3d 3d 89 90 76 bd 8b 85 74 3d 13 69 0e 3d
       0.046195094 -0.060196433 0.05969767 0.034768175
0000b0 28 31 73 bd 8c 27 47 bd 7a 38 9d 3c c8 28 24 bc
       -0.05937305 -0.0486217 0.01919197 -0.010019489
0000c0 21 01 c9 3c 14 7b cb 3c c0 a9 08 bd 72 31 91 bd
       0.024536671 0.024838962 -0.03336501 -0.07089509
0000d0 da bc 55 bc 8d ed a2 bc f4 5a 3a 3c 5d ac 0b bd
       -0.013045514 -0.019888664 0.011374224 -0.034099925
0000e0 6f e0 ae bc 83 37 51 bd 64 6a cb 3c 8e 1f 4f 3d
       -0.021347253 -0.05107833 0.024831004 0.050567202
0000f0 f3 6b 19 bd ec 4d 81 bd f7 ae 48 3a f2 c8 62 3b
       -0.037456464 -0.063136905 0.00076554663 0.0034604636
000100 01 be b3 ba 11 8d 5c 3d cc f8 1f 3d dd 31 57 3d
       -0.0013713242 0.05384547 0.03905563 0.052537788
000110 3c 16 5a bd 6e 31 be 3c d2 11 4b bd 64 78 62 bd
       -0.05324386 0.02321693 -0.04957754 -0.055290595
000120 77 5c a9 bc ea 3c 4a bc b4 65 45 bc 13 89 46 3d
       -0.020673973 -0.012343625 -0.012048174 0.048470568
000130 fb c7 2c 3d 49 c8 8a 3d 8d 1d 90 3c 09 dd ae 3c
       0.042182904 0.067764826 0.017592216 0.021345632
000140 d9 68 28 3c f3 f3 d5 bb 63 08 86 bb 1c 77 a6 3c
       0.010278904 -0.006529325 -0.0040903552 0.020320468
000150 f9 53 96 3c ea 50 30 3d f4 84 b7 3c 01 e1 62 bd
       0.018350588 0.043045916 0.022402264 -0.05539036
000160 02 da 75 3d 16 f2 2c bd 8f 77 21 3d 05 eb d8 bc
       0.06002236 -0.04222306 0.03942066 -0.026479254
000170 a9 ac 54 3d 0b e5 0a bd 09 34 b6 bc 84 e4 a9 bb
       0.051922474 -0.03390984 -0.02224161 -0.005184712
000180 c1 71 78 3b 64 df 85 ba 03 ba 55 bc a5 8d 4e bd
       0.00379096 -0.001021367 -0.013044837 -0.05042805

hidden4_mu.weight f4 [100, 100]
000000 dc 3c b0 3d d8 15 c9 bd 7c 91 d2 3d 9e 14 83 3d
       0.08605358 -0.098186195 0.10281655 0.06400417
000010 46 8d 27 3d f4 11 5c 3b db 86 1a 3d fb 57 ab bd
       0.040906213 0.0033580037 0.037726264 -0.0836639
000020 d5 3d 8b bc de 70 8a bd 32 74 38 3d 49 eb b1 3c
       -0.016997257 -0.06759809 0.045032687 0.021718638
000030 e1 8d 54 bd 1d 01 92 bd ab 00 69 bd 72 7f 9d bd
       -0.05189312 -0.071291186 -0.056885403 -0.07690324
000040 0e e5 9b ba 61 7a d3 bc a9 a5 4e 3d 4d 97 3c bd
       -0.0011893825 -0.02581519 0.050450955 -0.04604273
000050 06 c3 83 bd 76 f8 09 3c 12 52 a8 3c c8 00 0d 3d
       -0.06433682 0.008421054 0.020546947 0.034424573
000060 1a 10 1f bd 2d 6f 83 3c e9 cd 10 3d 7a dd e0 3a
       -0.038833715 0.016044224 0.03535262 0.0017155849
000070 e0 49 5f 3d 05 7b 49 3c 02 d9 37 bd c3 d9 9e bc
       0.054513812 0.012297397 -0.04488469 -0.019390946
000080 86 6f 50 bd a3 5e d4 3d 64 c0 ea bb 96 fb 6c 3d
       -0.050887607 0.10369613 -0.007164048 0.05785712
000090 30 6c 00 bd 7a a5 38 bd 0b c2 24 3d 84 c0 27 bd
       -0.031353176 -0.045079686 0.040224116 -0.04095508
0000a0 0e ec a2 bd 19 f7 2a bc 5b 21 12 bd 76 4d 87 3d
       -0.0795518 -0.010434889 -0.03567634 0.066065714
0000b0 36 e9 c2 bd 19 d9 87 bd d0 67 a7 3d 54 3e 41 3d
       -0.09517138 -0.06633205 0.081740975 0.04717858
0000c0 89 09 2f 3c 15 f4 6f bb 57 3f 1e bd 51 6a 71 3b
       0.010683426 -0.003661399 -0.038634624 0.003683705
0000d0 88 98 99 bd ba 5f 4a bd a3 3b 7d bd be c0 b7 3a
       -0.07499796 -0.0494077 -0.061824452 0.0014019234
0000e0 3e 41 b3 3c 68 a0 2a 3d 67 00 e5 3c be 2c 97 bc
       0.021881696 0.04165688 0.027954293 -0.018453952
0000f0 ba 60 58 3d ce c2 2c 3c 01 28 84 3d 15 13 0c bc
       0.05282662 0.010544492 0.06452943 -0.008549471
000100 2f d9 2c 3d 04 f2 ca 3d e7 2b 18 3d 38 bc cb 3d
       0.04219931 0.09909442 0.037151244 0.09948009
000110 40 ae e2 3c 1c 76 50 ba 35 41 a8 3c 4c b3 6b 3b
       0.02767098 -0.000795217 0.020538906 0.0035965024
000120 9c a9 5d 3d 51 a4 b3 3d 24 fc d1 3d 87 bb 9e bd
       0.05411683 0.08771575 0.1025317 -0.07750612
000130 10 1e b3 bb 43 3d 2c bd ba 4a 8a bc 47 d5 94 3b
       -0.00546623 -0.04205061 -0.016881336 0.004542026
000140 33 09 98 3d 4b 00 6d 3d bc 7d 41 bd 63 8f 59 bd
       0.074236296 0.057861608 -0.04723905 -0.05311526
000150 3a 6e ca bd 23 32 9c bd d1 3c 08 bc a8 1f 67 3d
       -0.09884305 -0.0762675 -0.008315281 0.056426674
000160 b4 0b 2e 3d 52 ca a1 bc 0e f3 8c 3d 5f d1 d3 bd
       0.04249163 -0.019749794 0.068822965 -0.10342669
000170 b9 e1 a1 3d 39 60 ad 3c c3 ae 9f bd b2 1c e1 bc
       0.07904381 0.021164047 -0.07797005 -0.027479503
000180 76 5d 73 bd ca c1 5e 3c 69 bd 23 3c ad 47 ad bd
       -0.059415303 0.013596008 0.009993889 -0.08460937
000190 82 91 95 3d 76 f3 9b bd ed 36 43 bd c5 5f ae 3c
       0.07303144 -0.07614796 -0.047659803 0.0212859
0001a0 08 44 5e 3d 5f d0 82 bb e4 5b 3d bd b0 23 c7 3c
       0.0542641 -0.003992125 -0.04623021 0.02430901
0001b0 5e be 83 bd 66 e3 76 ba ab 37 fb 3c 23 6f 66 bc
       -0.06432794 -0.000941804 0.030666193 -0.014064583
0001c0 07 46 a9 bc 17 67 47 bc e8 23 82 3c 82 da 30 bd
       -0.020663274 -0.012170575 0.015886262 -0.043177135
0001d0 74 49 d8 bc 41 33 bb bc b4 ca 0f bd 5f 20 d2 3c
       -0.026402213 -0.022851588 -0.035105422 0.025650201
0001e0 e8 2e 94 bd d9 20 91 bc 12 7f 1b bd 96 d0 b5 bd
       -0.07235509 -0.017715858 -0.03796298 -0.08877675
0001f0 72 00 64 bc c0 23 36 bd 3b 86 75 bd e2 88 ae bd
       -0.013916122 -0.044467688 -0.059942465 -0.08522202
000200 8d d0 eb 3c 0b 14 0c 3d 73 7b a6 3b 30 4c a8 3d
       0.028785968 0.034198802 0.0050806343 0.082176566
000210 c6 ba 8e bb 2b d1 fe bc 37 3a 96 3d 5b 9c ff bc
       -0.004355761 -0.031105598 0.07335322 -0.031202486
000220 cf a8 08 bd a6 e6 33 bd 29 ef 3f bb b6 c7 ad 3c
       -0.033364113 -0.043921135 -0.0029286838 0.021213394
000230 3a 85 39 bc a6 f0 16 bb 64 ab 78 bd 5b 0a 3c bd
       -0.011323268 -0.0023031621 -0.060710326 -0.045908313
000240 fd 0d 45 3d 87 01 61 bc 31 52 63 bd fd 50 49 3b
       0.048109043 -0.013733274 -0.055498306 0.0030718439
000250 5a 15 6b 3c d8 99 8f 3c 32 82 88 bd 0d f7 98 3c
       0.014348352 0.017529413 -0.06665458 0.01867249
000260 53 34 bc 3d 99 80 29 3c 5e 7e 9e b8 b6 d7 20 bd
       0.091896676 0.0103456015 -7.557565e-05 -0.039268218
000270 94 17 90 3c 11 fa f6 3c 54 39 ef ba cc a8 5a bd
       0.017589368 0.030148538 -0.0018251338 -0.053383633
000280 28 88 40 bd b1 1a e1 bc fa 63 09 bd cc e5 2c 3d
       -0.04700485 -0.027478548 -0.03354261 0.04221134
000290 16 2c 29 3d 49 94 82 3d df ae 5b 3c 1f 38 b9 bc
       0.04130181 0.063759394 0.013408392 -0.022609768
0002a0 38 b0 29 bb 97 f4 4c bc 54 2e 9e 3b af a2 83 bc
       -0.0025892388 -0.012509487 0.0048273 -0.016068785
0002b0 55 53 47 bd 62 a3 00 bd 03 94 59 bc bd b2 1d bc
       -0.048663456 -0.031405814 -0.013279918 -0.009625134
0002c0 67 0b 16 3d 35 11 07 bc 04 8a 23 bd f5 82 34 bd
       0.036631968 -0.008243849 -0.039926544 -0.044070203
0002d0 44 f8 8c 3d 5d 33 88 3b ca b9 6e bd 55 2b 3e bd
       0.068832904 0.0041565136 -0.05828265 -0.046428043
0002e0 bd 1e f6 bc b0 ef 9c bd 14 00 97 3c 3e 2e 7d bd
       -0.030043954 -0.07662904 0.018432654 -0.061811678
0002f0 7a 9c 14 3d 7f 2d 3b bd 50 80 63 3d f6 a5 9e 3c
       0.03628204 -0.045697685 0.05554229 0.019366246
000300 ae 04 71 3b 46 f7 f5 bc 39 bc 52 bc 17 4d 26 3d
       0.003677647 -0.030025136 -0.012862259 0.040600862
000310 56 5a 80 3d a1 45 37 bd 22 0a 86 bd 8b 46 bb bc
       0.0626723 -0.044744138 -0.065449014 -0.022860786
000320 59 1a 63 bc 58 ca 92 3d 94 c9 86 3d e0 1a 8a 3d
       -0.013861262 0.071675 0.06581417 0.06743407
000330 b3 e7 15 3d 5c db 36 bd 32 f6 86 bd 06 26 00 3d
       0.03659792 -0.04464279 -0.06589927 0.031286262
000340 eb e5 8b 3d c8 e2 b0 bc 2d 2e ab 3c e9 54 3a bd
       0.06830963 -0.021592513 0.020896042 -0.045491133
000350 79 91 c4 3d f0 cd 04 bd a0 14 05 3d 86 11 8c bc
       0.09598059 -0.03242296 0.032490373 -0.0170982
000360 f6 e9 67 3d 68 a0 05 3d fa bd ec bc 13 88 8a bd
       0.056619607 0.03262368 -0.028899182 -0.06764235
000370 83 2c c5 3b 14 cf 50 3d ca 65 ba bd 11 4a 90 3d
       0.006017269 0.050978735 -0.09101446 0.07045377
000380 57 c5 c5 3c 13 dc e4 bb d2 89 87 3d 5b 20 2a bc
       0.02414195 -0.0069842427 0.06618084 -0.010383691
000390 47 ee 4a 3c 1a 69 53 bb 5e 3d 5f bc 35 4f bc 3c
       0.012385911 -0.003225869 -0.013625471 0.022986988
0003a0 88 cc 97 3d f4 53 75 bc 1c 09 7f bd 94 6b 3d bd
       0.07412058 -0.014973629 -0.062264547 -0.046245173
0003b0 21 f3 80 3d 58 80 86 bd 34 0e 88 3d fe 5e 1e bd
       0.06296373 -0.065674484 0.06643334 -0.03866481
0003c0 f1 4c b1 bd 4e 88 66 3d 5a 62 2a 3d 55 aa 72 3d
       -0.086572535 0.056282334 0.0415977 0.059244473
0003d0 8c 3f 6a bd ba cd 9f bc 8f 64 53 3d be 2e a5 bc
       -0.05718951 -0.019507278 0.051609572 -0.02016389
0003e0 63 e0 71 3d eb 2a 7a bd 27 bd a0 bd c7 8f 22 3d
       0.059051882 -0.061076086 -0.07848578 0.039687898
0003f0 ef ed 30 bd c6 af ad bc 38 a7 ad bd 99 da a0 3d
       -0.04319566 -0.02120198 -0.0847916 0.07854194

hidden4_mu.bias f4 [100]
000000 48 11 a9 bc ea 9a 25 3c 50 71 1e bd 08 2b 1f 3d
       -0.020638123 0.010107735 -0.038682282 0.038859397
000010 9e 2d 56 bc 94 ab b9 bd 13 0a 97 3c b8 ce cc bb
       -0.013072399 -0.09065929 0.018437421 -0.0062502287
000020 fb 91 21 bd d5 ab 21 bd 43 10 46 3d 7e bb 08 3d
       -0.03944586 -0.039470512 0.048355352 0.03338193
000030 a9 0d 91 bd f5 d4 83 3d a1 f9 5a bd 51 67 38 3d
       -0.070826836 0.06437103 -0.05346072 0.045020405
000040 a8 4d 45 3d 01 e3 83 bd f3 c9 ae bd 85 7f f0 3b
       0.048169762 -0.06439782 -0.085346125 0.0073394203
000050 69 ed bb bd 17 5a a8 bd 8f 49 b8 3c 36 4b 81 bd
       -0.09176142 -0.08220308 0.022496013 -0.063131735
000060 c2 c4 6d 3d d1 96 ed bb 34 a2 9d 3d 42 82 da ba
       0.05804897 -0.0072506447 0.076969534 -0.00166709
000070 f6 a3 3f bb f6 33 3f 3c 24 7b b9 bb e4 33 8f ba
       -0.0029242015 0.011670103 -0.0056604315 -0.0010925499
000080 c4 66 bf 3c b4 a5 1c 3d d9 7f b2 3c d6 7b 93 3d
       0.023364432 0.038243964 0.021789478 0.07201354
000090 08 4d 9a 3c 51 ec b5 bd f6 5f 08 3d 04 20 8e 3c
       0.01883556 -0.088829644 0.03329464 0.01734925
0000a0 14 b4 91 bc 86 57 e5 3b a7 7f 23 bd cc ab 06 bd
       -0.017786063 0.006998959 -0.03991666 -0.032878682
0000b0 97 dc e3 bc a2 61 bb bc 21 8f bc 3c 23 6b b0 3c
       -0.027815146 -0.022873703 0.023017468 0.021535462
0000c0 48 42 a0 3c 9b d6 05 3d bc 7c 81 3b bc b6 71 3c
       0.019562855 0.032675367 0.003951637 0.01475304
0000d0 9d 17 70 bc 48 a6 c8 bb 03 24 55 3d 9f d7 55 3d
       -0.014654067 -0.006123338 0.052036297 0.052207585
0000e0 75 74 6e 3c be 68 f3 3a 08 97 3c bd 23 4a 35 3c
       0.014554133 0.0018570644 -0.046042472 0.011065039
0000f0 37 03 99 3d 90 a7 d4 bb e1 58 97 3d 39 10 00 3d
       0.07471316 -0.0064897016 0.07389999 0.03126547
000100 a3 9d 97 bc 5c 92 8e 3d e5 05 be bd e5 aa ad 3b
       -0.018507784 0.069615096 -0.09278468 0.005299913
000110 12 ad 85 3d 87 21 54 3c 8d c5 ed bc 77 95 fc bc
       0.06527151 0.012947447 -0.029024864 -0.03083299
000120 0b 78 9b 3d 4b 2f ad 3c b1 04 7b bd 88 0b 99 bd
       0.07591256 0.021140715 -0.06128377 -0.074729025
000130 d8 a5 1a 3d d8 0c a3 bc a4 3d 22 bb 99 44 98 bd
       0.037755817 -0.019903585 -0.002475598 -0.07434959
000140 3f e1 df bb 56 03 aa bb 5e a4 a9 3d 6d a4 bf bd
       -0.0068322713 -0.005188386 0.08283304 -0.093575336
000150 83 72 2d bc 9e 88 16 3c 9f ac 15 3d a6 2f 4b 3b
       -0.010586384 0.0091878455 0.036541577 0.0031003742
000160 fb 67 aa bd 23 7e 84 3d 80 d6 ad 3d 34 d5 37 3c
       -0.08320614 0.06469371 0.08488178 0.011220265
000170 2b ae a8 3d ff 73 81 bd 39 a1 89 bd 73 1d a3 3c
       0.08236345 -0.063209526 -0.06720204 0.019911503
000180 3a 54 7a 3d 56 ee 71 bd 88 b3 7e bd 52 f5 ae 3b
       0.06111548 -0.059065185 -0.062182933 0.005339303
