DR_Info_CFR/Jobs/Models/netD.pth (torch, 8555 bytes, 5 tensors)

hidden1.weight f4 [30, 19]
000000 ff 37 1c bd 76 47 89 3c ed 7c 04 bc c0 1d af 3b
       -0.03813934 0.016757708 -0.008086425 0.0053441226
000010 29 31 9b 3d 1b 61 50 3c 08 99 18 be 1d 63 1e 3d
       0.07577736 0.012718464 -0.14902127 0.03866874
000020 7a 12 82 bd 58 ce 2c 3e 48 ff 70 3d f2 a4 de 3d
       -0.063511804 0.16875589 0.058837205 0.108713046
000030 ed be a7 3e 34 2e dc ba ce 1c e0 3c 5b fb 47 bc
       0.32762852 -0.0016798438 0.027357485 -0.012205924
000040 52 50 e8 3d 19 7c 1a 3f 95 7a 96 3d 80 40 b6 3d
       0.11343445 0.6034561 0.073475994 0.08899021
000050 d3 95 04 3d 07 61 b1 be 65 e6 75 3e 66 f1 cc 3e
       0.032369446 -0.34644338 0.2401367 0.40027922
000060 e0 f3 2f bd 62 4c 15 3e 15 00 2f 3e 60 74 8b 3d
       -0.042957187 0.14579919 0.17089875 0.06809306
000070 7c 0b 10 3e 5b 4d 7a bd 6c b6 02 be b4 85 c3 bd
       0.14066881 -0.06110893 -0.12764901 -0.09546986
000080 20 57 13 3e 7f 18 d0 bd f3 98 f8 3d dd 31 9c 3c
       0.14388704 -0.10160922 0.12138548 0.019066745
000090 f5 cb b6 be d2 c3 c3 3d df 9b d5 3d 0f 45 2f 3d
       -0.35702482 0.09558834 0.10430121 0.04279047
0000a0 f6 89 62 3d 82 38 8e 3d e1 cd 5c bc f0 80 54 3e
       0.05530735 0.06944372 -0.01347682 0.20752311
0000b0 e4 5b 59 be 08 f5 84 3e 0b c0 84 3d 42 ea 7c 3e
       -0.2122646 0.25968194 0.06481942 0.24698737
0000c0 ea e0 ed 3c 96 97 2b be b4 09 1a bd da 99 cf bd
       0.029037911 -0.16757044 -0.03760691 -0.10136767
0000d0 0c 12 2d be 3d d1 21 be d2 c5 5d bd 48 6a 03 3f
       -0.16901416 -0.15802474 -0.054143734 0.5133405
0000e0 c9 e5 07 3c 5c 9a 5a 3e f8 bb 07 bd 8e 6d d1 be
       0.008294531 0.21347946 -0.033138245 -0.40903896
0000f0 6b 03 c4 3d 03 b1 83 3e ae ba 78 bd d6 6a df 3d
       0.095709644 0.25720987 -0.060724907 0.10909049
000100 c0 e3 20 3e 0c 50 a6 3d cb b7 70 3e d5 b9 9a 3d
       0.1571188 0.081207365 0.23507611 0.07554976
000110 8a a2 f6 3d b2 21 79 3d fc 31 12 3d a6 ca 1b be
       0.120427206 0.06082315 0.0356922 -0.15214023
000120 6b 95 25 3d 31 a0 79 3a 16 f6 d0 bd 32 5a ac 3c
       0.0404257 0.00095224666 -0.10203187 0.021039102
000130 1b 11 40 3c 37 f0 eb 3d 51 2a 75 bd ca ec 69 bd
       0.011722828 0.11520427 -0.05985481 -0.057110585
000140 67 ae 00 3a a9 55 c0 3d a4 9b d8 3d a2 9b 1b bd
       0.00049088005 0.093913384 0.10576561 -0.03799022
000150 ff d4 97 bd cd ae f4 3d 14 be f7 bd e9 f7 95 3e
       -0.07413673 0.11947403 -0.120968014 0.29290703
000160 f0 84 09 bd 0c 90 d0 3c ec c7 bd 3c c0 b2 1d 3d
       -0.033574045 0.025459312 0.02316662 0.038500547
000170 67 71 d4 bc d5 df 5b 3f 4c a8 3a 3d aa e5 e6 3c
       -0.02593298 0.85888416 0.045570657 0.028185684
000180 c1 14 9e bd a2 67 8c be 48 de 02 bd 9f 70 7c 3e
       -0.07718802 -0.27422816 -0.031950265 0.24652337
000190 23 d7 de bd 9a aa ce 3d c7 b2 73 3d b1 0e 0c 3e
       -0.10880878 0.100911334 0.059496667 0.1367748
0001a0 5b 6d f2 3d 1a f8 86 3d ca f9 84 3d cb 9d d9 3d
       0.11837264 0.0659029 0.06492956 0.106258
0001b0 71 aa 11 be 59 b0 e5 bc 3e db 06 be 85 35 8d 3a
       -0.14225174 -0.02803819 -0.13169572 0.0010773396
0001c0 dc fb 86 be d8 79 76 3d 16 30 30 3e 5a 0a 05 bd
       -0.26364028 0.060174793 0.17205843 -0.032480575
0001d0 8e b6 a7 be 2f 3c b9 3d 98 f6 90 3e ef 57 9a bd
       -0.32756466 0.09044682 0.28313136 -0.07536303
0001e0 2b cf 20 3e 45 57 58 3d 5c ac 28 bd af b6 74 3e
       0.15704028 0.0528176 -0.04118 0.23897813
0001f0 b4 f0 8c 3d d3 d6 83 bd 95 f8 91 3e df 5e e7 3c
       0.06881848 -0.06437459 0.28509966 0.02824348
000200 36 63 96 3d 9f 83 ce 3c bb bc 91 3e 71 4d 4d 3a
       0.07343142 0.025209246 0.28464302 0.0007831669
000210 c6 9c 2d bd 72 0f c6 3d 06 2e 15 3e d4 b8 57 3b
       -0.04238584 0.09670915 0.14568338 0.0032916563
000220 d9 65 9b 3c 0d 78 52 3d 18 99 27 3e b9 fc 3d 3e
       0.018969463 0.05138402 0.16366994 0.18553437
000230 13 a6 28 bc 53 b1 b7 3d cd ff 4e be f2 26 34 be
       -0.010293501 0.08969369 -0.20214768 -0.17592981
000240 a1 4e 28 be 1c 34 85 be 95 f5 d8 bc 27 5e 1e 3e
       -0.16436245 -0.2601632 -0.02648429 0.15465604
000250 e3 89 29 3d 5a 08 18 bd ea e4 b7 bf 0b 00 8a 3e
       0.041391265 -0.03711734 -1.4366734 0.26953158
000260 6d 03 af bc 38 1e 31 3e 70 ce 40 3d c5 69 16 bd
       -0.021363938 0.17296684 0.047071874 -0.036721963
000270 3e 4b ad 3d 20 8f 6e be af c7 8b be e5 d1 aa 3e
       0.08461617 -0.23296785 -0.27300784 0.33363262
000280 82 f9 39 bc 09 e5 58 3e 25 eb 66 3e 9c e3 95 3d
       -0.011350991 0.2118112 0.22550638 0.07318804
000290 eb 76 18 bd af a8 34 be 36 a7 26 3d 9e 9f 83 bc
       -0.037222784 -0.17642473 0.04068681 -0.016067322
0002a0 8b 25 fd 35 12 c7 4c bc 5c 01 24 3c a3 56 82 be
       1.8860895e-06 -0.012498634 0.01001009 -0.25456724
0002b0 19 87 81 3d f7 2d 2e 3e 07 62 d3 3b 25 eb 12 3c
       0.06324596 0.17009722 0.0064508948 0.008967196
0002c0 a9 be e7 3d bf e8 80 be a5 98 7e be 35 82 95 bd
       0.113156624 -0.2517757 -0.24862917 -0.07300226
0002d0 0b a7 ea bd f2 fd 4c be ca f8 b8 3d 87 4f 76 be
       -0.11457642 -0.20018747 0.09031828 -0.24053775
0002e0 aa 8c 09 3e 20 89 d8 3d 44 c8 50 bc 2f cb 96 bd
       0.13432565 0.105730295 -0.01274306 -0.07362973
0002f0 c2 e7 8d be fd ff 2c 3e c6 f3 e6 bd 2d ed ee bd
       -0.2771588 0.16894527 -0.11276965 -0.116663314
000300 ae 44 b2 3c ff c9 29 bd 15 04 84 bd 40 7d 01 be
       0.021761265 -0.041452404 -0.06446091 -0.12645435
000310 e1 e1 6b 3e 75 3a d5 3d a3 d7 37 3e 3f df ac 3c
       0.23035385 0.104115404 0.17953353 0.021102546
000320 db ff 25 be 70 48 27 be 83 4b ec bd 8b 10 45 be
       -0.16210882 -0.16336226 -0.1153784 -0.19244592
000330 ef db 76 3e 97 e2 ba bd 47 36 12 bd 0e 2e 22 3f
       0.24107336 -0.0912525 -0.035696294 0.63351524
000340 8f 7d 11 3e f7 40 9a bd b2 97 ae 3d f1 01 b0 bd
       0.14208053 -0.07531922 0.08525027 -0.0859412
000350 86 8a 64 bd 90 9c 35 bd 85 70 4d bc b7 c2 ec 3d
       -0.05579617 -0.044338763 -0.012539034 0.115605764
000360 3a 39 a5 3d 05 f1 17 3e 4b db 14 bd ca 65 f4 bd
       0.08067556 0.14838035 -0.036341947 -0.11933477
000370 1e cc be 3d 2b 87 60 3d 0d 63 97 3d 35 e9 81 3d
       0.09316276 0.054816406 0.07391939 0.06343309
000380 ce 88 9b bd ce 30 2e bd 4c 0b 29 3f 23 a6 27 bd
       -0.07594453 -0.042527013 0.6603286 -0.040929925
000390 ae 9c 18 bd 9b c9 f5 3c 12 40 01 be a3 a3 00 3e
       -0.037258796 0.03000336 -0.12622097 0.12562422
0003a0 12 d2 03 bc f5 f2 89 bc c0 61 4b 3e ae c6 70 3e
       -0.00804569 -0.016839484 0.19861507 0.2351329
0003b0 56 90 db 3d b0 bc 42 bd f9 49 db 3a 59 33 b5 bd
       0.10720889 -0.047543228 0.001673042 -0.088476844
0003c0 f6 bb 12 3e 9f c2 87 3d 66 9e 18 3d d8 f0 a0 bd
       0.14329514 0.06628918 0.037260436 -0.07858437
0003d0 4d e1 3a 3b c9 0d 7b bd 8f 7d 25 3f cc 40 f9 bc
       0.0028515637 -0.061292443 0.6464471 -0.030426405
0003e0 b7 18 11 3e 0b f9 01 3e d2 af d0 bd 87 22 bc 3d
       0.14169584 0.12692659 -0.10189785 0.09186273
0003f0 d8 65 8a bd c0 fd dc bd 61 24 83 be 3f e3 ab be
       -0.067577064 -0.107905865 -0.25613692 -0.33571813

hidden1.bias f4 [30]
000000 54 b9 7a be f8 7a ea 3d b2 a7 85 bd 08 f0 97 3e
       -0.2448476 0.11449236 -0.06526126 0.29675317
000010 e6 9f b6 be 29 58 89 3e 53 1f 18 3e 44 45 f3 3e
       -0.35668868 0.26825073 0.14855699 0.47513783
000020 d9 65 d5 3d af 74 a5 3e 7e 82 48 be c3 0a 0f be
       0.104198165 0.32315585 -0.19581029 -0.13968949
000030 b9 77 d7 3d 8d c3 a6 3e 0a 91 17 3e 91 f9 f3 3d
       0.10520882 0.32571068 0.14801422 0.119128354
000040 50 70 c9 3e 29 04 a1 3e a6 c6 be 3e 02 89 b4 3e
       0.393435 0.31448486 0.37260932 0.3526078
000050 8c 69 03 be 14 eb 9d bd 65 0a 56 bd 5f c4 5e 3e
       -0.12833232 -0.07710853 -0.052256007 0.21754597
000060 d9 96 de 3e ed a1 cc 3e 59 5e bd 3d 02 ea ba 3d
       0.43474463 0.3996729 0.09246511 0.09126665
000070 e8 a1 d6 3e 12 df 6c 3d
       0.419204 0.057829924

hidden2.weight f4 [30, 30]
000000 bc 43 fe 3e c9 e9 18 3e 88 42 8a 3e 0e c4 27 3e
       0.49661052 0.14932932 0.27003884 0.16383383
000010 e9 7b 68 3f a0 12 20 3e 0b c0 e6 3d 07 ce 4b 3f
       0.9081407 0.15632105 0.11267098 0.7961125
000020 41 4f eb bb 65 a7 8c bd 36 39 ee 3e 92 29 29 3e
       -0.0071810787 -0.068678655 0.46528023 0.16519764
000030 00 03 fe be 53 1f c1 3d 49 5a 52 be d1 2d 30 3e
       -0.49611664 0.09429803 -0.20542254 0.17204978
000040 16 0c a6 be ef 97 ae bd 33 ad 72 be 6d 7b 80 be
       -0.32431096 -0.08525073 -0.23698883 -0.25094166
000050 fc a3 85 3e 2f ac 82 3e ef 8b c4 3e 9b 94 3a 3d
       0.26101673 0.2552199 0.3838801 0.045551877
000060 08 7c 30 3f af f4 ba bd a8 3f 6b 3d 91 7a bb bd
       0.68939257 -0.09128701 0.057433754 -0.09154237
000070 c3 64 a8 bd 2a 72 32 3d f1 26 3c 3f 9e 77 22 3e
       -0.08222344 0.043565907 0.7349692 0.15865943
000080 0c ba 34 3e fc c6 2f 3e 05 e8 90 3f 09 1e 2b 3e
       0.17649096 0.1716575 1.1320807 0.16710676
000090 4f 4a f0 3d 0b 90 46 3f ab 2b bc 3d 7e 82 42 be
       0.11732923 0.7756354 0.091880165 -0.18995091
0000a0 8d 25 1a 3f 00 10 b3 3e c6 17 d3 be 53 12 ac 3d
       0.6021355 0.34973145 -0.41229075 0.084019326
0000b0 3a 79 cb be 20 f1 88 3e d7 1a 8f be f5 41 23 be
       -0.39740926 0.26746464 -0.27950165 -0.1594313
0000c0 c7 da 8b be e4 26 4b be cc a5 a9 3e 0f 01 af 3e
       -0.2731535 -0.19839054 0.33134305 0.34180495
0000d0 09 4d ba 3e 29 8e 27 be 6a 6d 49 3f 5b 7d ed 39
       0.36386898 -0.16362824 0.7868258 0.0004529756
0000e0 74 32 77 3d ef 3d d0 3d 46 28 8e be 49 ee 8c 3d
       0.06035085 0.10168063 -0.277651 0.06881387
0000f0 00 b6 33 3f 4a e3 2f 3e cf ef b6 3d 6b 96 48 3e
       0.70199585 0.17176548 0.089324586 0.1958863
000100 61 81 81 3f bf 06 4a 3e c8 6a 07 3e aa 14 4f 3f
       1.0117608 0.19729136 0.13224328 0.80890906
000110 a3 1a 37 3e c4 28 dd 3c 9c f4 ad 3e c3 8d 58 3e
       0.17881255 0.026996978 0.33975685 0.21147828
000120 e4 8b 1b bf ab de c2 bd f9 86 bd be 2c 32 95 3e
       -0.6076033 -0.09515127 -0.37017038 0.2913984
000130 50 d9 55 be 3e f3 7c be 94 2b b4 bd a7 5b 0e be
       -0.2088368 -0.24702165 -0.08797374 -0.1390215
000140 b4 b0 8b 3e 33 77 b2 3d 10 86 e7 3e 32 37 26 bd
       0.2728325 0.08714142 0.4521947 -0.040579982
000150 30 87 4e 3f de 4a 20 be e4 ab 8d 3d 31 ad 17 3e
       0.8067503 -0.1565356 0.06917551 0.14812161
000160 8b cc ce bd 17 57 1d 3d e7 df 18 3f 8e fa 33 3e
       -0.10097607 0.038413133 0.5971665 0.17576048
000170 3b fd 1a 3e ba 7c 49 3e 6c d2 53 3f 8f 4b 3b 3e
       0.15135662 0.19676486 0.82742953 0.18290542
000180 0e 8e 09 3e eb 3f 5b 3f 52 ee 58 3e cf ea 59 bc
       0.13433096 0.85644406 0.21184662 -0.013300612
000190 de 91 05 3f 35 04 83 3e 6d 65 ee be 47 1a bd bd
       0.521757 0.25589147 -0.46561757 -0.09233528
0001a0 fc de d1 be 04 58 6a 3e 3e d0 94 be 12 04 1f be
       -0.40990436 0.22885138 -0.29065126 -0.15528896
0001b0 60 aa d6 ba ff 5b 31 be 68 a6 8e 3e f8 ce a5 3e
       -0.001637768 -0.1732025 0.27861333 0.32384467
0001c0 c6 42 4c 3e 21 64 23 be 2e 05 42 3f 4a ec 67 bd
       0.19947347 -0.15956165 0.75789154 -0.056621827
0001d0 07 26 8d 3d 50 8d 0d 3e 21 ac 75 be a4 9c 09 3c
       0.06892019 0.13823438 -0.23991443 0.008399162
0001e0 6a 54 a7 be 21 5a d3 bd 7b 75 84 3d 2c 20 e8 bd
       -0.3268159 -0.10319925 0.0646772 -0.11334261
0001f0 63 d2 1e bf 50 47 d5 bd e6 19 9d bd a2 6e 0e bf
       -0.62039775 -0.104139924 -0.07670955 -0.5563756
000200 88 a6 ec bd 79 0f 3a 3e 76 30 97 be 8f c4 9c be
       -0.11555201 0.18169965 -0.2952916 -0.30618712
000210 a5 a9 15 3f 96 c1 8b 3e db b9 9e 3e 56 f0 33 be
       0.5846198 0.27296132 0.3100117 -0.1757215
000220 47 86 86 3e 70 1b 51 3e 4a 0a 55 3e 3e 25 c7 3e
       0.2627432 0.20420623 0.20804706 0.388956
000230 a2 24 3d be c6 d6 8b bd 33 42 88 be 7d bf e7 3d
       -0.18471006 -0.06828074 -0.26613006 0.1131582
000240 fd af 10 bf f5 2f 2f 3e 6c 5b 1d bd 66 cc 73 3d
       -0.56518537 0.17108138 -0.038417265 0.0595211
000250 21 69 84 3e c5 15 91 3e f1 b8 05 3f 08 4b 18 3e
       0.25861457 0.2833692 0.52235323 0.14872372
000260 10 02 ba 3e e0 3a 27 3e 11 8a 6c 3f 94 d0 25 3e
       0.363297 0.16331053 0.9239817 0.16192847
000270 53 d9 e2 3d 37 2d 55 3f ec 8f 05 3d 1a cd 3a be
       0.110766076 0.8327212 0.032607958 -0.18242303
000280 cb b7 04 3f 81 80 79 3e 62 a1 20 bf b3 39 12 3d
       0.51842946 0.24365427 -0.6274625 0.035699558
000290 6b c7 9e be 7a e7 98 3e 5c 3a 22 be 3b 77 79 be
       -0.3101152 0.29864103 -0.15842575 -0.24361889
0002a0 0c d5 31 be 59 89 c6 bc b3 c6 84 3e b3 e6 a3 3e
       -0.17366427 -0.024235414 0.25932845 0.32011947
0002b0 0e 2f e3 3e 1a e4 2c be 12 66 44 3f 99 6a 20 be
       0.44371837 -0.16883889 0.76718247 -0.15665664
0002c0 b6 1c 69 3d 16 d9 43 3e e6 71 61 be 45 bf ed 3d
       0.056912147 0.1912578 -0.22016105 0.116087474
0002d0 b8 b4 44 3f 89 cd 3a 3e 59 f6 03 3e 9a 30 4a 3e
       0.76838255 0.18242468 0.12886943 0.19745103
0002e0 56 ba 49 3f 65 d1 42 3e 1f 49 0a 3e 0e 6c 50 3f
       0.7879995 0.1902519 0.13504456 0.8141488
0002f0 d3 9e 53 3e ec 5f 44 be c1 7d e4 3e 54 40 89 3e
       0.20666055 -0.19177216 0.44627193 0.2680689
000300 24 cd aa be 30 3d 1d bc 7d ff c5 be 8d 45 a6 3e
       -0.33359635 -0.009597108 -0.38671485 0.32474938
000310 d4 d1 6f be 2a 07 19 be f5 31 60 be 7a ec 5c be
       -0.23419887 -0.14944139 -0.21894057 -0.21574584
000320 f1 96 e4 3e df 5b 31 3e da 2a 03 3f 20 63 ef bd
       0.4464641 0.17320202 0.5123726 -0.116888285
000330 7b f1 55 3f 36 bd 2b 3c 7c 71 8c 3d b0 2d 8b 3e
       0.83571595 0.010482123 0.06857583 0.27183294
000340 04 f9 84 be 72 5b 39 be 60 91 45 3f 33 29 22 3e
       -0.25971234 -0.1810129 0.7717495 0.15836029
000350 05 66 6c 3e ac fe 33 3e 51 c4 68 3f 47 71 2f 3e
       0.23085792 0.17577618 0.90924555 0.17133056
000360 e9 86 ee 3d 02 f6 46 3f 07 ec 2c 3e 4d 09 32 be
       0.11646826 0.7771913 0.16886912 -0.1738636
000370 53 09 96 3e 7e e0 7f 3e bc 3e d7 be 62 f4 fe 3c
       0.2930399 0.2498798 -0.4204005 0.03112239
000380 00 b8 c7 be fe 93 ad 3e 14 d4 3e be 54 24 88 be
       -0.39007568 0.33901972 -0.18635589 -0.26590216
000390 ae 56 14 3d 0e 36 67 be 61 24 bc 3e 37 e7 1f 3e
       0.036215477 -0.22579214 0.36746505 0.15615545
0003a0 c2 e5 72 3e f8 44 0e be b6 6e 54 3f 41 19 ea bc
       0.23720458 -0.13893497 0.8298143 -0.028576495
0003b0 5d 13 78 3d 16 08 20 3e fd b6 ae be 44 d8 27 be
       0.06056534 0.15628085 -0.34123984 -0.16391093
0003c0 19 b3 49 83 9a 8d 58 82 3b 22 4a 83 39 fb 67 82
       -5.9274185e-37 -1.5909811e-37 -5.940176e-37 -1.7043297e-37
0003d0 11 f5 45 83 00 ff 2a 01 00 5c d0 80 c0 60 b7 00
       -5.817442e-37 3.1407022e-38 -1.9134787e-38 1.6840603e-38
0003e0 87 46 05 02 f6 7f 52 83 cc 51 56 83 bb 14 4f 83
       9.791537e-38 -6.1860345e-37 -6.2982846e-37 -6.085563e-37
0003f0 bd f2 5e 83 60 1a 4d 83 64 a4 1f 82 2c 81 b8 01
       -6.5518586e-37 -6.0274362e-37 -1.1728653e-37 6.777628e-38

hidden2.bias f4 [30]
000000 0e 6c ba bc 78 c2 11 be c5 f9 e2 bc f3 e5 e2 bd
       -0.022756603 -0.1423434 -0.02770699 -0.110790156
000010 14 c5 e9 3e fa 8e cc bd 68 05 09 be 1b e7 54 bc
       0.4565817 -0.09988208 -0.13380969 -0.012994553
000020 6c 3e 56 83 83 0a 9e be 8d f5 1e be 5b 38 ed 3e
       -6.2960605e-37 -0.30867395 -0.15523358 0.46332058
000030 8b f0 4a be 4d 85 78 bd ca d5 f3 3e c1 b9 69 bd
       -0.19818322 -0.060674 0.47624046 -0.057061914
000040 b2 81 f5 bd 4e d1 53 bc e2 dc b2 bd d7 2f 2a be
       -0.11987628 -0.01292832 -0.08733536 -0.16619812
000050 41 ef f0 3e 0f 5d 02 3f d9 b9 d0 3e 0b 1a ea bc
       0.47057536 0.50923246 0.4076679 -0.028576871
000060 47 e3 8f 3e 06 54 a2 bd 84 f3 6c 3e 2b 86 a3 be
       0.28103086 -0.079261824 0.23139769 -0.319383
000070 43 f5 b5 bd 66 e1 04 3e
       -0.088846706 0.12976608

out.weight f4 [1, 30]
000000 bf a6 89 bf 37 eb 90 bf 26 81 9f bf 1d 2d a2 bf
       -1.0754012 -1.1321782 -1.2461288 -1.2670017
000010 76 6e 41 3f fc ae 89 bf 05 ea a1 bf d1 1e 92 bf
       0.75559175 -1.0756526 -1.2649542 -1.1415654
000020 79 76 02 03 8a 77 8e bf 98 79 86 bf 67 1d 1a 3f
       3.8339566e-37 -1.113023 -1.0505857 0.60201114
000030 dd 2f b1 bf b3 3a 83 bf ca 51 24 3f c9 83 95 bf
       -1.3842732 -1.0252289 0.641873 -1.1680843
000040 5e 3e 99 bf f3 10 90 bf 62 d9 94 bf 16 59 9e bf
       -1.1972158 -1.1255172 -1.162884 -1.2370937
000050 49 f5 34 3f fb 89 89 3f 6c f2 19 3f 82 12 85 bf
       0.70686775 1.0745233 0.6013553 -1.0396273
000060 cf f1 7b 3f 06 e6 98 bf fe 66 55 3f 10 ea ac bf
       0.98415846 -1.1945198 0.8336028 -1.350893
000070 2e 4a 93 bf b2 53 cc 3e
       -1.1507013 0.39907604
