DR_Info_CFR/Jobs/Models/netG.pth (torch, 27623 bytes, 10 tensors)

shared1.weight f4 [30, 100]
000000 ac 05 2f bb ca a6 81 3c 6a 03 21 3d 7d ef e7 3c
       -0.0026706262 0.015826602 0.039309897 0.02831244
000010 7f 46 61 ba 86 73 08 bf 63 47 f5 bc 0a ce 99 be
       -0.00085935736 -0.53301275 -0.029941266 -0.30040008
000020 bf 08 7e bb 53 78 d2 bc d0 6c 28 bc 2e a6 7d 3b
       -0.0038762537 -0.02569214 -0.010279849 0.0038703787
000030 bf fa 92 3c cb 53 78 bb 22 e5 36 3c 0d 7b 83 ba
       0.01794183 -0.0037891741 0.011163028 -0.0010031179
000040 15 65 56 3c 45 4f 03 bc e4 62 bd bc 38 cf c0 3c
       0.013085623 -0.008014505 -0.023118444 0.02353631
000050 e7 a8 41 bb 33 38 bf 3b 43 b1 e5 bc 10 40 20 3c
       -0.0029550137 0.005835557 -0.028038627 0.009780899
000060 0d a1 91 3c a6 b0 1c 3d 16 78 0e 3d 38 9b 3b 3c
       0.01777699 0.038254403 0.03478249 0.011450581
000070 8d d9 7c 3a 53 8a af 3c 12 32 96 3c ce 89 3b bc
       0.00096454547 0.021428263 0.018334422 -0.011446429
000080 a2 c7 f3 bc 86 d3 37 3c f2 6a 96 3c ab e6 a8 bc
       -0.029758278 0.011219865 0.018361542 -0.020617804
000090 53 af d8 3c 18 fd a4 bc 19 a3 36 ba a9 27 49 3c
       0.026450789 -0.020140216 -0.00069670525 0.012277522
0000a0 2f 9f 43 bc 12 d2 9c bc 34 88 2c 3b 3d 93 ae bc
       -0.011939808 -0.019143138 0.00263263 -0.021310443
0000b0 80 58 cd 3b 6d 07 fe ba 41 df 9b bc 2b 7e 2f 3d
       0.0062666535 -0.0019380875 -0.019027354 0.042844933
0000c0 66 db 44 bc 03 0e ce bb 57 23 8d bc 18 ba 20 3c
       -0.012015199 -0.0062882914 -0.017228765 0.009809993
0000d0 c2 20 0a 3d a4 0f 85 bc 53 fd b2 3c 74 bd a9 3c
       0.033722647 -0.01624281 0.02184931 0.020720221
0000e0 61 2c 0e 3c cf dd 25 bc 1e 72 d1 bc d8 27 29 3c
       0.008677573 -0.010123684 -0.02556711 0.010324441
0000f0 36 d6 fa 3a ca 51 48 bc 22 42 81 bb 24 c7 40 bc
       0.0019137326 -0.012226531 -0.003944651 -0.011766229
000100 ca 74 27 bc 44 54 49 bc 5f e7 08 bd b8 2f d1 3c
       -0.010220716 -0.012288157 -0.033423778 0.02553545
000110 96 04 20 3d 90 c9 fa 3c fc 71 81 3c e9 22 0e bc
       0.039066873 0.03061369 0.015801422 -0.008675315
000120 e8 d5 15 bc 94 be d3 bc bf c1 62 3c db a2 e5 3b
       -0.0091452375 -0.02584771 0.013840138 0.0070079393
000130 4d 8d dd bb 91 00 19 3d 3a d7 d9 3b 9f a0 d8 3c
       -0.006761229 0.037354056 0.0066479715 0.026443778
000140 9e d9 7f bc a0 af 14 bd e2 76 96 3c d2 8f cc 3b
       -0.015615849 -0.0363003 0.018367235 0.0062427307
000150 54 a2 c9 bb cb 9e bc ba c2 ed a2 3c 33 fc 60 3b
       -0.006153384 -0.0014390586 0.019888762 0.003433001
000160 bc da 26 3c ba 66 7f 3c 65 28 f9 3c ff 25 a3 3c
       0.010183986 0.015588457 0.03041477 0.019915579
000170 cb a6 a4 bc e1 2c dd 3b ed 5a 63 bc 6b ba 12 bc
       -0.020099064 0.0067497347 -0.013876659 -0.008955578
000180 66 a2 ea 3a 95 0f 86 3c 81 2b 88 bc 7a 14 bb bb
       0.0017901182 0.016364852 -0.016622307 -0.005709228
000190 9b da dd bb 41 7f fc bb 03 80 cb bc 8b ea e0 bb
       -0.0067704446 -0.0077055995 -0.024841314 -0.006863897
0001a0 ec e0 ca 3c ab cc a4 be 1f 90 aa 3a 76 80 2b be
       0.024765454 -0.321874 0.0013012922 -0.16748223
0001b0 1c 0a d3 3c 0f 81 81 3c aa 72 b4 3c c4 fa db bc
       0.025761656 0.01580861 0.022027332 -0.026852973
0001c0 20 cc a8 bb b5 b9 97 3c 6a 4c 19 3c e4 02 41 3c
       -0.0051512867 0.01852117 0.009356597 0.011780474
0001d0 f3 50 90 3c 33 b4 86 3c e8 34 d1 3c a0 0a 6b bc
       0.017616725 0.016443348 0.025537923 -0.014345795
0001e0 71 55 06 bd ea 3c 5b ba cf a2 18 3d b5 92 50 3c
       -0.032796327 -0.0008363264 0.03726464 0.01273029
0001f0 8b 54 be bc 1a 90 ac ba af 34 c9 3b 62 95 52 3c
       -0.023233673 -0.0013165504 0.0061403136 0.012852998
000200 72 7d 21 bc aa b7 5d 3b cf 93 d5 3a 76 f6 0b 3c
       -0.009856569 0.0033831396 0.0016294661 0.008542648
000210 b9 1e b4 bb 88 1b 73 3c cb 1a 40 bc 04 cd 02 3c
       -0.0054968265 0.014838107 -0.011725138 0.00798345
000220 27 00 de bc 26 8d 86 3b 87 db 07 3c 46 a6 35 bc
       -0.027099682 0.0041061817 0.0082920855 -0.011087006
000230 48 41 d0 bb 69 45 86 3c 7e 13 c6 bc bc 53 c1 3c
       -0.0063554384 0.01639052 -0.024179216 0.023599498
000240 3a 02 6e bb 72 39 77 3c f2 ff 26 3d 00 61 1a bd
       -0.0036317245 0.01508938 0.040771432 -0.037690163
000250 b9 fb c2 bc 90 a2 07 3d e1 8b 78 bb 9f 71 70 3c
       -0.023801671 0.033114016 -0.0037925171 0.014675527
000260 b2 b6 07 bd bf 70 bc 3b 02 b0 5d bc 77 90 e1 bb
       -0.033133216 0.005750745 -0.013530733 -0.0068836766
000270 81 b0 f6 3b e8 e2 43 3c 33 c5 b4 3c 4d 92 b2 bc
       0.007528365 0.011955954 0.022066688 -0.021798277
000280 bf 0d 02 bb 69 66 1b 3d 59 c9 84 3b a3 22 90 bc
       -0.001984462 0.037939463 0.004052323 -0.017594641
000290 fe 48 01 3c ce b2 59 3c 9b 2e 21 3d 5e e4 29 bd
       0.007890938 0.013287259 0.039351087 -0.041477554
0002a0 b3 4f 22 bd cc 41 c3 3a f7 46 ae bb 8e 05 ed 3b
       -0.03962679 0.0014896928 -0.0053185183 0.007233328
0002b0 ac ef 49 3c cf c3 26 3d 24 ef 2e bd f6 69 87 bc
       0.012325209 0.04071408 -0.04270853 -0.016530018
0002c0 94 d2 c5 3c f0 09 58 bc 2b 64 06 3c 03 96 61 bc
       0.024148263 -0.013185963 0.008202593 -0.013768676
0002d0 ad 83 82 bc a1 bd 3c 3d dc df 9e 3a fe fb 6c 3c
       -0.015931929 0.04607928 0.0012121159 0.0144643765
0002e0 d4 bc 8b 3c c2 f1 47 3c 55 ba 8d bc c8 60 b3 3c
       0.017057814 0.012203636 -0.017300764 0.021896735
0002f0 0f 0c 92 bc 98 70 42 3c ab 20 fc bc 00 d1 23 bb
       -0.017828016 0.011867665 -0.030777296 -0.00249964
000300 54 e3 ef 3c 21 89 20 bd d6 c8 9d 3c bf c7 94 3c
       0.029283203 -0.039193276 0.019260805 0.018161653
000310 de c8 9a bc c3 8a 82 bc 3c d1 75 3c db 64 94 bb
       -0.018894609 -0.015935307 0.015003499 -0.0045286245
000320 f4 bd d2 3b 8f 58 26 3b de a7 6c 39 04 9f c7 bb
       0.0064313356 0.0025382375 0.00022569249 -0.006091954
000330 d9 b7 b1 3b 31 1a d8 3d 7e a9 8e 3b 80 15 b4 be
       0.0054235277 0.105518706 0.004353701 -0.35172653
000340 5e 3f de ba b3 b6 2a bb 8f 65 2f 3c 77 fc f6 ba
       -0.0016956141 -0.0026048839 0.010705366 -0.0018843551
000350 6a 1c b0 ba 96 12 b5 3b 92 4c 89 ba f9 24 61 bb
       -0.0013436202 0.0055258973 -0.001047509 -0.0034354313
000360 a9 b1 83 3b 16 d6 57 3c d1 b5 5d 3a bf 8c c7 bb
       0.0040189815 0.013173601 0.0008457574 -0.0060897763
000370 10 7d b9 3a ac 9e ab bb e7 e7 da 3b cf a2 2f bb
       0.0014151651 -0.005237421 0.006680477 -0.0026799922
000380 b0 e6 32 3b 08 87 d5 bb ed ca c3 bb 75 97 d5 b9
       0.0027298145 -0.006516341 -0.0059751184 -0.0004073937
000390 bf 24 8c 3a e1 8c 58 bb 31 8a c1 bb 6f eb e0 bb
       0.0010692104 -0.0033042955 -0.0059063663 -0.0068640034
0003a0 cc dd c0 3b e9 5d f1 bb cb 42 d9 3b c6 20 fc 3b
       0.0058858152 -0.0073659313 0.006630277 0.0076943366
0003b0 c7 ed 77 3a df 00 7e ba e4 91 26 bb 4b f1 cd b9
       0.0009457734 -0.0009689461 -0.0025416547 -0.00039280424
0003c0 54 1c 24 38 8e 67 b3 3a ff 24 3a 3b 6f ca d2 3a
       3.912703e-05 0.0013687478 0.00284034 0.0016082058
0003d0 06 37 aa 3b 02 aa 34 3b e6 71 74 3b 30 0e 1d bb
       0.0051945476 0.0027567153 0.0037299334 -0.0023964755
0003e0 b4 02 15 bb c3 9a a1 3b d7 53 ff 3a ea 5d cf bb
       -0.0022737207 0.004931779 0.0019479942 -0.006328334
0003f0 7b 8a a9 3a f3 38 0d 3b 49 10 71 bb 71 6b 55 ba
       0.0012934947 0.0021548837 -0.0036783388 -0.0008141315

shared1.bias f4 [30]
000000 33 cd a3 3d e5 f1 fe 3d 9e 2c 08 3f 11 5f 76 3e
       0.07998123 0.124484815 0.5319308 0.24059702
000010 bd 73 78 bd 41 3b a4 3e 21 70 e1 bb 0f 1d e2 3e
       -0.06065725 0.32076457 -0.006879822 0.44162795
000020 c1 5e fb 3e 44 84 1f 3c a5 36 95 3e f0 9c 36 3e
       0.4909573 0.009736124 0.29143253 0.17833304
000030 11 c4 62 3d f9 64 4a 3e 49 bb 2c 3e 69 85 2f bd
       0.055362765 0.1976508 0.16868319 -0.04285184
000040 88 ba b9 3e 5e 79 c9 3e bc 5d b2 3e c3 87 fb 3e
       0.36275125 0.39350408 0.3483714 0.49127015
000050 1c a9 5c 3e 58 15 f0 3d f6 bc 40 bb 85 02 9a 3d
       0.21548885 0.11722821 -0.0029409504 0.07520012
000060 fd a6 c9 3e 19 8b 72 3e be 8e 66 3d 56 c8 d0 3e
       0.39385214 0.23685874 0.056288473 0.40777844
000070 6e 33 cd 3e bb c9 fb 3e
       0.400783 0.49177346

shared2.weight f4 [30, 30]
000000 56 d3 b0 bd 23 ee 16 bd ef 3a 2f bd c2 aa 23 3e
       -0.08634059 -0.0368482 -0.042780813 0.15983108
000010 da 1c 99 3e d3 3d c9 3c af 5e c1 bc 00 5c c6 3b
       0.29904824 0.024565613 -0.023604719 0.0060534477
000020 70 16 d1 bc db 46 68 3e 8e e2 ff bb 54 ee ec bc
       -0.025523394 0.22683279 -0.00780899 -0.028922237
000030 09 bf 12 3c c2 91 70 bd 8c af aa 3d 96 1b e6 3d
       0.008956679 -0.058732755 0.08334264 0.1123573
000040 5c 2c 87 3c 90 d8 08 3e 91 22 68 3d d0 eb de 3d
       0.016500644 0.13363862 0.05667359 0.108848214
000050 27 0a 48 3d ad b1 ce 3c 49 2c 58 bc 9a b9 98 3d
       0.048837807 0.025231207 -0.013194152 0.07457276
000060 fc 02 b6 bb 81 e7 ce 3d e6 f3 05 3e d0 7d df 3d
       -0.005554555 0.101027496 0.13081321 0.10912669
000070 c4 94 6c 3d e1 d9 b9 3d 8f 5d 25 3e 7a 78 28 3e
       0.05775906 0.0907476 0.16148971 0.16452208
000080 ba ba ec 3d e5 89 a8 3d 84 2f 63 bc d9 ff b0 bd
       0.11559053 0.08229426 -0.013866309 -0.08642549
000090 83 6c 30 3d 71 0d 28 3e fa 94 54 3e 48 09 7d bd
       0.043072235 0.16411377 0.20759955 -0.06177643
0000a0 a0 19 b4 3d 36 e9 83 bd b4 90 a1 bc f0 8c 1f 3e
       0.0879395 -0.06440966 -0.01972232 0.15581107
0000b0 c5 78 45 3e 24 06 43 3d dd da d8 3d 63 6e f1 bc
       0.19284351 0.047613278 0.1058862 -0.029471582
0000c0 ad c8 9c bd 54 31 24 3e f3 f5 81 bb 50 f0 8b 3d
       -0.07655463 0.16034442 -0.003966087 0.06832945
0000d0 c5 36 57 3e 47 ef e1 3d 61 74 42 bd 63 53 74 3c
       0.21016987 0.11031967 -0.04747427 0.014912459
0000e0 64 4a 29 3c fe 6f 45 3d 1f 39 15 3c dd 8b 92 bd
       0.0103326775 0.048202507 0.009107857 -0.07155583
0000f0 34 f8 3d bd 15 65 3b 3d 86 3d 02 bd f1 a9 0a 3e
       -0.046379283 0.045750696 -0.031796955 0.1354139
000100 ad cc f2 3d 8c 7a e4 bc a4 1a ba bd a8 49 04 3e
       0.11855445 -0.027890466 -0.090871125 0.12918723
000110 0e 91 d8 3d de ed bd 3d a1 1f e2 3d be fa 0b 3c
       0.10574542 0.09273885 0.11041189 0.008543668
000120 c9 28 d0 3d a7 ef 2b 3d f2 ad 39 3e 51 5f 75 3e
       0.10164029 0.041976597 0.18132761 0.23962142
000130 97 46 d6 bd 32 5a bc 3c 4b 29 13 3b b5 24 b1 bd
       -0.10462683 0.022992227 0.0022455032 -0.086495794
000140 ba 2a 9d bc 9d 28 82 bd 63 9e e8 bd 52 e3 3e bd
       -0.019185413 -0.063554026 -0.11358335 -0.04660351
000150 79 e8 04 bc 2e 21 d8 3c f4 72 ac 3d 71 b4 be bd
       -0.008112066 0.026383009 0.08420363 -0.0931176
000160 58 e5 05 be 54 1a 83 3b 28 3c 10 3e 52 72 2a bd
       -0.13075769 0.0040009413 0.14085448 -0.04161293
000170 9d bd 08 3e 00 1e 11 be 44 f3 31 3e cf 04 d6 bd
       0.13353582 -0.141716 0.17377955 -0.10450136
000180 ad 30 0a be 39 83 42 3e 40 58 9a 3d 48 c9 2b 3e
       -0.13495131 0.1899537 0.075363636 0.16776001
000190 37 bd db 3d d0 9f f9 bd ea 36 a6 bd fc df 37 3e
       0.10729449 -0.12188685 -0.08115943 0.17956537
0001a0 98 27 15 3d b5 aa 28 3d 58 9f b6 3c 48 53 e5 3d
       0.036414713 0.041178424 0.022292778 0.11197525
0001b0 ee 5f d0 3d 20 30 21 3d 82 00 02 3e bd fd 98 3d
       0.10174547 0.039352536 0.12695506 0.07470272
0001c0 f4 6b 3d 3e d3 3a fd bd 61 71 8c 3d 73 46 05 3e
       0.18498212 -0.123647355 0.06857563 0.13015155
0001d0 1b ab 2a 3e ad 19 af 3a c7 cb 00 3d f9 6c 55 3e
       0.16666834 0.0013359092 0.031444337 0.20842351
0001e0 5d 9a d2 3c c6 01 28 be 61 80 67 3d 70 d7 20 3e
       0.025708372 -0.16406927 0.056518916 0.15707183
0001f0 09 61 3a 3e 8d 39 cf 3d 8a 10 89 3c 88 07 78 3d
       0.18201078 0.10118399 0.01673152 0.060554057
000200 a1 4f bd 3c a3 1e 2e bc f6 ec 4b bd f2 4a 25 3c
       0.02310926 -0.010627422 -0.04978653 0.010088669
000210 03 74 c9 bb 10 14 8a 3c bd 10 ba bd 75 e6 98 bd
       -0.006147863 0.01685527 -0.09085224 -0.07465831
000220 75 5c f7 3d e4 51 0f 3e e9 ff fc 3d 7f b7 ee 3d
       0.12078182 0.13996083 0.123534985 0.11656093
000230 b5 c1 68 3d 3b 26 d3 bc 0d 48 0a be 74 ad f4 3d
       0.05682536 -0.025775066 -0.13504048 0.11947146
000240 b2 dc 1c 3e 46 14 8d bc 48 1b 82 bd ff d8 39 3e
       0.15318564 -0.017221581 -0.0635286 0.18149184
000250 02 43 6b 3c 9a 48 f9 3c f1 9b dd bd 88 7b df 3c
       0.014359238 0.030430127 -0.10820759 0.027280584
000260 3a a1 8b 3e ff 67 2d 3e 4d 84 83 3d bb 91 13 3c
       0.27271444 0.16934203 0.06421719 0.009006913
000270 44 b4 01 be 3a f7 7f 3e fc 91 63 bd f0 8c 49 3e
       -0.12666422 0.24996653 -0.055559143 0.1968267
000280 2b 4b ef 3d 70 9e 9b 3d 49 85 d0 3d 6b 5c 84 bd
       0.11684259 0.07598579 0.10181672 -0.0646294
000290 ab 69 1c 3d 5b e0 fc 3d 8f ab 2b 3e 60 4c 38 3e
       0.03818671 0.1234748 0.16764663 0.17997885
0002a0 8c b9 d3 3d a4 f6 27 3e 18 50 06 3e 71 6a 13 be
       0.10338125 0.1640268 0.13116491 -0.14396073
0002b0 a5 ae 21 bc a4 bc 89 bd c0 06 11 3e e3 47 71 bd
       -0.009868299 -0.067254335 0.14162731 -0.058906447
0002c0 cf b6 c5 bd 4a 19 97 bd 53 c6 34 3d 40 6f 3b 3e
       -0.096540086 -0.073778704 0.04413445 0.18304157
0002d0 a7 89 07 3e ac b6 c9 3c 12 18 ae bb 84 e1 5e bd
       0.13236104 0.024623238 -0.005312928 -0.054414287
0002e0 0b 4c 31 3e ee 2d 33 3e 63 30 7d bd 45 67 f8 3d
       0.17314164 0.1749799 -0.061813723 0.12129072
0002f0 51 d5 8d 3d 63 2d 08 be 41 83 e1 3d 46 a1 22 bd
       0.069254525 -0.13298564 0.11011363 -0.039704584
000300 18 4b 30 3e 2a 22 19 3e 82 fd b5 bd 54 7e 03 3e
       0.17216146 0.14954439 -0.088862434 0.12841159
000310 aa 40 0d bd cd 07 0d 3e a5 15 1b 3e de df 78 3d
       -0.034485497 0.13772507 0.15144975 0.06076037
000320 5b 02 f4 3d 28 13 89 bd fb 19 c9 3d 7d a5 bf 3d
       0.11914512 -0.06693107 0.098194085 0.09357736
000330 92 b8 13 bc a6 1e e9 3c a8 c8 87 bd f5 ea 97 3a
       -0.009016173 0.028456997 -0.06630069 0.0011590408
000340 d5 c9 08 3e 67 7b 2f 3e f9 38 b2 bd 47 ae af bc
       0.13358243 0.17136918 -0.08702273 -0.021445407
000350 7b 1c 99 3d 1e f9 62 3c 84 24 6b 3e c5 b8 2d 3e
       0.07476135 0.0138533395 0.22963148 0.16965015
000360 b0 4e cb bd 1a 34 5b bd 4c 5b 1c 3e 21 c8 12 3e
       -0.09927118 -0.053516485 0.15269202 0.14334156
000370 e0 37 92 3d a8 40 e7 bc 55 95 bd bd a7 e3 45 bd
       0.071395636 -0.028229073 -0.092569984 -0.04831281
000380 fa 73 87 bd 8d 8d 01 be c1 04 9f 3d 4a 9e d0 bd
       -0.06613918 -0.12651654 0.077645786 -0.10186441
000390 60 97 01 3a 1c b5 6d 3e 49 81 6d 3c 4a 32 e1 bc
       0.0004943516 0.23213619 0.014496156 -0.0274898
0003a0 f7 42 63 3d de 47 26 3e 3d 59 58 bd bf b5 00 3c
       0.055483785 0.16238353 -0.05281948 0.007855832
0003b0 d6 51 f9 bc 6d 0e 43 3d 40 a1 04 3e 71 44 e5 3d
       -0.03043453 0.04762118 0.12952137 0.11194695
0003c0 14 08 5f 3d d0 a9 a4 bd df ac b4 3d fd 6f dc 3d
       0.054451063 -0.08040202 0.08822035 0.107635476
0003d0 cf 62 c0 bc 49 46 83 3d 64 c2 22 3d e3 9c dc bc
       -0.023484616 0.0640989 0.039736167 -0.026930278
0003e0 d0 f8 08 3d d9 8e 06 bd 03 61 fb bd 6c fc ef bd
       0.03344041 -0.032851074 -0.12274363 -0.117180675
0003f0 2e b2 c9 bd 36 ae 09 be 63 cf cf 3c 78 51 f8 3d
       -0.09848438 -0.13445362 0.025367444 0.12124914

shared2.bias f4 [30]
000000 27 da ec bd f0 ba af bc 00 f9 e5 bd bb 21 b2 3d
       -0.11565047 -0.021451443 -0.112291336 0.0869784
000010 72 19 49 3e 4b 8b 18 3e 5d ac 4c 3e 82 a5 9f 3c
       0.19638613 0.14896886 0.19987626 0.0194881
000020 44 ba 40 be e6 d4 12 3e 89 4e b4 3c 05 59 79 3e
       -0.18821055 0.14339027 0.022010105 0.24350365
000030 4f 27 0c 3e 74 41 28 be 24 f4 1f 3e 55 31 4f 3e
       0.1368687 -0.16431218 0.15620476 0.20233662
000040 b8 b0 a2 bd df a0 15 be a6 5b 35 3d ca 54 54 3e
       -0.07943863 -0.14612149 0.044276856 0.2073547
000050 43 8c 09 3e 83 a3 d2 3d f4 c4 8c 3e 88 5d 7f 3d
       0.13432412 0.10285094 0.27494013 0.062345058
000060 78 02 30 3e 1b 42 3c 3e ec 1d 85 bd 77 f7 64 be
       0.17188442 0.18384592 -0.06499848 -0.22360025
000070 a7 ef c4 3d 50 3b 83 3e
       0.096160226 0.2563119

hidden_y0.weight f4 [30, 30]
000000 44 4a 86 bd 3d a2 6c 3e aa db f7 bc e0 69 89 3d
       -0.06557134 0.23108764 -0.030256111 0.06709647
000010 49 20 8d 3c 54 1b a0 bd 4b 0a a8 3d c0 e0 58 bd
       0.017227309 -0.078177124 0.08205088 -0.052948713
000020 79 d3 c7 3d db a3 b3 bd 84 08 76 3e f2 ed 92 3d
       0.09757132 -0.08771487 0.24026686 0.07174291
000030 da de 2b bd 25 b0 a3 3d 41 c9 df 3d e9 3e 42 3e
       -0.041960575 0.07992581 0.10927058 0.18969311
000040 b1 57 b5 3b f6 ba f5 3b 39 cc 2b 3e ff da 10 be
       0.0055341353 0.007499094 0.16777124 -0.1414604
000050 56 76 9c 3d 7c 22 44 bc 5f bd 08 be 8e 6b 09 bd
       0.07639758 -0.011971112 -0.1335349 -0.033549838
000060 f7 ec 7f bd c7 d9 21 3e 88 0f 85 bd 4c c4 2d 3e
       -0.062481847 0.15805732 -0.06497103 0.16969413
000070 06 73 62 3e 30 9b c2 ba 3b 19 24 3e 7f 2e 2f be
       0.2211419 -0.0014847275 0.1602525 -0.1710758
000080 f7 55 87 bd 47 28 41 bd 02 d2 0f be e4 7a 95 be
       -0.06608193 -0.047157552 -0.14044955 -0.2919532
000090 96 0f 59 be ef 73 47 be 9e de 03 3e dc 24 54 be
       -0.21197352 -0.19477819 0.1287789 -0.20717186
0000a0 23 dd 18 3d 25 56 8c 3d 13 91 1d be 21 ee 2a 3e
       0.037320267 0.06852368 -0.15387373 0.16692401
0000b0 c7 de df bd cc ce 6a be 6b be 27 bd b8 74 f1 3d
       -0.10931163 -0.22930449 -0.04095308 0.117898405
0000c0 1c 45 60 be 90 0a 2e 3e ed 5e d0 3d ef 87 9d 3d
       -0.21901363 0.16996217 0.10174356 0.07691943
0000d0 fb 10 11 be bf cc 0c bd 65 aa 47 bd d9 94 8e be
       -0.14166634 -0.03437495 -0.048746485 -0.27847937
0000e0 6c 8c a8 bd ce 33 64 3e 1f 3e 80 bc 5a fb b7 bd
       -0.08229908 0.22285387 -0.015654622 -0.089834884
0000f0 34 ae 07 3c 2e 2d 3c 3e 05 79 1b 3e eb 0f 65 3d
       0.008281279 0.1837661 0.15182884 0.055923384
000100 a6 8d 9c bd 02 1a 50 3e 19 9c 35 3e 0d 7a 32 3e
       -0.07644205 0.20322421 0.17735328 0.17429371
000110 19 bd 71 be 31 53 1e be 02 5a ae 3c c6 e9 e3 bd
       -0.23607291 -0.15461423 0.021283153 -0.11128573
000120 56 6f 6d 3d af 12 dc 3c 36 81 53 3e aa a7 92 3d
       0.057967506 0.026864378 0.20654759 0.07160886
000130 c5 27 3b 3e f7 09 85 bd 16 99 cf bb e7 22 f2 bc
       0.1827689 -0.06496041 -0.006335388 -0.029557658
000140 fa b2 db 3d 11 5f 92 bd 25 ce 19 3e 57 2e 12 3d
       0.107274964 -0.07147039 0.15020044 0.035688724
000150 8b 47 33 3e 23 12 d8 bd d9 c1 32 3e ea d1 3b be
       0.1750776 -0.10550334 0.1745676 -0.18341795
000160 68 ea e4 bc 9b 0e b5 3b cb 20 db 3c 30 4d 20 3d
       -0.027943805 0.0055254227 0.026749035 0.03913611
000170 ec 1c 0b be ca 52 9b 3d 01 1c 00 be 98 f5 7c 3c
       -0.13585252 0.0758415 -0.12510683 0.0154394135
000180 1f 82 f6 3d 9a 84 7a 3c 15 96 f5 3c a7 d8 82 bd
       0.120365374 0.015290404 0.029978791 -0.063889794
000190 6f 56 25 be 08 e9 9b bd 82 f6 b7 3d eb bc 97 3d
       -0.16146253 -0.076128066 0.089825645 0.0740908
0001a0 4a 2c 8b 3d 1c 09 ad bd 88 28 3e 3d c6 33 4f be
       0.06795557 -0.08449003 0.046425372 -0.20234594
0001b0 a5 3d f9 bd c8 71 28 3e 14 d8 76 3d 06 74 b9 bd
       -0.12169961 0.16449654 0.060264662 -0.09055333
0001c0 cd 73 97 3d 87 7d 0e 3e 64 13 0f 3e 1c aa 21 3e
       0.07395134 0.13915072 0.1397224 0.15787548
0001d0 cc bc 1a 3e b2 1d ba 3d 61 21 9a 3d 50 e2 08 3e
       0.15111083 0.09087695 0.07525898 0.13367581
0001e0 56 4d 13 bd 96 64 0b be 42 81 d4 3b 32 f7 71 3c
       -0.035962425 -0.13612589 0.0064851353 0.014768409
0001f0 de eb 4a be 6b 75 a2 bd 4e fc 91 3d f1 34 4c 3c
       -0.19816539 -0.07932552 0.071282014 0.012463794
000200 21 84 90 3e 02 6f d1 ba 66 b0 d3 3a 0a ab 3d 3d
       0.28225806 -0.0015978517 0.0016150593 0.046305694
000210 bf 43 2b 3d 45 b7 3c 3e ba 13 a6 3d 0a fd e5 bd
       0.041812655 0.18429287 0.08109231 -0.11229904
000220 8c 3d 12 3e b2 76 9c bc 8d 1a 95 3c cc 07 72 bd
       0.14281291 -0.019099567 0.018201137 -0.059089467
000230 9a 3a 1d bd 35 d1 cb 3d 80 ad 10 be 12 9c 71 bc
       -0.038385965 0.099520124 -0.14128685 -0.014746683
000240 c3 b0 e8 bd 77 88 85 3c 73 51 96 bd 71 ce 37 3e
       -0.113618396 0.016300423 -0.07339754 0.17949845
000250 f9 2f 1f be c6 78 7f be bf 2f 20 bc 7b 0c f4 ba
       -0.15545644 -0.24948415 -0.009777009 -0.0018619442
000260 e7 05 2a 3b f9 75 66 3b 8d a2 10 bb 3a f4 8d bb
       0.002594346 0.0035165532 -0.0022069544 -0.0043320926
000270 6e 50 ac bb 94 63 b8 ba 90 32 3e b7 5a e6 53 ba
       -0.0052586114 -0.0014067763 -1.1336655e-05 -0.0008083336
000280 83 bb be ba 66 d4 bd ba c5 03 be ba 70 e2 b7 ba
       -0.0014551732 -0.0014482855 -0.0014496973 -0.0014029276
000290 25 3d 3b bb bf 26 36 bb 2e c8 8b bb 18 1d b6 ba
       -0.002857038 -0.002779409 -0.0042658066 -0.0013894169
0002a0 5a 59 3b bb a6 9f 70 3a 06 6f 11 bc 89 36 b1 ba
       -0.0028587193 0.0009179063 -0.008876568 -0.0013520281
0002b0 cf 5d be 3b c5 6c 92 3b 3e 3a bb ba 3c 9f c9 ba
       0.0058095227 0.0044685327 -0.0014284325 -0.0015382539
0002c0 52 dd a6 b8 70 84 0e b9 50 0d c2 ba 20 61 f6 3b
       -7.956721e-05 -0.00013591512 -0.0014804993 0.0075189024
0002d0 06 ef 84 bd 3a ba 1c 3e ef 68 04 bd d0 17 fd bc
       -0.064909026 0.15305415 -0.032326635 -0.030895144
0002e0 ee 97 cb 3d 3a 4f 83 3e c1 90 2d 3e 09 5c d1 3d
       0.09941088 0.25646383 0.1694975 0.102226324
0002f0 26 b3 2b be a0 3c 15 3e b6 a0 29 be 68 77 91 3d
       -0.16767558 0.14573908 -0.16565213 0.07102853
000300 0c 93 ff 3d 03 12 2a be 6d 06 63 3d 40 af 73 bb
       0.12479219 -0.16608433 0.05542605 -0.0037183315
000310 e2 0b 79 bd 07 bd 7c bd 6d aa 9a 3c dd 79 92 3c
       -0.060802348 -0.061703708 0.018880093 0.017880375
000320 b3 79 42 3e 20 70 11 bd b7 3b 09 bc 6f fb 7a bc
       0.18991737 -0.03550732 -0.008376054 -0.0153187355
000330 b8 ed 10 be 53 39 57 bc f4 12 31 be ea b5 15 3d
       -0.14153183 -0.013136226 -0.17292386 0.03655044
000340 87 4f 17 be b2 f8 e2 bd 8f 15 47 3e 97 34 df 3c
       -0.14776431 -0.11082591 0.19441818 0.027246756
000350 b4 40 0c 3e 4e 6d be bd 8e d1 6d bd 52 3c a3 3c
       0.13696557 -0.09298192 -0.058061175 0.019926224
000360 ba c0 d9 3c d4 53 65 3e 15 6f b6 bd 93 47 58 3d
       0.026581157 0.22395259 -0.08907906 0.052802633
000370 d5 f3 d1 3d 50 08 16 be 18 4b 7c bd 7c ff b0 bc
       0.102515854 -0.14651608 -0.061595052 -0.0216062
000380 64 8b 11 3c e4 5d ce 3d cf 71 ec 3c 6c 08 d7 bc
       0.008883331 0.10076502 0.028862862 -0.026249133
000390 2f 20 c2 3d e0 3e ad bd 57 8f 82 3e a5 f1 35 be
       0.09478795 -0.08459258 0.25499985 -0.17767961
0003a0 80 ad cc bb 76 18 bc ba fb 35 00 3c 00 27 fb 3c
       -0.0062462687 -0.0014350552 0.00782537 0.030658245
0003b0 b0 7c 48 bd ca f9 73 bd 06 ab 35 3e ca 7d 4b 3e
       -0.048947036 -0.05956439 0.17741022 0.19872203
0003c0 b3 a7 0a 3e cb a9 3d bd fc e9 26 be 15 aa 29 3b
       0.13540535 -0.046304505 -0.16300195 0.002588873
0003d0 13 64 2d 3e 3c b7 7c bd 76 bb b7 bd f2 6e cc bd
       0.16932707 -0.061698183 -0.08971302 -0.09982099
0003e0 c0 ad 01 3c 18 02 9c bd 2f 93 9f bd 40 33 3e 3e
       0.00791496 -0.07617587 -0.07791745 0.18574238
0003f0 fe 3b cf bd 6c 85 04 3e bb 47 dc 3b 60 28 ba 3d
       -0.101188645 0.12941521 0.006722418 0.09089732

hidden_y0.bias f4 [30]
000000 55 79 12 be 33 06 19 3e 01 14 54 3e ce d3 3d 3e
       -0.14304097 0.14943771 0.20710756 0.18537828
000010 53 42 79 3d b1 03 cf bb 9e f9 63 3e 95 30 ce 3d
       0.060854267 -0.0063175787 0.2226319 0.1006786
000020 3b e4 70 3d ca c7 f0 3d cc 96 b4 bd 50 60 45 3e
       0.058811408 0.11756857 -0.08817825 0.19275022
000030 25 83 07 3e b1 98 27 3e 2e a4 09 be f8 d2 03 3e
       0.13233621 0.16366841 -0.13441536 0.12873447
000040 99 7d 35 3e d5 cd e2 3d a6 b5 8e 3d 28 a9 dc bc
       0.17723693 0.110744156 0.069682404 -0.026936129
000050 4e f2 bb bc 5d 06 3c 83 b2 ed 7a bc 0b 51 3f 3d
       -0.022942688 -5.525554e-37 -0.01531546 0.046708148
000060 5a 17 f6 3d f8 c4 87 bd 19 14 71 bc 92 20 1d bd
       0.12016173 -0.06629366 -0.014714264 -0.03836114
000070 ba 07 31 be a8 d4 be 3d
       -0.17288104 0.09317905

out_y0.weight f4 [1, 30]
000000 de 94 1a be 8f 85 fb be cf 2d 0d 3e bd 25 71 3c
       -0.15095851 -0.49125335 0.13787006 0.01471847
000010 49 4b 6b be fe b1 68 3a e1 c2 25 3e 43 04 55 3d
       -0.22977938 0.00088766206 0.16187622 0.052006017
000020 a6 39 c1 bd c6 01 83 be 67 53 59 3d 87 4a b4 3d
       -0.09434824 -0.2558729 0.053058054 0.088032775
000030 68 9c ab be 35 cc 7f 3d 9e 18 ff bd d8 7d 1f 3e
       -0.33517766 0.062450606 -0.12455867 0.1557535
000040 96 13 2f 3e e7 ea 38 3e 3a 6a aa 3d 54 e5 54 b9
       0.17097315 0.18058358 0.08321042 -0.00020303327
000050 04 57 2a ba 96 a3 53 03 7c 76 a3 bd a4 a5 06 3e
       -0.00064979517 6.2195114e-37 -0.079815835 0.13149124
000060 df bb c0 3d 70 0a 33 3e 32 d6 ca 3d 4f 96 ba bb
       0.094108336 0.1748445 0.09904136 -0.0056941877
000070 b3 e4 46 be ef b0 d6 be
       -0.1942318 -0.41931865

hidden_y1.weight f4 [30, 30]
000000 d9 94 70 be 94 85 d7 bd 1c a4 28 be 1c 6c 3f 3e
       -0.23494281 -0.10523525 -0.16468853 0.18693584
000010 5e a6 a2 3c 6b 88 f9 bd 6a 99 3c 3e b3 c2 cb 3d
       0.01985472 -0.12184223 0.18417898 0.09949245
000020 c9 f9 a8 3d f8 cf e5 bc 16 08 f4 3d bb 92 8e bc
       0.08250768 -0.028053269 0.11915605 -0.01740395
000030 f5 b8 20 3e d1 6f d1 bc 99 e5 a6 3c a2 2e 0c 3e
       0.15695556 -0.025566014 0.020373153 0.13689664
000040 c4 6e 8a 3d a9 85 80 3d 3c e3 55 3d b4 95 28 3e
       0.06759408 0.06275494 0.05221866 0.16463357
000050 17 44 37 3e f7 ea 4d 3d 11 0c cf 3d bc 3a f7 bd
       0.17897068 0.050272908 0.10109723 -0.120717496
000060 bf 13 93 bd fe f0 92 3d 51 d2 5b 3c ed 30 1b be
       -0.07181501 0.07174872 0.013416843 -0.15155382
000070 6f 1a 1f 3d 36 c5 07 bd b1 f6 64 bb 9b f9 6f bd
       0.03884357 -0.03314706 -0.0034937079 -0.05858765
000080 2e 22 51 03 f6 0b ba bc 70 50 97 bd 0a c4 cd bc
       6.1458816e-37 -0.022710782 -0.07388389 -0.025117893
000090 9b 1f 93 bd 28 73 a8 bc b7 87 0d bd 4c 05 a5 bc
       -0.07183763 -0.020562723 -0.034553256 -0.020144127
0000a0 3c 11 dc 3d a7 02 cf 3d 1f d5 61 bc b6 56 da bc
       0.10745475 0.10107928 -0.013783722 -0.026652675
0000b0 33 80 8f 3c 7d 2d d4 bc 5b 3a 35 bd c2 2a 9b 3c
       0.017517185 -0.025900597 -0.044245105 0.018941287
0000c0 00 a8 22 bd 6a 5e 43 bd 7e ff 9f bb cc e1 ff bc
       -0.039711 -0.047697462 -0.004882752 -0.031235598
0000d0 ba ac 22 bc 81 aa fe bb 44 f3 05 bd 55 53 d3 3c
       -0.0099288765 -0.0077717905 -0.0327027 0.025796572
0000e0 1f cc 55 03 35 1f 72 bc c2 8c 60 bd 36 d6 c2 3d
       6.2829394e-37 -0.014777948 -0.054821737 0.09513514
0000f0 83 1b a4 3d 03 13 eb 3d 70 c8 bf 3d d7 6f 69 3d
       0.0801306 0.114782356 0.09364402 0.056991424
000100 59 d9 58 3d c5 87 a0 bb eb 20 22 3e 46 69 a0 bd
       0.052941654 -0.0048989975 0.1583287 -0.07832579
000110 72 3e 05 3e f2 62 41 bd db 70 a4 bc 6e e4 1a bd
       0.13012102 -0.047213502 -0.020073345 -0.037815504
000120 56 86 b2 3d 80 3e c0 bb 8b bb c1 3d 52 33 b4 3d
       0.08717029 -0.0058668256 0.09459599 0.08798851
000130 17 ce bb bd 3b b2 e9 3d e0 58 3a 3e 4c af 78 bd
       -0.09170168 0.11410948 0.18197966 -0.06071405
000140 72 98 dc bd 70 80 1b 3e d7 53 0f 3e 42 37 39 3d
       -0.10771264 0.15185714 0.13996826 0.045218714
000150 c6 67 ff 3d 19 1d 11 be 03 11 ed 3d dc de dd bc
       0.12470965 -0.14171256 0.1157551 -0.027083807
000160 cf c6 0a bd c7 d2 35 be bf c6 9b bd ec 9d 8c 3d
       -0.033881005 -0.17756186 -0.07606267 0.06866059
000170 2a 42 54 bc 92 41 f4 bd 43 e5 0f be c9 c2 2b 3e
       -0.012955228 -0.11926569 -0.140523 0.16773523
000180 b8 b9 59 3e c8 a2 0f 3e dc 1a 5c be ff 8b c5 bc
       0.21262252 0.1402694 -0.21494621 -0.024114607
000190 ce 33 af bd c7 08 da 3c cb d7 ae bc 3a 65 67 be
       -0.08554803 0.026615513 -0.021343132 -0.22597209
0001a0 2e 8f 80 bb cc 5e a6 bd 99 1a 25 be ac 00 b5 3d
       -0.0039233183 -0.0812355 -0.16123427 0.08838019
0001b0 40 8e 82 bc 17 c7 52 3e 6f fe 9d 3d b5 29 f5 bd
       -0.01593697 0.20583759 0.07714545 -0.119708456
0001c0 3e 0a 9a 3d 8c fc 14 be 8f 1a d5 bd ed 87 05 bd
       0.07521485 -0.14549464 -0.10405456 -0.032600332
0001d0 bf f4 1a bd 6b a6 12 be cb dd 82 3e c4 0b 4c 3d
       -0.037831064 -0.14321296 0.2555984 0.049815908
0001e0 2b 2c 88 bd 29 eb 80 bd ca 39 be 3d b7 2a 4d 3d
       -0.06649049 -0.06294853 0.09288366 0.050089564
0001f0 8e a0 46 be e2 4c a6 be 40 05 1e be b1 52 1e 3d
       -0.19397184 -0.32480532 -0.1543169 0.03865308
000200 ad 16 2c 3e 10 a9 8b ba 6b 1e 8f bb 15 9f dd bc
       0.16805525 -0.0010655243 -0.00436764 -0.027053395
000210 61 ba 81 bc d3 4e c2 3c d4 61 69 bd 57 dc d5 bd
       -0.015835943 0.023719227 -0.05697806 -0.10442417
000220 ce 80 a3 3d f7 a6 b0 bc 61 4c 10 be 62 a3 1b 3e
       0.07983552 -0.02156399 -0.14091636 0.15199044
000230 53 24 fe 3c 75 84 91 3d 32 1e 85 bd 40 c3 95 bc
       0.03102318 0.07105342 -0.064999 -0.018281579
000240 1b a9 66 bd 38 39 90 be 3d 53 4c 3d c6 42 eb 3e
       -0.056313615 -0.28168654 0.04988407 0.45949382
000250 23 9e 87 3d 68 81 d5 bd b1 57 bf 3d 6c b6 36 3d
       0.06621959 -0.10425073 0.09342898 0.044607565
000260 49 d5 a3 bc 35 73 79 ba 1c 2b 91 3c c1 8e 48 bd
       -0.019999163 -0.00095157634 0.017720751 -0.048964266
000270 ca 30 98 bd 80 7f 5b bd 80 0a 43 be 3c b9 b7 3d
       -0.07431181 -0.05358839 -0.19046974 0.089708775
000280 da db 06 3e ef 42 77 3e cd be dd 3d d3 21 41 bd
       0.13169804 0.24146627 0.10827408 -0.047151398
000290 1e f9 af bd 4a e3 51 3e 2a 81 bb 3d fb d2 5c bd
       -0.08592437 0.2049686 0.091554955 -0.053912144
0002a0 f8 e1 f7 3d 30 ad 51 3e a4 5a fc bd 60 43 51 3e
       0.12103647 0.20476222 -0.12321976 0.20435858
0002b0 6b 72 d0 bc f0 28 dc bd 58 33 34 3e 1c 2e 24 3e
       -0.025445184 -0.10749996 0.17597711 0.16033214
0002c0 0f 9e 8a bc 66 a0 25 be cf c1 14 3d f6 36 fb 3c
       -0.016921071 -0.16174468 0.036317643 0.030665856
0002d0 67 93 bb 3d db bc 28 bd 82 fc ac 3d c4 79 ee 3d
       0.09158974 -0.04119573 0.084465995 0.11644319
0002e0 5e 17 39 3e 65 1d 0a be 25 b8 ff 3d 3b 0b 28 3e
       0.1807532 -0.13487776 0.12486295 0.16410534
0002f0 51 d7 e3 bc 25 49 5c 3e aa 27 aa bc fb 7e d0 bd
       -0.027812632 0.21512277 -0.020770866 -0.101804696
000300 12 bc f9 3d 20 5c 95 3c 75 f1 7b 3d 3f 3b 07 be
       0.12194075 0.018232405 0.06150957 -0.13206194
000310 a3 b6 af 3d ab a9 40 3d 1f 8d db bd 8f 8e b3 3d
       0.08579757 0.047036808 -0.10720276 0.08767425
000320 57 6d eb bd 85 a6 40 3e 58 91 e5 3c 2c ed 4a bd
       -0.11495464 0.18813522 0.028023407 -0.04954259
000330 1f 4c d7 bd da 00 a7 3c c6 b1 81 bd 8d 8e 62 bd
       -0.10512566 0.020386148 -0.06332736 -0.05531173
000340 75 12 1c bd c0 95 3b bd 61 4a 37 3e 34 d8 0f be
       -0.03810354 -0.04579711 0.17899467 -0.14047319
000350 c6 16 d6 bd c7 81 4c 3d 0a ea f8 bd 4b fb f0 3d
       -0.104535624 0.049928453 -0.121540144 0.1176668
000360 23 28 e8 bd 1e 33 a1 bd 71 8b 38 3d d5 01 c3 3c
       -0.113357805 -0.07871078 0.045054857 0.023804585
000370 62 40 78 bd 52 38 ce 3d ab 1c 22 bd 46 43 6f 3e
       -0.060608275 0.10069336 -0.03957812 0.23365507
000380 80 45 36 3e ce 51 bd 3d 23 6d 5e 3e 21 21 83 3d
       0.1779995 0.09244119 0.2172132 0.06402803
000390 6a ec f1 3d d2 78 7e 3d a8 01 46 3e 40 d3 f6 bb
       0.118126705 0.062126942 0.1933657 -0.007532507
0003a0 1f 5c b8 3d e6 55 44 bc 5d 50 2b 3e 4e 94 22 3e
       0.09001946 -0.01198337 0.16729875 0.15876886
0003b0 92 f9 26 3e d4 86 fa 3b 36 28 1d be 64 a8 d5 bd
       0.16306141 0.0076454673 -0.1534737 -0.104325086
0003c0 49 01 10 3e 93 d3 8e 3d 54 55 c1 3d d0 7f aa bd
       0.1406299 0.06973948 0.09440103 -0.083251595
0003d0 e8 cc 7c be 9d c3 ca bd 0e 88 23 be 93 75 c6 bd
       -0.2468754 -0.099005915 -0.1596987 -0.09690394
0003e0 fb 60 64 3b e5 c7 98 3d 3f 52 95 be 17 16 7a be
       0.0034847844 0.07460002 -0.2916431 -0.24422489
0003f0 cc da b2 be 48 53 8d 3e aa 1f 4e 3c 8e 9a 0c be
       -0.34932554 0.276026 0.0125807915 -0.13730833

hidden_y1.bias f4 [30]
000000 7f 5a 67 bd bc 48 02 bd 70 59 23 be c4 58 4f 3e
       -0.05648279 -0.031807646 -0.15952086 0.20248705
000010 56 3b 0f 3e 9b 33 41 3c a5 6b 40 bd 24 35 e6 3c
       0.13987479 0.011792089 -0.046977658 0.028101511
000020 3f f4 12 be c2 9c 3d be 07 85 7d bd 1f c0 e8 3d
       -0.14350985 -0.1851683 -0.061894443 0.11364769
000030 72 f5 87 3d 30 39 39 3e 40 c8 6c 3b 8f 42 2c be
       0.06638612 0.18088222 0.00361301 -0.16822265
000040 5b 8f 8a 3e 67 b1 e5 3c 06 d7 2b 3e 4d 17 4e 3e
       0.27062497 0.028038694 0.16781244 0.20126076
000050 d2 34 87 3d a1 54 33 be 10 7a ea bd 7e b5 9f 3d
       0.066018716 -0.17512752 -0.11449063 0.07798289
000060 fd 37 59 83 79 b9 87 3e 94 f4 58 83 ab e4 89 bd
       -6.383484e-37 0.26508692 -6.3757457e-37 -0.06733068
000070 5b 94 c7 3d 61 86 dd 3c
       0.097450934 0.027041616

out_y1.weight f4 [1, 30]
000000 2b 13 4a 3d c8 66 97 bc 90 74 58 be de 92 47 3e
       0.049334686 -0.018481627 -0.21138215 0.19489619
000010 73 3d 01 bf 1f 96 e3 3d 4c 5b c3 3d 10 d8 85 bd
       -0.5048439 0.11112618 0.09538898 -0.06535351
000020 33 34 d8 be 5d ff 1f be 50 cc 89 3e 40 88 39 3e
       -0.42227325 -0.15624757 0.2691369 0.18118382
000030 a8 6c 29 3e cf 25 c0 3d 23 52 97 3d ce 23 8d bd
       0.16545355 0.093822114 0.07388713 -0.06891595
000040 2b a0 64 3d 80 6c 36 3d 90 0c ca 3d af b2 d0 3d
       0.05581681 0.044537067 0.09865677 0.10190331
000050 54 c7 e7 bd a8 61 bd be f4 d3 58 be 1a d3 0a bd
       -0.11317316 -0.36988568 -0.21174604 -0.03389273
000060 89 c5 59 03 df 92 47 3e c1 76 52 03 bb ac 2b 3e
       6.399733e-37 0.1948962 6.1849776e-37 0.1676511
000070 0a e8 5d 3e 38 65 3b 3e
       0.21670547 0.1830033
