DR_Info_CFR/Jobs/Models/netQ1.pth (torch, 8895 bytes, 8 tensors)

hidden1.weight f4 [30, 2]
0	0xbf22f31d	-0.6365221
1	0xbd5c5910	-0.053795874
2	0x3e27cbec	0.16386384
3	0x3ed1b292	0.4095655
4	0x3f0acb95	0.5421689
5	0xbe2d5814	-0.1692813
6	0xbf0b1ad2	-0.543378
7	0xbf254048	-0.6455121
8	0x3bb5b180	0.0055448413
9	0x3d8b02c0	0.06787634
10	0x3e36cf48	0.17852509
11	0xbeb7caee	-0.3589701
12	0xbe2f4bbc	-0.17118734
13	0xbe30b504	-0.17256552
14	0x3ebdaec6	0.37047404
15	0x3f032ccd	0.51240236
16	0x3ef6f716	0.48235387
17	0x3e346848	0.17617905
18	0x3eaf927a	0.3429144
19	0x3e290c88	0.16508687
20	0x3f14b839	0.580936
21	0x3f1f6823	0.62268275
22	0x3f24a129	0.6430841
23	0xbea3e22b	-0.3200849
24	0xbeaa6cdd	-0.3328618
25	0x3ef5902e	0.47961563
26	0xbe8cbe76	-0.2748906
27	0xbe91734e	-0.28408283
28	0x3f24c345	0.6436046
29	0x3f319865	0.6937316
30	0xbddf8a10	-0.10915005
31	0xbe9445ab	-0.28959402
32	0xbe62298c	-0.22086161
33	0xbec4e544	-0.38456166
34	0xbed897bf	-0.42303273
35	0x3f1d6f0d	0.61497575
36	0x3dc22300	0.09479332
37	0x3f0965ff	0.5367126
38	0xbebd5b8a	-0.369839
39	0x3ec2116e	0.37903923
40	0xbe7b093e	-0.24515244
41	0xbf191f67	-0.5981354
42	0xbf1f3b0c	-0.62199473
43	0xbf016ea2	-0.5055944
44	0x3e3edef4	0.18639737
45	0x3f253bed	0.64544564
46	0xbe4033cc	-0.18769759
47	0x3f2a7207	0.6658024
48	0xbe61594e	-0.22006723
49	0xbe929168	-0.2862656
50	0x3bfef900	0.007781148
51	0x3f04249f	0.5161838
52	0x3e43d3f4	0.19123822
53	0xbe3e230c	-0.18568057
54	0x3ea4ff32	0.3222595
55	0x3e50bbd8	0.20384157
56	0x3e512cb4	0.20427209
57	0xbf0f0185	-0.55861694
58	0xbe59c04c	-0.21264762
59	0xbef51c0c	-0.4787296

hidden1.bias f4 [30]
0	0x3f1e3119	0.6179367
1	0x3dd68c38	0.10475963
2	0x3c8252e0	0.015908659
3	0x3e4cd008	0.20001233
4	0xbeeb780e	-0.45990032
5	0x3ec25716	0.37957066
6	0x3e92c990	0.28669405
7	0x3dadab08	0.08479887
8	0xbf274c78	-0.6535106
9	0xbd84e070	-0.064881206
10	0x3ebabdea	0.36473018
11	0x3ef51dd6	0.47874326
12	0x3e97a542	0.2961827
13	0x3ee9f02e	0.45691055
14	0x3e54327c	0.20722383
15	0xbe2b3f6c	-0.16723412
16	0xba2ce400	-0.0006595254
17	0x3e8fb190	0.28065157
18	0xbf1c135f	-0.6096706
19	0x3e2ce8d8	0.16885698
20	0xbe0946a0	-0.13405848
21	0x3eb515a2	0.35368067
22	0xbee3b327	-0.4447262
23	0x3d418560	0.047246337
24	0xbf24c191	-0.6435786
25	0x3e22eb98	0.15910184
26	0x3e893d98	0.26804805
27	0x3f07dec7	0.53074306
28	0x3e2869d8	0.16446626
29	0xbe3b9464	-0.18318325

hidden2.weight f4 [30, 30]
0	0xbe05742a	-0.13032594
1	0x3ceed848	0.029155865
2	0x3d111290	0.035418093
3	0xbe19b0cc	-0.15008849
4	0x3d1e3070	0.038620412
5	0x3e0082b4	0.1254986
6	0xbde9bf80	-0.11413479
7	0x3ca8f828	0.020626143
8	0xbdcff7c0	-0.101546764
9	0x3dccb320	0.09995103
10	0xbe2079cf	-0.15671466
11	0x3cdb8e68	0.026801303
12	0xbe124a3d	-0.14286132
13	0xbdbc0861	-0.09181286
14	0x3d3d3d24	0.046200886
15	0xbcb8ea40	-0.022572637
16	0x3e224464	0.15846401
17	0xbbb5fe40	-0.0055539906
18	0x3d89e7fe	0.06733702
19	0xbdfc3aa8	-0.12315875
20	0x3e2dc82e	0.16970894
21	0xbdd48c67	-0.10378342
22	0xbe32c2c0	-0.17457104
23	0x3e1aebb0	0.1512897
24	0x3dc9f124	0.09860447
25	0x3d265a9c	0.040613756
26	0xbdace6e0	-0.084424734
27	0x3e2a3ef6	0.1662558
28	0xbdaa03f9	-0.08301539
29	0xbe165c71	-0.14683701
30	0xbdafee90	-0.08590424
31	0x3dd219b0	0.10258806
32	0x3e2aa5f4	0.16664869
33	0x3d4299dc	0.047510013
34	0xbd7aa280	-0.06119013
35	0xbdc4dc9d	-0.09612391
36	0xbdbca6c0	-0.092114925
37	0x3da1e688	0.079052985
38	0xbbee7b80	-0.007277906
39	0x3dfedfd8	0.124450386
40	0xbe15b924	-0.14621407
41	0xbe22734a	-0.15864292
42	0x3e2c7984	0.1684323
43	0x3e2e0fe4	0.1699825
44	0x3dcfda2c	0.10149035
45	0xbc214c70	-0.009844884
46	0x3e38bbf8	0.18040454
47	0xbe1ef6b9	-0.15523805
48	0x3d454bc8	0.048167974
49	0x3e31000a	0.17285171
50	0x3e25082e	0.16116402
51	0xbe13337e	-0.14375111
52	0xbde5d4c4	-0.112222224
53	0x3dd0284c	0.10163936
54	0xbdad2b1f	-0.0845549
55	0xbc94f350	-0.018182427
56	0x3d13853c	0.036015734
57	0x3dfbe638	0.1229977
58	0xbe3360b9	-0.17517366
59	0x3e061220	0.13092852
60	0x3decec90	0.11568558
61	0x3e12daaa	0.14341226
62	0x3e217612	0.15767696
63	0x3d7d4108	0.061829597
64	0x3e3654a2	0.17805722
65	0xbc2d2130	-0.010566995
66	0xbd8277d0	-0.06370509
67	0xbd8df9fa	-0.06932445
68	0xbd505754	-0.050864533
69	0xbd66823c	-0.056276545
70	0xbd499730	-0.04921645
71	0xbe35cf11	-0.17754771
72	0xbe35609f	-0.1771264
73	0xbce26160	-0.027634323
74	0x3dda21e0	0.106509924
75	0x3e281a58	0.164163
76	0xbe1be9c3	-0.15225892
77	0xbdbb5927	-0.09147864
78	0x3cefb548	0.029261246
79	0x3cdcc700	0.02695036
80	0xbe0a41b3	-0.13501625
81	0xbdeff933	-0.11717453
82	0xbe392a64	-0.18082577
83	0x3e2289ea	0.15872923
84	0x3e05c15c	0.13062042
85	0x3b56b700	0.0032762885
86	0xbcfba9a0	-0.030720532
87	0xbd8de377	-0.06928151
88	0xbd883e9e	-0.06652568
89	0xbd43f468	-0.047840506
90	0xbe1e71ab	-0.15473048
91	0x3cb4ece0	0.022085607
92	0x3e2e755c	0.17036957
93	0x3d4e75d0	0.050405324
94	0xbc1400a0	-0.009033352
95	0xbd7649e0	-0.060129046
96	0x3d1641b0	0.03668374
97	0xbe37c14e	-0.17944834
98	0xbdf9d792	-0.1219932
99	0xbe201ec8	-0.15636742
100	0x3d430808	0.04761508
101	0xbd138300	-0.036013603
102	0x3e261406	0.16218576
103	0xbd6e5e22	-0.05819524
104	0xbe1dc3da	-0.15406743
105	0xbe17f421	-0.14839222
106	0x3e1100fc	0.14160532
107	0xbda10651	-0.07862533
108	0x3bb10060	0.005401656
109	0xbd31538c	-0.043292567
110	0x3d3cb4f8	0.046071023
111	0xbdcaef21	-0.099088915
112	0x3bf99a60	0.00761728
113	0xbde1a8d8	-0.110185325
114	0x3ca2d770	0.01987812
115	0xbe1cd305	-0.15314873
116	0xbe1b7a75	-0.15183432
117	0x3d47b294	0.04875429
118	0xbda0712b	-0.07834085
119	0xbe0156f1	-0.12630822
120	0x3dd741a4	0.10510567
121	0xbd223aec	-0.039606974
122	0xbd18b354	-0.037280396
123	0xbcb32bf8	-0.021871552
124	0xbe214d9a	-0.15752259
125	0x3dc12a28	0.09431869
126	0xbe23a882	-0.1598225
127	0x3da17b70	0.07884872
128	0xbc68a9d0	-0.014200643
129	0x3ddc26d8	0.10749596
130	0x3d58c4b8	0.05292198
131	0x3e0841b8	0.1330632
132	0x3dbb0fd0	0.09133875
133	0xbc60d4a0	-0.013722569
134	0xbe086c88	-0.13322651
135	0xbe1d002f	-0.15332101
136	0x3cd018b8	0.025402412
137	0x3dc9c544	0.098520786
138	0xbd18324c	-0.03715734
139	0x3d963c14	0.07335678
140	0xbe15bf4d	-0.14623757
141	0x3dff547c	0.12467286
142	0x3cba8ca0	0.022772133
143	0x3dee9e84	0.11651328
144	0xbd58e678	-0.052954167
145	0xbe070218	-0.13184392
146	0x3e046eda	0.12932912
147	0x3dd2a370	0.102850795
148	0xbe108960	-0.14114904
149	0x3e142a2c	0.14469212
150	0xbe38bc47	-0.18040572
151	0xbe32bd74	-0.17455083
152	0xbdd8b7fe	-0.10581969
153	0x3e37a306	0.17933282
154	0xbde63b68	-0.112417996
155	0xbdd4ebc9	-0.10396535
156	0x3e110054	0.14160281
157	0xbd6ea1f6	-0.058259927
158	0xbe0b1a39	-0.13584222
159	0xbd8eacb5	-0.06966535
160	0xbe2af409	-0.16694655
161	0x3d9d19cc	0.07670936
162	0xbe25f8e6	-0.16208228
163	0xbe1d9879	-0.15390195
164	0xbcb32c20	-0.021871626
165	0x3de75efc	0.11297414
166	0xbd1f642c	-0.03891389
167	0xbe373b6a	-0.17893758
168	0x3e1369da	0.14395848
169	0x3dafb958	0.085802734
170	0x3df75a50	0.120777726
171	0xbe24bb5c	-0.16087097
172	0xbe36a228	-0.17835295
173	0xbe0b05a3	-0.13576369
174	0xbd1388a4	-0.036018983
175	0x3d2bfa64	0.041986838
176	0x3de28c10	0.11061871
177	0x3e121438	0.14265525
178	0x3c7dc4f0	0.015488848
179	0x3d67bb90	0.056575358
180	0x3d1d1af4	0.038355783
181	0x3dbe57b8	0.09294075
182	0x3e32f8ba	0.17477694
183	0x3be1d800	0.0068922043
184	0xbd35d7a0	-0.04439509
185	0x3af7cb00	0.0018905103
186	0x3e342c3e	0.17595002
187	0xbdd07d2b	-0.10180124
188	0x3d6ff250	0.058580697
189	0xbe050dba	-0.12993518
190	0x3d076594	0.033055857
191	0x3de31574	0.11088076
192	0xbdc6f85c	-0.097153395
193	0xbda12fd5	-0.07870451
194	0x3d80ff52	0.062986985
195	0xbdcbe523	-0.09955814
196	0x3da54e70	0.080716014
197	0xbdf7b4f2	-0.120950595
198	0xbc435510	-0.011922136
199	0xbcec4218	-0.02884011
200	0xbd9fc4cb	-0.07801207
201	0x3e2c2b64	0.16813427
202	0xbcb79ee8	-0.02241464
203	0x3e201890	0.1563437
204	0xbe24dfd8	-0.16101015
205	0x3e0da0f6	0.13830933
206	0xbc075600	-0.00826025
207	0x3e1b4c74	0.15165883
208	0x3e376ab6	0.179118
209	0xbd9bf3c2	-0.076148525
210	0xbcb480d8	-0.022034094
211	0x3c730d90	0.0148347765
212	0x3dd23ea0	0.10265851
213	0xbdb8de7e	-0.09026812
214	0xbc22c470	-0.00993453
215	0x3e289b08	0.1646539
216	0x3e33bc48	0.17552292
217	0x3e2d7c22	0.16941884
218	0x3d2d3fa8	0.042297035
219	0xbd03b0b0	-0.032150924
220	0xbdb9e327	-0.09076529
221	0xbda12a8f	-0.078694455
222	0xbd12f614	-0.03587921
223	0x3db8441c	0.08997366
224	0xbda353a2	-0.07974936
225	0xbc25d5b0	-0.010121748
226	0xbdc6fb51	-0.097159036
227	0x3d3f6af4	0.046732858
228	0x3cb24cb0	0.021765083
229	0x3c2989e0	0.010347813
230	0x3e1029d2	0.14078453
231	0xbd5de0d0	-0.054169476
232	0x3cfd7c58	0.03094308
233	0x3cc770c8	0.02434577
234	0x3db8ed98	0.090296924
235	0xbde5bc62	-0.11217572
236	0xbde7b848	-0.11314446
237	0x3c7da4b0	0.015481159
238	0x3cf3bed8	0.029754087
239	0xbdbbc809	-0.09169013
240	0xbd948e7a	-0.07253738
241	0xbe2afeed	-0.16698809
242	0xbdb508d3	-0.08839574
243	0xbd3e0778	-0.04639384
244	0x3ddd2640	0.10798311
245	0xbe280c52	-0.1641095
246	0xbdfade20	-0.12249398
247	0x3cadeea8	0.021231964
248	0x3d9d0c00	0.076683044
249	0x3dd07668	0.10178834
250	0x3de35208	0.110996306
251	0xbe22c4fb	-0.15895455
252	0xbe0974bd	-0.13423438
253	0xbde27e32	-0.11059226
254	0x3d02e558	0.031957
255	0x3b946080	0.0045281053

hidden2.bias f4 [30]
0	0xbe1b8261	-0.15186454
1	0x3d69dcf8	0.057095498
2	0x3e0515b6	0.12996563
3	0x3d6bca84	0.05756618
4	0xbd58cffc	-0.052932724
5	0xbe0385c7	-0.12844001
6	0x3d9344ac	0.071908325
7	0x3e013f82	0.12621883
8	0x3dfc508c	0.123200506
9	0x3e00e2cc	0.12586516
10	0xbd6bf3d8	-0.057605594
11	0xbd2c2290	-0.04202515
12	0xbc51a0e0	-0.012794703
13	0x3d4e4420	0.050357938
14	0xbe0d2156	-0.13782248
15	0x3ca6f0c8	0.020378485
16	0xbd6a5fe8	-0.05722037
17	0xbe32c5e2	-0.17458299
18	0xbd9da880	-0.076981544
19	0xbdc97d94	-0.09838405
20	0x3e2cee78	0.16887844
21	0x3a543800	0.0008095503
22	0xbe2d4737	-0.16921698
23	0xbbf6e6a0	-0.007534817
24	0x3e364fda	0.17803898
25	0x3c2511a0	0.010075003
26	0x3df59fe4	0.11993387
27	0x3c43b0b0	0.011943981
28	0xbda23411	-0.07920087
29	0x3e251baa	0.16123834

out_mu1.weight f4 [8, 30]
0	0x3dd8496c	0.10560879
1	0x3ca76738	0.02043496
2	0x3def5ba8	0.11687404
3	0xbd3708cc	-0.044686124
4	0xbe254b6e	-0.16142055
5	0x3c95fff8	0.018310532
6	0xbdfdfbcd	-0.12401543
7	0xbe054c63	-0.1301742
8	0xbdafe74b	-0.085890375
9	0xbdea7517	-0.11448114
10	0xbbeea8a0	-0.0072832853
11	0x3b994c00	0.0046782494
12	0xbdd5e64d	-0.10444317
13	0xbd9bf605	-0.07615284
14	0x3e2e2a78	0.17008388
15	0xbdadf235	-0.08493463
16	0xbe0d25dc	-0.13783973
17	0x3d433fb4	0.047668174
18	0xbd1139d0	-0.035455525
19	0xbd8a5e6a	-0.06756289
20	0x3cad1430	0.02112779
21	0x3dce35a0	0.10068822
22	0x3db383c8	0.0876537
23	0xbde34f96	-0.11099164
24	0xbcdb1828	-0.026744917
25	0xbdeb6314	-0.11493507
26	0x3e08c8da	0.13357869
27	0x3d6f605c	0.058441505
28	0x3d927934	0.07152024
29	0xbe1146e9	-0.14187206
30	0xbca094b0	-0.01960215
31	0x3dbab5f0	0.09116733
32	0xbd9caaa1	-0.076497324
33	0xbc4566a0	-0.0120483935
34	0x3ad8bd00	0.0016535819
35	0xbe2285b2	-0.15871313
36	0xbdb59f12	-0.08868231
37	0x3cddeea0	0.027091324
38	0x3d427edc	0.047484264
39	0xbd22b928	-0.03972736
40	0xbdfdbb17	-0.123892
41	0x3bffc200	0.007805109
42	0x3d10f770	0.035392225
43	0x3d387d70	0.0450415
44	0x3d960bc8	0.07326466
45	0x3d8fda24	0.07024029
46	0x3ca084f0	0.01959464
47	0xbdc6a417	-0.096992664
48	0xbd505064	-0.050857916
49	0x3e1b4ddc	0.1516642
50	0xbdaa0f42	-0.083036914
51	0xbbc55f60	-0.0060233325
52	0xbca41a80	-0.020032167
53	0xbe026d4f	-0.1273701
54	0x3d2dd920	0.042443395
55	0xbd59993c	-0.05312465
56	0xbdbdc0f7	-0.09265321
57	0x3d8506da	0.064954475
58	0xbd9c2782	-0.07624723
59	0xbdee6ee6	-0.11642246
60	0x3e3aa354	0.18226367
61	0x3df07750	0.11741507
62	0xbe0fa0d6	-0.14026198
63	0xbc468790	-0.012117282
64	0xbddeaf1a	-0.10873242
65	0xbdb77475	-0.08957759
66	0xbddbf114	-0.107393414
67	0xbde53b70	-0.111929774
68	0xbe38ba89	-0.18039908
69	0xbdaa99b5	-0.083300985
70	0x3e278994	0.16361076
71	0xbdda1b85	-0.1064978
72	0x3b9e0b00	0.0048230886
73	0x3e2c01aa	0.1679751
74	0xbd44d25c	-0.048052177
75	0x3e24fbec	0.16111726
76	0x3da206cc	0.07911453
77	0x3e2b4d9c	0.16728824
78	0xbd145204	-0.03621103
79	0xbe19e6f6	-0.15029511
80	0x3e2ebd2e	0.17064354
81	0xbe202263	-0.15638117
82	0xbdd7f68b	-0.10545071
83	0x3d0f3330	0.034960926
84	0x3dd4ca58	0.103901565
85	0xbdaf4978	-0.08558935
86	0xbcc262b0	-0.023728698
87	0x3d21dbec	0.039516374
88	0x3e27a06c	0.1636979
89	0x3d8996c2	0.06718208
90	0x3d42d070	0.047562063
91	0x3cb4ea60	0.022084415
92	0x3e335420	0.1751256
93	0xbd8f6989	-0.07002551
94	0x3e1a8556	0.15089926
95	0xbd07b640	-0.03313279
96	0xbd83d251	-0.06436599
97	0xbde3a169	-0.11114771
98	0x3cbe6ed0	0.023246199
99	0xbe2dfb52	-0.16990402
100	0x3bc93840	0.0061407387
101	0xbcd2fe70	-0.02575609
102	0x3e0236aa	0.12716165
103	0x3da40398	0.08008498
104	0xbdd53c70	-0.10411918
105	0x3e335080	0.17511177
106	0xbe2f6416	-0.17128024
107	0xbd7cb0f4	-0.061692193
108	0xbddc4158	-0.10754651
109	0xbdef705c	-0.11691353
110	0xbde4a7d7	-0.111648254
111	0xbce34a68	-0.02774544
112	0xbe33b8ef	-0.17551015
113	0x3da99518	0.082803905
114	0xbd539954	-0.051659897
115	0x3df09fa8	0.11749202
116	0x3e384552	0.17995194
117	0xbe388893	-0.18020849
118	0xbdf0cae0	-0.11757445
119	0xbe0c77b1	-0.13717534
120	0x3e218c18	0.15776098
121	0x3e0ff6e8	0.14059031
122	0x3e3575f8	0.17720783
123	0x3d65be74	0.056089833
124	0xbd9d9924	-0.07695225
125	0x3c117c50	0.008879736
126	0x3e0f7288	0.14008534
127	0x3d344b64	0.04401721
128	0x3bf332c0	0.0074218214
129	0x3d3cdeac	0.046110794
130	0x3dfbb168	0.12289697
131	0x3de295f8	0.110637605
132	0x3c6acea0	0.01433149
133	0xbe2a19d5	-0.16611417
134	0xbd6ea4f4	-0.05826278
135	0x3d18b548	0.03728226
136	0xbe320276	-0.17383751
137	0xbdd7315d	-0.10507462
138	0xbd57d520	-0.052693486
139	0x3d613748	0.05498436
140	0x3daa120c	0.083042234
141	0xbd93f396	-0.07224195
142	0xbc2b2340	-0.010445416
143	0x3abb4e80	0.0014290363
144	0xbdb277d5	-0.087142624
145	0x3bdc4c60	0.006722972
146	0xbd0a16b4	-0.033713058
147	0x3db7d2d8	0.08975762
148	0x3d95f7ec	0.07322678
149	0xbcb1cb30	-0.021703333
150	0xbe317a21	-0.17331745
151	0xbdd7be81	-0.105343826
152	0xbc91d7c0	-0.017803073
153	0x3e121216	0.14264712
154	0xbd9fa6c0	-0.07795477
155	0xbd4278b8	-0.047478408
156	0x3b858b40	0.004075438
157	0x3df3aca4	0.11898163
158	0x3e0809f0	0.13285041
159	0x3df1be0c	0.11803827
160	0xbde85450	-0.11344206
161	0xbe14f760	-0.14547491
162	0x3e19818c	0.14990824
163	0x3e114e90	0.14190125
164	0xbcc77490	-0.024347574
165	0x3dcc19b8	0.09965843
166	0xbde9a1ef	-0.114078395
167	0xbdbe525d	-0.09293053
168	0xbbf91380	-0.0076012015
169	0xbd80fb43	-0.06297924
170	0xbd8c7ad6	-0.068593666
171	0xbd1cd218	-0.0382863
172	0x3d852768	0.06501657
173	0xbd5370b4	-0.051621154
174	0xbc94e980	-0.018177748
175	0x3dea0578	0.11426824
176	0xbde6b7ac	-0.112655014
177	0x3cda8fe8	0.026679948
178	0x3e32a644	0.17446238
179	0x3ddc51fc	0.10757825
180	0x3df85128	0.12124854
181	0xbd47dbb4	-0.04879351
182	0xbdd9943c	-0.106239766
183	0x3e137448	0.14399827
184	0x3e0e34e4	0.13887364
185	0xbc78e3c0	-0.015191019
186	0x3dab64d8	0.08368844
187	0xbe2de97f	-0.16983603
188	0x3e21054a	0.15724674
189	0x3d6cd004	0.057815567
190	0xbd57a5d8	-0.052648395
191	0xbddc072f	-0.10743558
192	0xbd5a6f60	-0.05332887
193	0xbb4641c0	-0.0030251592
194	0xbe12dc5e	-0.14341876
195	0x3d81fc5e	0.06346963
196	0xbc9f1b60	-0.019422233
197	0x3e25a85a	0.16177502
198	0x3c4ab040	0.012371123
199	0x3e1764ca	0.14784542
200	0x3dc46040	0.09588671
201	0x3dcc7984	0.09984115
202	0xbd2f60fc	-0.0428171
203	0x3c7e2cb0	0.015513584
204	0xbb279a00	-0.002557397
205	0x3d8292e2	0.06375672
206	0xbdd8aae7	-0.10579472
207	0xbe3499b3	-0.17636757
208	0xbe32aedb	-0.17449515
209	0xbe3ae8c5	-0.18252857
210	0xbde65258	-0.112461746
211	0xbd0d9324	-0.034564152
212	0x3b119fc0	0.0022220463
213	0x3dbd5490	0.09244645
214	0x3cd87120	0.02642113
215	0x3e1d6296	0.15369639
216	0x3af48900	0.0018656552
217	0xbd1f09a0	-0.03882754
218	0xbd9b755f	-0.07590746
219	0x3daa51ec	0.083164066
220	0xbdc8f4ba	-0.09812303
221	0x3ae65980	0.001757428
222	0x3da4d714	0.080488354
223	0x3da75c5c	0.08171913
224	0x3d2c94c8	0.042134076
225	0xbda29899	-0.07939262
226	0x3e02121c	0.1270222
227	0xbe2f2d49	-0.17107119
228	0x3df7cf5c	0.121000975
229	0x3a94f500	0.001136452
230	0x3d92b4dc	0.071634024
231	0x3d8935cc	0.06699714
232	0xbdb23c01	-0.08702851
233	0xbd063010	-0.03276068
234	0xbd622070	-0.055206716
235	0xbd87227d	-0.06598375
236	0x3e1368d2	0.14395455
237	0x3d90d194	0.07071224
238	0x3ddf6b68	0.10909158
239	0x3cdb1a28	0.02674587

out_mu1.bias f4 [8]
0	0xbc482900	-0.012216806
1	0xbcbfe020	-0.0234223
2	0xbe1e3f83	-0.15453915
3	0x3df1ed2c	0.11812815
4	0x3d919558	0.07108563
5	0x3d4d52b4	0.0501277
6	0x3ce34158	0.02774112
7	0x3e10c244	0.14136606

out_var1.weight f4 [8, 30]
0	0x3da8efe0	0.082488775
1	0xbdcbdfe0	-0.0995481
2	0xb9d2bc00	-0.00040194392
3	0x3e380d6e	0.17973873
4	0xbda4670c	-0.08027467
5	0x3d98909c	0.07449457
6	0xbe072a9b	-0.13199846
7	0xbd3a7ff4	-0.04553218
8	0xbd9523fb	-0.07282253
9	0xbdd11a31	-0.10210074
10	0x3de28ffc	0.11062619
11	0xbe0f4e1d	-0.13994642
12	0x3d326ba8	0.0435597
13	0xbd4e0abc	-0.050303206
14	0xbc475ab0	-0.012167618
15	0xbca19598	-0.019724652
16	0x3c66e2f0	0.014092192
17	0x3e127b52	0.14304855
18	0x3d9cbc9c	0.07653162
19	0xbd822f3d	-0.06356666
20	0x3d21ba80	0.0394845
21	0xbd0069b8	-0.03135082
22	0x3de51c14	0.11186996
23	0x3da9b758	0.08286923
24	0xbe1048b2	-0.14090231
25	0x3d68a620	0.056799054
26	0xbd6994f4	-0.05702682
27	0x3e2cc50e	0.16872045
28	0xbd55a05c	-0.052154884
29	0xbd787fb2	-0.060668655
30	0xbcefc8d0	-0.02927056
31	0xbdd1d4fd	-0.102457024
32	0x3e0bc21a	0.13648263
33	0x3df15338	0.11783451
34	0x3dd70198	0.10498351
35	0x3dd321d4	0.103091866
36	0xbdf758aa	-0.12077458
37	0xbe353871	-0.17697312
38	0x3e1b199a	0.15146485
39	0xbc462e40	-0.012095988
40	0xbe0e95ce	-0.13924333
41	0xbd2cdc7c	-0.042202458
42	0x3e317906	0.17331323
43	0xbc821650	-0.01587978
44	0xbdc23b2d	-0.09483943
45	0xbd956644	-0.07294896
46	0x3d876a7a	0.06612106
47	0xbdfa91f2	-0.12234868
48	0xbd9e8b56	-0.0774142
49	0x3b851660	0.004061505
50	0x3e1f65d0	0.15566182
51	0x3dafb4c4	0.085794
52	0x3d037a38	0.03209898
53	0xbc673e20	-0.014113933
54	0x3d15bda4	0.03655781
55	0x3d8a532c	0.06754145
56	0xbd59856c	-0.053105757
57	0xbe3af1b5	-0.18256266
58	0xbc4c77d0	-0.012479737
59	0x3e355906	0.17709741
60	0x3dfb6f20	0.12277055
61	0x3db79258	0.0896346
62	0x3e1c30ea	0.15253034
63	0x3e31c05c	0.17358536
64	0x3e16324e	0.14667627
65	0x3b8107a0	0.0039376765
66	0x3d762ae8	0.060099512
67	0xbe351ff1	-0.17687966
68	0xbd98a68e	-0.07453643
69	0x3dece390	0.115668416
70	0x3d82c678	0.06385511
71	0x3b64f6c0	0.0034937114
72	0x3d728a68	0.059214026
73	0xbe1d7b46	-0.15379056
74	0xba0f7200	-0.00054720044
75	0xbe1621e4	-0.14661366
76	0x3e3a1856	0.18173346
77	0xbdf9dbeb	-0.12200149
78	0xbdf015c3	-0.11722901
79	0x3cd77620	0.026301444
80	0xbd11e928	-0.035622746
81	0xbceaf8b8	-0.028683051
82	0x3dc92eb8	0.09823364
83	0x3dbb25d0	0.091380715
84	0x3cf10d10	0.029425174
85	0x3e09273c	0.13393873
86	0x3da3a390	0.079901814
87	0xbe362275	-0.17786582
88	0xbd66ee30	-0.056379497
89	0xbe0ada15	-0.13559754
90	0xbd9c2fd6	-0.076263115
91	0x3e371562	0.1787925
92	0xbd33b8e8	-0.043877512
93	0x3dbbb880	0.0916605
94	0x3c94b8f0	0.018154591
95	0xbe057c13	-0.13035612
96	0xbdafad54	-0.085779816
97	0xbe1ea400	-0.15492249
98	0xbe18a597	-0.14906918
99	0xbe07e904	-0.13272482
100	0xbdf11188	-0.11770922
101	0xbbb78380	-0.005600393
102	0xbce450e0	-0.027870595
103	0x3e19fd24	0.15037972
104	0x3dc1a9cc	0.09456214
105	0xbdb1b43a	-0.086769536
106	0xbdfad057	-0.12246769
107	0x3c3a0950	0.011354759
108	0x3db35dec	0.087581486
109	0x3e1316d2	0.14364174
110	0xbd1c0920	-0.03809464
111	0x3e2f1672	0.17098406
112	0x3e013b06	0.12620172
113	0xbe1a398a	-0.15061012
114	0xbd86d43b	-0.065834485
115	0x3dca31b8	0.09872764
116	0x3e2126f0	0.1573751
117	0xbdb4d99e	-0.0883057
118	0x3b140ac0	0.0022589415
119	0xbde0f612	-0.10984434
120	0xbd861f6d	-0.06548963
121	0xbe3329aa	-0.17496362
122	0xbd27ce68	-0.04096833
123	0xbe14391b	-0.14474909
124	0x3cf9a7e0	0.030475557
125	0xbd6ac158	-0.057313293
126	0x3dab35a4	0.083598405
127	0xbc5904e0	-0.013245791
128	0x3d39119c	0.04518281
129	0xbe0152c5	-0.1262923
130	0xbd29abf4	-0.041423753
131	0x3dc51a80	0.09624195
132	0xbd4d67e0	-0.05014789
133	0xbda24286	-0.079228446
134	0x3d9c0d44	0.07619718
135	0xbdea7fda	-0.11450167
136	0xbd8bbc3a	-0.06823011
137	0xbde041c4	-0.10950044
138	0xbcf559f0	-0.029950112
139	0xbe0483f2	-0.12940958
140	0xbe2b6a3b	-0.16739742
141	0xbc4624c0	-0.012093723
142	0x3cd8b630	0.026454061
143	0xbdde7074	-0.108612925
144	0xbd558338	-0.052127093
145	0xbc91c478	-0.017793879
146	0x3df55d74	0.119807154
147	0xbc423410	-0.011853233
148	0x3e14f096	0.14544901
149	0xb97ac000	-0.00023913383
150	0xbe34cb86	-0.17655763
151	0xbe20eb2d	-0.15714712
152	0xbe12b308	-0.14326108
153	0xbe201272	-0.15632036
154	0x3dba76d0	0.09104693
155	0x3e1fa002	0.15588382
156	0x3dbd4a5c	0.092426986
157	0x3c15b830	0.009138152
158	0xbdd5f000	-0.10446167
159	0x3d6b03b8	0.057376593
160	0x3d91af20	0.071134806
161	0xbe049598	-0.1294769
162	0xbd9ff86b	-0.07811054
163	0x3e3a486a	0.18191686
164	0x3e03bef8	0.12865818
165	0x3e213d32	0.15746
166	0xbdf8d84f	-0.121506326
167	0xbc97dd08	-0.018538013
168	0xbe0dcfb8	-0.1384877
169	0x3abe4980	0.0014517754
170	0x3dfdaf8c	0.123869985
171	0x3e03a2b2	0.12855032
172	0x3dfa63dc	0.12226078
173	0x3d4973e4	0.049182788
174	0xbddac450	-0.10681975
175	0xbdcf61e4	-0.10126093
176	0x3e1cf7b2	0.15328863
177	0xbd074ac8	-0.0330303
178	0x3dfde7bc	0.123977154
179	0xbcd55940	-0.026043534
180	0x3db5c5bc	0.088756055
181	0xbdb3c2b4	-0.08777371
182	0x3c7ab6f0	0.015302405
183	0xbd6a2480	-0.057163715
184	0x3dd66688	0.10468775
185	0x3d60b538	0.054860324
186	0x3dde894c	0.10866031
187	0x3cb4c1b0	0.022065014
188	0xbdc58c69	-0.09645922
189	0xbe19d777	-0.150236
190	0x3cb5e3e8	0.0222034
191	0x3d9dfde0	0.077144384
192	0x3d6b973c	0.057517275
193	0x3e260a02	0.16214755
194	0xbcdcdca8	-0.026960686
195	0xbd3b0a24	-0.045663968
196	0xbcf609b0	-0.030033916
197	0x3d77cd90	0.060498774
198	0x3e1d9d56	0.1539205
199	0x3d36f918	0.044671148
200	0x3e2789b4	0.16361123
201	0xbe33be6b	-0.17553107
202	0xbd4014f0	-0.046894968
203	0x3e055528	0.13020766
204	0xbaab3f80	-0.0013065189
205	0xbe1fdde7	-0.15611993
206	0x3d751390	0.05983311
207	0x3cca43e8	0.024690583
208	0xbc723880	-0.014783978
209	0xbe0e8a06	-0.1391984
210	0x3cb0f008	0.02159883
211	0xbda52870	-0.080643535
212	0xbd9c49cf	-0.07631265
213	0x3cd46250	0.025925785
214	0x3cf2af38	0.029624566
215	0x3dd96668	0.106152356
216	0x3d675084	0.05647327
217	0xbd1cd4d8	-0.03828892
218	0xbcdfc3c0	-0.02731502
219	0x3d8e2bf4	0.06941977
220	0xbd506adc	-0.05088316
221	0xbe26b014	-0.16278106
222	0xbda9a6bf	-0.082837574
223	0xbd2eb4d0	-0.042652905
224	0x3de4c790	0.11170876
225	0xbb2ddb40	-0.0026528388
226	0x3dfd0130	0.12353742
227	0x3e05d70e	0.13070318
228	0x3e0c02e2	0.13672975
229	0x3e2c1032	0.16803053
230	0x3d6cdf70	0.057830274
231	0x3e1c28a4	0.15249878
232	0xbdbdc804	-0.092666656
233	0x3cd29a08	0.025708213
234	0x3c89c660	0.016818225
235	0x3dd686b8	0.10474914
236	0x3cbc49a0	0.022984326
237	0xbc186f40	-0.009303868
238	0x3e31879a	0.17336884
239	0x3dd7c8d4	0.10536352

out_var1.bias f4 [8]
0	0xbe1067f1	-0.1410215
1	0xbd6527e0	-0.05594623
2	0xbd8c0ca7	-0.06838351
3	0xbd94b54f	-0.07261144
4	0x3e093fc6	0.13403234
5	0xbd06d01c	-0.032913312
6	0xbdbd45e6	-0.09241848
7	0x3e1b1a72	0.15146807
