DR_Info_CFR/Jobs/Models/netQ0.pth (torch, 8895 bytes, 8 tensors)

hidden1.weight f4 [30, 2]
0	0x833e981c	-5.6010595e-37
1	0x8340a572	-5.661365e-37
2	0x3e6845fc	0.22682947
3	0x3ec0c857	0.37652847
4	0xbd37f17d	-0.044908036
5	0x3ee82a4b	0.45344767
6	0xbe162d34	-0.14665681
7	0x3e3e3800	0.1857605
8	0xbe8187b7	-0.25298855
9	0x3d17d1b8	0.037065238
10	0x3f3f2eb7	0.74680656
11	0xbf0fe8cb	-0.5621459
12	0x3f5dfdba	0.8671528
13	0x3f16abc9	0.58855873
14	0x3ea0e9c2	0.31428343
15	0x3f10fef6	0.5663904
16	0xbe5a5109	-0.21319975
17	0x3e281184	0.16412932
18	0x83251d9e	-4.852314e-37
19	0x8336c9d0	-5.3716662e-37
20	0xbeb43c4f	-0.35202262
21	0xbf0b690e	-0.54457176
22	0x833990f6	-5.453302e-37
23	0x8338bc3a	-5.4288814e-37
24	0xbd88eb7e	-0.066855416
25	0x3f351976	0.70741975
26	0xbecf0f62	-0.40441424
27	0x3e627452	0.22114685
28	0xbeb269c9	-0.34846333
29	0x3f4aa652	0.79160035
30	0xbdaac3c5	-0.08338121
31	0x3ecbeb24	0.39827836
32	0xbf21e3ad	-0.6323803
33	0xbd62b2bb	-0.055346232
34	0x3f14edc1	0.58175284
35	0x3bd16711	0.0063904603
36	0xbe3ac3a8	-0.182387
37	0x3f565ee3	0.83738536
38	0xbedd8885	-0.4326822
39	0x3f0ee2b1	0.55814654
40	0xbefe4377	-0.49660847
41	0x3f2b2030	0.6684599
42	0xbe9df64e	-0.30851978
43	0xbef22834	-0.47296298
44	0x3e68d3cd	0.22737046
45	0xbe0f7c4d	-0.1401226
46	0x3ea4ff9b	0.32226261
47	0x3ece9cad	0.4035391
48	0x3eb8ccba	0.36093694
49	0xbd57df9b	-0.05270348
50	0xbe6125e1	-0.21987106
51	0x3daddeb5	0.084897436
52	0x3f291097	0.6604094
53	0x3f1f8a5e	0.62320507
54	0xbca30dbe	-0.019904014
55	0xbcbc230e	-0.022965934
56	0xbd4fd7b9	-0.05074284
57	0x3f48237f	0.7817916
58	0x3e86420c	0.26222265
59	0x3ef6b09d	0.4818162

hidden1.bias f4 [30]
0	0x834c9e32	-6.013181e-37
1	0xbe3990ac	-0.18121594
2	0x3ed5e962	0.4177962
3	0x3f6d00a4	0.925791
4	0x3d96f0d2	0.073701516
5	0x3f5726e9	0.8404375
6	0xbe7ccd9d	-0.2468781
7	0x3f6c9e9e	0.9242953
8	0x3e978586	0.29594058
9	0x835489d8	-6.2459437e-37
10	0x3efec849	0.4976218
11	0x835c438a	-6.472972e-37
12	0x3cae9f07	0.021316065
13	0x3f1bcf2f	0.6086301
14	0x3e60d5b0	0.21956515
15	0x3f4025be	0.7505759
16	0x3e713cc8	0.23558342
17	0xbcae5673	-0.021281457
18	0x3deafa82	0.11473562
19	0xbeb1feb6	-0.34764642
20	0xbe8da011	-0.27661183
21	0x3eb5fc41	0.35544017
22	0x3f435eec	0.76316714
23	0x3ec31b07	0.38106558
24	0x3f21153a	0.62923014
25	0x3d84d27e	0.06485461
26	0xbda519e4	-0.08061579
27	0x3d948c20	0.07253289
28	0xbda829ab	-0.082110725
29	0xbe92a1fa	-0.28639203

hidden2.weight f4 [30, 30]
0	0x832c4890	-5.0629555e-37
1	0x3d8c7286	0.06857781
2	0x3d4f0e46	0.05055072
3	0x3e1520af	0.14563249
4	0xbe689399	-0.22712554
5	0x3e9f1d57	0.31077072
6	0x3e1d4bb5	0.15360911
7	0x3dfaf4cd	0.12253723
8	0xbe459fa5	-0.19299181
9	0x832939a1	-4.973079e-37
10	0xbe016672	-0.12636736
11	0x0320ca75	4.7252183e-37
12	0xbd4e4b9c	-0.050365075
13	0xbdb7802e	-0.08959995
14	0xbbd661a8	-0.0065424033
15	0x3df30166	0.11865501
16	0xbeae5f11	-0.34056905
17	0x3eca60d4	0.39527
18	0x3c2b8aa5	0.010470067
19	0xbe068acc	-0.13138884
20	0xbd3b955a	-0.04579673
21	0xbe63fcd6	-0.22264418
22	0x3e9efef3	0.31053886
23	0x3e10998c	0.14121073
24	0x3e20ca00	0.15702057
25	0xbe18f983	-0.14938931
26	0x3df465ed	0.11933503
27	0x3c97faed	0.018552268
28	0x3c4da06c	0.012550455
29	0x3d725e74	0.05917211
30	0x8353cc65	-6.224196e-37
31	0x035d0238	6.494861e-37
32	0x835941b1	-6.384598e-37
33	0x834f3073	-6.088745e-37
34	0x83586a7a	-6.3598924e-37
35	0x835767e1	-6.330207e-37
36	0x83576834	-6.330244e-37
37	0x834eaa70	-6.073361e-37
38	0x035e8448	6.539179e-37
39	0x8350f264	-6.1403957e-37
40	0x8356776d	-6.302604e-37
41	0x034ee4cc	6.0800605e-37
42	0x03597683	6.3906613e-37
43	0x8352954e	-6.1884847e-37
44	0x0353c305	6.22312e-37
45	0x8352869d	-6.186798e-37
46	0x03513b62	6.148775e-37
47	0x03407675	5.655971e-37
48	0x8353925b	-6.2175335e-37
49	0x033202a3	5.2312525e-37
50	0x03504319	6.120273e-37
51	0x833bed26	-5.5226594e-37
52	0x8352c72c	-6.194209e-37
53	0x8359ffa4	-6.406403e-37
54	0x8352388e	-6.1778375e-37
55	0x835bc22c	-6.4581214e-37
56	0x035d8c9e	6.5107483e-37
57	0x0347b79e	5.8691626e-37
58	0x0355f1b4	6.2872536e-37
59	0x034edc2f	6.0790717e-37
60	0x03194ccb	4.5050813e-37
61	0xbdbef289	-0.09323604
62	0x3cfa9848	0.030590191
63	0x3e3b5032	0.18292311
64	0x3d4cebbf	0.050029512
65	0x3e45d586	0.19319734
66	0xbc19c611	-0.009385602
67	0xbe0e3093	-0.13885717
68	0x3e09bb9a	0.1345047
69	0x03368a52	5.3643777e-37
70	0x3eacd77a	0.33758146
71	0x0317f3d4	4.4654813e-37
72	0xbd9066d1	-0.07050861
73	0x3c727001	0.014797212
74	0x3d8c42f5	0.068487085
75	0x3ba5db4f	0.005061544
76	0x3dff45e6	0.12464504
77	0x3de065df	0.1095693
78	0x3cd7ca1c	0.02634149
79	0x3dae22a3	0.085027
80	0x3d184aac	0.037180588
81	0x3f8193bb	1.0123209
82	0x3e8c9029	0.27453735
83	0x3b97d51b	0.0046335584
84	0x3cbc2b26	0.022969794
85	0x3e13dfae	0.14440796
86	0xbddff78d	-0.109358884
87	0x3e03703b	0.12835781
88	0xbd97786c	-0.073960155
89	0xbc8f71b2	-0.017510269
90	0x0354cb6a	6.253471e-37
91	0x0359c81d	6.4000287e-37
92	0x83526c6e	-6.1837925e-37
93	0x033270c1	5.2438934e-37
94	0x0356b0e0	6.309199e-37
95	0x83554b12	-6.268125e-37
96	0x8354a66f	-6.2492257e-37
97	0x83576343	-6.329677e-37
98	0x8355d58b	-6.284021e-37
99	0x83538892	-6.21641e-37
100	0x034e5ac5	6.0642157e-37
101	0x834f275c	-6.0877015e-37
102	0x8351f998	-6.17061e-37
103	0x834a0922	-5.937295e-37
104	0x83510517	-6.1425423e-37
105	0x03597cb2	6.391371e-37
106	0x8357ed6d	-6.3455373e-37
107	0x834f17c3	-6.085911e-37
108	0x0349ccae	5.930355e-37
109	0x0357862c	6.3336843e-37
110	0x0355c479	6.2820614e-37
111	0x0357bec6	6.340182e-37
112	0x83532f12	-6.206136e-37
113	0x034ccb38	6.0183496e-37
114	0x835a11dd	-6.408495e-37
115	0x832f77d2	-5.1565425e-37
116	0x8358d152	-6.3716983e-37
117	0x03573ee3	6.325501e-37
118	0x835944b1	-6.3849422e-37
119	0x035245f4	6.1793756e-37
120	0x0311fe95	4.2903916e-37
121	0xbd69f381	-0.05711699
122	0x3dedf27b	0.11618515
123	0x3e91994b	0.28437266
124	0xbca7aaeb	-0.020467242
125	0x3e8a2f95	0.26989427
126	0xbe188b58	-0.14896905
127	0x3d4e087b	0.050301056
128	0x3d13581d	0.035972703
129	0x031a167a	4.5282334e-37
130	0x3e4b21a7	0.19837056
131	0x0322fbd7	4.789662e-37
132	0xbdaa1181	-0.0830412
133	0x3ec046bc	0.37553966
134	0xbde0e01a	-0.10980244
135	0x3e61bedf	0.22045468
136	0x3ca16a60	0.019704044
137	0xbdc95858	-0.09831303
138	0xbc75c82f	-0.015001341
139	0xbd5cebbe	-0.05393576
140	0x3d63d1a5	0.055619854
141	0x3f14c8ef	0.581191
142	0x3e9f2d15	0.31089082
143	0x3e71ceef	0.23614095
144	0x3d47d3cf	0.04878598
145	0x3df2bc03	0.11852267
146	0xbe215c46	-0.15757856
147	0x3e2b23fc	0.16712946
148	0xbe424b07	-0.18973933
149	0xbe0587ef	-0.13040136
150	0x0355d4b5	6.283925e-37
151	0x83397150	-5.449669e-37
152	0x8317e067	-4.4632513e-37
153	0x8312d26c	-4.3147096e-37
154	0x0318adbe	4.486823e-37
155	0x83116520	-4.2727756e-37
156	0x83140bae	-4.35067e-37
157	0x833197f6	-5.2190068e-37
158	0x833c428a	-5.5324618e-37
159	0x8357ffc0	-6.347641e-37
160	0x83131fbe	-4.3235856e-37
161	0x035cf04e	6.4928046e-37
162	0x833d36ad	-5.5604873e-37
163	0x8319f7ea	-4.524725e-37
164	0x832e4c04	-5.1221266e-37
165	0x832d5ee4	-5.094906e-37
166	0x83146b1b	-4.361624e-37
167	0x832aefce	-5.023379e-37
168	0x8331bc57	-5.223183e-37
169	0x831385d0	-4.3353027e-37
170	0x831dc105	-4.635973e-37
171	0x833152d0	-5.211069e-37
172	0x8317a609	-4.456551e-37
173	0x8318f1e7	-4.4946476e-37
174	0x83274070	-4.915086e-37
175	0x032f0f10	5.144517e-37
176	0x8317c59e	-4.4601765e-37
177	0x0337d9be	5.4028822e-37
178	0x8331d6bd	-5.2262132e-37
179	0x8338bfa2	-5.4292724e-37
180	0x8357ea11	-6.3451516e-37
181	0x035a15af	6.4089334e-37
182	0x83569802	-6.3063444e-37
183	0x8352d5b8	-6.195879e-37
184	0x034e0b7c	6.0551142e-37
185	0x835d26f6	-6.499079e-37
186	0x034c1d59	5.99839e-37
187	0x835c9d30	-6.483263e-37
188	0x03576a62	6.3304943e-37
189	0x035c6516	6.476823e-37
190	0x834eace8	-6.0736446e-37
191	0x0352dbf0	6.196593e-37
192	0x83556ec1	-6.2722213e-37
193	0x835661b8	-6.3001123e-37
194	0x83526b13	-6.183637e-37
195	0x03549344	6.2470253e-37
196	0x8359e11f	-6.4028995e-37
197	0x03553c63	6.2664395e-37
198	0x0352fefb	6.2006157e-37
199	0x0350f7f9	6.1410365e-37
200	0x835a3c67	-6.413378e-37
201	0x035c3b8a	6.4720537e-37
202	0x83530195	-6.2009143e-37
203	0x03547d56	6.244508e-37
204	0x835aee6d	-6.433814e-37
205	0x834dcace	-6.0476894e-37
206	0x835d39e3	-6.5012514e-37
207	0x034f3574	6.0893194e-37
208	0x8359490c	-6.385442e-37
209	0x835a8941	-6.4222e-37
210	0x835b450a	-6.443757e-37
211	0xbb86d7dd	-0.0041150884
212	0x3c70e569	0.014703133
213	0x3c1bc897	0.009508274
214	0x3480ca06	2.398885e-07
215	0xbbd4b6c4	-0.006491514
216	0xbd1d6d1b	-0.03843413
217	0x3c70fbc3	0.014708462
218	0xba95ab20	-0.0011418797
219	0x035d6f1f	6.5073624e-37
220	0x8da33483	-1.0058292e-30
221	0x8353fe86	-6.2299506e-37
222	0xbce1f3cd	-0.027582074
223	0xbaa895d5	-0.0012862036
224	0xbc9c648e	-0.019090917
225	0xbc2e19ff	-0.010626315
226	0x834b1fb1	-5.969272e-37
227	0xbcc945ba	-0.024569381
228	0xbcc0a20f	-0.023514776
229	0xba41a00c	-0.00073862146
230	0xbac4addf	-0.0015005431
231	0x8350422e	-6.1201677e-37
232	0xbcb707ba	-0.022342551
233	0x3d5831ef	0.052781995
234	0xbc0f949f	-0.008763461
235	0x835b408e	-6.443242e-37
236	0x3d78fb07	0.060786273
237	0x8359580d	-6.3871646e-37
238	0xbc61b261	-0.013775439
239	0xbbc2dd47	-0.0059467885
240	0x831c0d11	-4.585928e-37
241	0xbdc06600	-0.09394455
242	0x3db13e9f	0.08654522
243	0x3e8698f7	0.26288578
244	0xbe316979	-0.17325391
245	0x3e66a07c	0.22522157
246	0xbd0ae5e9	-0.033910666
247	0x3e82a7fe	0.25518793
248	0xbe0f9901	-0.1402321
249	0x032e922a	5.1301792e-37
250	0x3e68aa9e	0.22721335
251	0x03269622	4.895536e-37
252	0xbb8eccbb	-0.004357902
253	0x3e48cf9b	0.19610445
254	0xbe5a5ece	-0.21325228
255	0x3e0ca4c2	0.13734725

hidden2.bias f4 [30]
0	0x3e3787c0	0.17922878
1	0x03525e61	6.1821795e-37
2	0x3e44ba49	0.19211687
3	0x834e9377	-6.070724e-37
4	0x3e9cec98	0.30649257
5	0x832e8c44	-5.129502e-37
6	0x03520d7b	6.172893e-37
7	0xbd32f376	-0.043689214
8	0x3e4d7a40	0.20066166
9	0x3ce6d2c4	0.028176673
10	0x3e934d53	0.2876993
11	0x3dfa41d8	0.1221959
12	0x3deda66e	0.116040096
13	0xbcfc258e	-0.030779626
14	0x3beeee57	0.007291596
15	0x3e249e63	0.16076045
16	0x3d735cff	0.05941486
17	0x83540f7c	-6.2318976e-37
18	0xbe10c74d	-0.14138527
19	0x3e6e74fd	0.23286815
20	0x3e01a1c3	0.12659363
21	0x3d744b8e	0.059642367
22	0x3e7f27fd	0.24917598
23	0x3e1cf837	0.15329061
24	0x3dd8f331	0.1059326
25	0x835a8f2e	-6.4228804e-37
26	0xbe34eb58	-0.17667902
27	0x3e3b4b2e	0.18290398
28	0xbc221d8d	-0.009894741
29	0x3dbd425a	0.09241171

out_mu0.weight f4 [8, 30]
0	0xbbe824b9	-0.007084456
1	0x0353c81b	6.2237037e-37
2	0x3c7e6fe2	0.015529605
3	0x834e50bc	-6.0630638e-37
4	0x3d02d825	0.031944413
5	0x03145344	4.3588875e-37
6	0x035670ce	6.301844e-37
7	0x379453b8	1.768196e-05
8	0xbd9dfcd0	-0.07714236
9	0xbc28af21	-0.01029566
10	0x3cd8d713	0.026469743
11	0x3b8d1e3d	0.004306583
12	0xbce34bc9	-0.027746098
13	0x3b73606e	0.0037136334
14	0x3ce23f88	0.027618185
15	0x3d9528ba	0.072831586
16	0xbc4ed04c	-0.012622904
17	0x035b41f3	6.443402e-37
18	0x3c5ee6d7	0.013604841
19	0x3d36f63a	0.044668414
20	0x3e1a5363	0.15070872
21	0xbd8ab3b9	-0.067725606
22	0xbd92c9d4	-0.07167402
23	0xbd53c444	-0.051700845
24	0xbd3a941f	-0.045551416
25	0x03565d73	6.299622e-37
26	0x3d7b4817	0.061348047
27	0x3d297a32	0.0413763
28	0xbdeb9e2a	-0.11504777
29	0x3e227060	0.1586318
30	0xbb91f75c	-0.0044545364
31	0x835613a5	-6.29115e-37
32	0xbd81c746	-0.063368365
33	0x03525a73	6.1817284e-37
34	0xbd5b6d7e	-0.053571217
35	0x031d9435	4.6308287e-37
36	0x83536816	-6.212681e-37
37	0xaa588585	-1.9230978e-13
38	0x3cdf5a31	0.027264686
39	0xbc1709a3	-0.009218606
40	0xbc9bbd0d	-0.019011045
41	0x3ceec7cd	0.029148007
42	0xbc45d84b	-0.012075494
43	0xbb7a2a3e	-0.003817215
44	0x3d48f6d8	0.049063534
45	0xbe330947	-0.17484008
46	0x3cedf3f5	0.029046992
47	0x035a8f92	6.4229253e-37
48	0xbd23976d	-0.039939333
49	0x3d86db46	0.06584792
50	0xbd9e2087	-0.07721048
51	0xbc73c9a0	-0.014879614
52	0xbe103b58	-0.14085138
53	0xbd8c0719	-0.06837291
54	0xbd83b6aa	-0.06431325
55	0x0350f844	6.14107e-37
56	0x3e0beec7	0.13665305
57	0x3d816550	0.06318152
58	0x3d559373	0.05214257
59	0x3e26d9ce	0.16294023
60	0x3c2067e0	0.009790391
61	0x0347842d	5.8632574e-37
62	0xbe1eec80	-0.15519905
63	0x0353b5e3	6.2216123e-37
64	0x3de71b1c	0.112844676
65	0x03243662	4.8257697e-37
66	0x034ee762	6.0803574e-37
67	0xb90a705d	-0.00013202564
68	0xbcce3c94	-0.02517537
69	0xbca4a07c	-0.020096056
70	0xbda703d4	-0.08155027
71	0xbdc25db9	-0.094905324
72	0x3da658d5	0.08122412
73	0x3b044aa6	0.0020186095
74	0xbdcd43d7	-0.10022705
75	0x3dadd9d7	0.08488815
76	0x3d1c7fee	0.03820794
77	0x035cc248	6.4875213e-37
78	0xbd839ee1	-0.06426788
79	0xbd95f8a0	-0.07322812
80	0x3e4b7985	0.19870575
81	0xbdd90297	-0.10596197
82	0x3e12ea0e	0.14347097
83	0xbe01e808	-0.12686169
84	0x3d0a0119	0.033692453
85	0x83540659	-6.2308487e-37
86	0x3e367523	0.17818122
87	0x3d1c1b96	0.038112246
88	0xbdc11d60	-0.09429431
89	0x3d8ba369	0.068182774
90	0xbd8bdddb	-0.06829425
91	0x034f98c3	6.1007195e-37
92	0x3d45004f	0.048095997
93	0x8356d017	-6.3127823e-37
94	0x3d6aada9	0.05729452
95	0x83189368	-4.4838e-37
96	0x835a68b0	-6.4184617e-37
97	0x3841ab03	4.6174053e-05
98	0x3e1e3dcf	0.15453266
99	0x3cc52662	0.024066154
100	0xbe1aaf4d	-0.15105934
101	0xbdcc9c2c	-0.09990725
102	0x3db740a0	0.08947873
103	0x3b15be5c	0.0022849059
104	0x3bb6e208	0.0055811442
105	0x3e0b5509	0.13606657
106	0x3dd9e96a	0.10640223
107	0x035bff53	6.4651414e-37
108	0xbd9ef743	-0.07762005
109	0xbe2a730d	-0.16645451
110	0x3c36e2aa	0.011162439
111	0x3cc77f77	0.024352772
112	0xbdc26d6e	-0.09493528
113	0xbccad378	-0.02475904
114	0x3ca864b8	0.020555839
115	0x83564b35	-6.297528e-37
116	0xbd03bd57	-0.03216299
117	0xbdf3e789	-0.11909396
118	0xbcb74309	-0.022370832
119	0x3dd76ca0	0.105187654
120	0x3c86e9e8	0.016468957
121	0x035c932c	6.4821134e-37
122	0xbdfcff1a	-0.12353344
123	0x83541d0f	-6.233456e-37
124	0x3da47429	0.08029968
125	0x032d0809	5.0849355e-37
126	0x834e2e4b	-6.05911e-37
127	0x2890181f	1.5997672e-14
128	0x3c5fb71c	0.0136544965
129	0x3c35ffc9	0.011108347
130	0xbd447a31	-0.047968093
131	0xbdc3934b	-0.09549578
132	0x3ddd402a	0.10803254
133	0xbb8b64a7	-0.004253942
134	0x3d09e128	0.03366199
135	0x3e016fbb	0.12640278
136	0xbc2ba331	-0.01047592
137	0x0353c772	6.223628e-37
138	0xbcbb3f5b	-0.022857359
139	0x3db8d6b3	0.090253256
140	0x3e1e4fcf	0.15460132
141	0xbd0eafe2	-0.034835704
142	0xbe2d3f99	-0.16918792
143	0xbded42ab	-0.115849815
144	0x3c94a7a5	0.018146345
145	0x835939b3	-6.3836804e-37
146	0xbdc908bf	-0.09816121
147	0x3e09305f	0.13397358
148	0x3de2cee1	0.11074615
149	0xbe1c85c1	-0.15285398
150	0x3e42207c	0.18957704
151	0x83569f9f	-6.3072184e-37
152	0x3e1a709e	0.15082023
153	0x034f82fa	6.0982186e-37
154	0x3ce38073	0.02777121
155	0x032d6b9f	5.0963674e-37
156	0x0359b317	6.3976154e-37
157	0x3a8b2501	0.0010615886
158	0x3e5ba770	0.21450591
159	0xbb2191e6	-0.0024653613
160	0x3d737658	0.059439033
161	0xbe9fff39	-0.31249407
162	0xbeefc218	-0.4682777
163	0xbace4f75	-0.0015740233
164	0xbeaba8dd	-0.3352727
165	0xbdf48180	-0.11938763
166	0xbe04ccf2	-0.12968805
167	0x835494a0	-6.2471814e-37
168	0xbde25b8f	-0.1105262
169	0xbe787a95	-0.24265511
170	0x3e4980be	0.19678017
171	0xbdb6c7c0	-0.08924818
172	0xbe668d69	-0.22514881
173	0x3eb2cbca	0.34921104
174	0x3ec748ca	0.3892272
175	0x83356009	-5.3301362e-37
176	0xbe3416a8	-0.17586768
177	0x3ec14418	0.37747264
178	0x3d394333	0.0452301
179	0x3e3820ff	0.17981337
180	0x3d9c55d8	0.07633561
181	0x035e1728	6.526652e-37
182	0xbe279ec4	-0.16369158
183	0x0343db44	5.7557054e-37
184	0xbc22d50f	-0.009938492
185	0x033d7602	5.5677574e-37
186	0x83508909	-6.1283015e-37
187	0x399644e5	0.0002866156
188	0xbd566e73	-0.052351426
189	0xbae02e30	-0.0017103609
190	0x3d230f55	0.039809544
191	0xbdafcea8	-0.085843384
192	0xbc19cf68	-0.009387828
193	0xbad21996	-0.0016029354
194	0x3db1e54e	0.086863145
195	0x3db8aae7	0.09016972
196	0xbe3548b1	-0.17703511
197	0x835c2a3f	-6.4700685e-37
198	0x3e3d9268	0.18512881
199	0xbd95f1c2	-0.07321502
200	0x3d9f1e9a	0.07769509
201	0x3ad315c7	0.0016104513
202	0x3e1f915c	0.15582794
203	0xbd0b33fd	-0.033985127
204	0xbc591f9d	-0.013252166
205	0x034e3c4c	6.0607176e-37
206	0xbc02d0a3	-0.007984313
207	0xbda7245f	-0.08161234
208	0xbdd82007	-0.10552984
209	0x3e0fc7cd	0.14041062
210	0x3daa15a8	0.08304912
211	0x83565d57	-6.2996097e-37
212	0x3efc321b	0.49256977
213	0x835a1526	-6.408872e-37
214	0x3ecb0179	0.3964956
215	0x0331ea95	5.228491e-37
216	0x035a0cd7	6.407918e-37
217	0x3919e175	0.00014675206
218	0x3e7c5226	0.24640712
219	0x3d853824	0.065048486
220	0x3e85d481	0.2613869
221	0xbe13c73e	-0.14431474
222	0x3ecb9251	0.39760068
223	0xba0de57a	-0.0005412918
224	0x3d40c7b2	0.047065444
225	0xbe58c49a	-0.21168748
226	0xbe549b7d	-0.20762439
227	0x83582c0a	-6.352725e-37
228	0xbe349cce	-0.17637941
229	0x3deda769	0.116041966
230	0xbe203a4b	-0.15647237
231	0xbe827002	-0.2547608
232	0x3e5b44bb	0.21412937
233	0xbd2f44e7	-0.04279032
234	0xbe9b8713	-0.3037649
235	0x03488e8f	5.8938367e-37
236	0xbe81e2bc	-0.25368297
237	0x3e304b72	0.1721628
238	0xbe0ac318	-0.13550985
239	0x3c4c3445	0.012463634

out_mu0.bias f4 [8]
0	0xbd89e6b0	-0.06733453
1	0x3d8fe3bc	0.07025859
2	0x3d9ad866	0.07560806
3	0x3d2ba130	0.041901767
4	0xbd204f8b	-0.039138358
5	0xbc88dd1e	-0.016707
6	0x3d5dad64	0.054120436
7	0x3e569540	0.20955372

out_var0.weight f4 [8, 30]
0	0xbe0f1a6a	-0.1397492
1	0x035be0c4	6.4616334e-37
2	0xbd6f9a97	-0.058497038
3	0x834f895b	-6.098951e-37
4	0x3d80af4a	0.06283434
5	0x83352b3f	-5.3240763e-37
6	0x035aec76	6.4335886e-37
7	0xb840378e	-4.5828107e-05
8	0xbd95866c	-0.073010296
9	0xbc46ef40	-0.012142003
10	0x3db61796	0.088912174
11	0x3dfa7ce8	0.12230855
12	0x3d060bda	0.032726146
13	0x3a613e15	0.000859232
14	0x3c681a02	0.014166357
15	0xbd17844b	-0.0369914
16	0xbd6e4d54	-0.058179215
17	0x8351da24	-6.1669993e-37
18	0x3dd2da26	0.10295515
19	0xbdd67482	-0.10471441
20	0xbe4d91f1	-0.20075203
21	0xbcb72cdd	-0.02236026
22	0xbc52fdba	-0.012877876
23	0x3ca31fd4	0.019912638
24	0x3e009102	0.12555316
25	0x03580dce	6.349254e-37
26	0x3c5658d4	0.013082702
27	0x3dc02e8b	0.09383877
28	0xbd2c5e5a	-0.04208217
29	0x3e00c3aa	0.1257464
30	0x3c1af240	0.009457171
31	0x8353835e	-6.215813e-37
32	0x3df63d5a	0.12023421
33	0x8352da5c	-6.1964118e-37
34	0x3de9a061	0.11407543
35	0x833505a3	-5.319759e-37
36	0x035beac3	6.462781e-37
37	0xb98c02a0	-0.00026704837
38	0x3d92a357	0.07160061
39	0xbc4297e8	-0.011877038
40	0xbe15c540	-0.14626026
41	0x3d96914d	0.07351933
42	0xbdf98292	-0.121831074
43	0xbaa94c07	-0.0012916335
44	0xbdd64ba7	-0.10463648
45	0x3da03b64	0.07823828
46	0x3d289ba3	0.04116405
47	0x835285b7	-6.186695e-37
48	0x3d81e775	0.06342975
49	0x3cbad9dd	0.022808963
50	0xbd273df8	-0.040830582
51	0xbe03911a	-0.1284832
52	0x3cf879fd	0.030331606
53	0x3d2c0f69	0.042006884
54	0xbdce5d42	-0.10076381
55	0x83549fb8	-6.248455e-37
56	0x3d643f18	0.055724233
57	0xbd99c95b	-0.07509109
58	0x3db794c2	0.0896392
59	0x3d92448b	0.0714198
60	0x3bf0e7c6	0.0073518483
61	0x8352f50d	-6.199476e-37
62	0x3d8dd469	0.0692528
63	0x034b5055	5.9748555e-37
64	0xbdd4b89c	-0.10386774
65	0x03298f3f	4.9829075e-37
66	0x835e904b	-6.5405577e-37
67	0xb083b6a0	-9.58341e-10
68	0x3a460ff3	0.0007555477
69	0xbc1ac63e	-0.009446679
70	0x3cb32db4	0.021872379
71	0xbcb88907	-0.022526277
72	0xbd42cf95	-0.047561247
73	0x3ac24857	0.0014822584
74	0x3df8e2e7	0.12152653
75	0xbd90aa9a	-0.0706379
76	0x3defba7f	0.11705493
77	0x8358a1b4	-6.366232e-37
78	0xbce6b696	-0.028163236
79	0x3dba2372	0.09088792
80	0xbdf8ca7c	-0.12147996
81	0xbd16ff66	-0.03686466
82	0x3c5e2857	0.013559422
83	0x3de54986	0.11195664
84	0x3d390842	0.04517389
85	0x834fcbc4	-6.1065744e-37
86	0xbdf4c67b	-0.1195192
87	0x3d4c29b9	0.049844477
88	0x3d39a19e	0.045320146
89	0xbe3a2b99	-0.18180694
90	0xbd9a6852	-0.07539429
91	0x83571999	-6.3212206e-37
92	0x3d655938	0.05599329
93	0x035d4f6e	6.5037244e-37
94	0x3e02b373	0.12763767
95	0x83153edc	-4.3859324e-37
96	0x0351c898	6.164985e-37
97	0x1da6f3da	4.419197e-21
98	0xbdf1c67d	-0.11805437
99	0xbac16420	-0.0014754571
100	0x3dde5c6d	0.108574726
101	0x3c20782c	0.009794276
102	0x3d308b76	0.04310175
103	0x38a471be	7.8413155e-05
104	0xbda71c09	-0.08159644
105	0xbe38543f	-0.18000887
106	0x3de2fc66	0.110832974
107	0x83576bc0	-6.3306512e-37
108	0x3c32362e	0.010877175
109	0xbe221d5a	-0.15831509
110	0x3d0362fb	0.032076817
111	0xbcc5405d	-0.024078542
112	0x3cf92cfd	0.03041696
113	0x3dd764e1	0.10517288
114	0x3d576306	0.05258467
115	0x0353d983	6.225702e-37
116	0x3dc6ff7e	0.097167
117	0xbddc9081	-0.107697494
118	0x3d07d99a	0.033166505
119	0xbe169713	-0.14706068
120	0x3c1ea4fa	0.009682888
121	0x83583dde	-6.3547715e-37
122	0xbd5f1a06	-0.054468177
123	0x835d3efa	-6.5018356e-37
124	0xbc715d8f	-0.014731779
125	0x03191040	4.4981313e-37
126	0x034f3db8	6.0902682e-37
127	0xb3238e03	-3.8080554e-08
128	0x3d370765	0.044684786
129	0xbd3314fa	-0.043721177
130	0x3b409826	0.0029387563
131	0x3d55c8da	0.0521935
132	0xbba9df69	-0.0051841033
133	0x3b5266fe	0.0032104845
134	0x3d28f2fc	0.041247353
135	0xbd8def89	-0.06930453
136	0xbdd8f001	-0.10592652
137	0x035ddc4f	6.5198965e-37
138	0xbce9c4ea	-0.028536279
139	0x3da1b4fd	0.07895849
140	0x3daaf944	0.08348325
141	0x3cdc9b8a	0.026929636
142	0x3e0612fb	0.13093178
143	0x3df92d07	0.121667914
144	0xbb0f3678	-0.0021852534
145	0x0354f8fb	6.2587016e-37
146	0x3daf3a0a	0.08555992
147	0xbb3796ca	-0.0028013461
148	0xbd81012a	-0.0629905
149	0xbd2995e2	-0.041402705
150	0xbe96443b	-0.2934893
151	0x034f7731	6.0968658e-37
152	0xbf3b9073	-0.73267287
153	0x034eb699	6.074757e-37
154	0xbf6b681b	-0.9195573
155	0x83264548	-4.8862547e-37
156	0x03544b96	6.238797e-37
157	0xbacb62f6	-0.0015517164
158	0xbef71009	-0.4825442
159	0xbd91241d	-0.07086966
160	0xbf2dd987	-0.67910045
161	0xbe0c820c	-0.13721484
162	0xbf02b98d	-0.5106438
163	0x3b9ac5b8	0.004723277
164	0xbe6bc410	-0.2302401
165	0xbe8f1c04	-0.27951062
166	0xbea068b0	-0.3132987
167	0x035ac969	6.429565e-37
168	0xbbf894e9	-0.007586111
169	0xbe9d8344	-0.3076421
170	0xbe44ed52	-0.19231156
171	0xbdf6773a	-0.120344594
172	0xbefb24f1	-0.49051622
173	0xbebea364	-0.37234032
174	0x3d09c88d	0.033638526
175	0x034e08f2	6.054823e-37
176	0x3c20c3cb	0.009812306
177	0xbe463c6c	-0.19358987
178	0xbd4678dd	-0.048455108
179	0xbe9a10ff	-0.30091092
180	0xbd597e00	-0.05309868
181	0x035c959e	6.482394e-37
182	0xbdd23a61	-0.10265041
183	0x035408b2	6.2311182e-37
184	0xbb154428	-0.002277622
185	0x0314b9fc	4.370679e-37
186	0x035249a0	6.179797e-37
187	0xb344b38c	-4.5798103e-08
188	0x3df460a8	0.11932498
189	0x3bd1f69e	0.006407573
190	0x3c2a2b9d	0.010386375
191	0xbe31012b	-0.17285602
192	0x3d6b29f8	0.05741307
193	0xba190a51	-0.0005838024
194	0xbc800321	-0.015626492
195	0x3e24ca35	0.16092761
196	0x3dcce0cb	0.10003813
197	0x8352fc75	-6.200326e-37
198	0xbe01d5f7	-0.12679277
199	0x3e1b3edb	0.15160696
200	0xbe0eaed5	-0.1393388
201	0xbcabd936	-0.020977598
202	0xbe0c0fa0	-0.13677835
203	0xbdfc9e63	-0.12334897
204	0x3e21b552	0.15791824
205	0x8356aada	-6.3085076e-37
206	0x3c9799fa	0.018506039
207	0x3cfc0109	0.030762212
208	0xbd80e730	-0.062940955
209	0x3c34dce6	0.011038994
210	0xbeaf1f06	-0.34203357
211	0x03314b6a	5.2102196e-37
212	0xbee76f88	-0.4520228
213	0x03526526	6.1829566e-37
214	0xbee13fc2	-0.43993956
215	0x832cac9a	-5.0744394e-37
216	0x035373e6	6.214037e-37
217	0xbac7ae2e	-0.0015234405
218	0xbed460aa	-0.4148
219	0xbe13c7f2	-0.14431742
220	0xbedf468a	-0.43608505
221	0xbe132069	-0.14367832
222	0xbeba13ba	-0.36343175
223	0x3b999c41	0.0046878164
224	0xbe4941f7	-0.1965407
225	0xbe30bb1f	-0.17258881
226	0xbe9cb6f9	-0.30608347
227	0x035a0f9b	6.4082356e-37
228	0xbe6fd873	-0.23422413
229	0xbe6aaa40	-0.22916508
230	0xbd591455	-0.052997906
231	0xbea78c9b	-0.3272446
232	0xbeadeaad	-0.33968106
233	0xbe9ba0a7	-0.30396006
234	0xbe3e686b	-0.1859452
235	0x0357886b	6.333942e-37
236	0x3d03fc73	0.032223176
237	0xbec0f088	-0.3768351
238	0xbebad1df	-0.36488244
239	0xbe70f03a	-0.23529139

out_var0.bias f4 [8]
0	0xbde42722	-0.111402765
1	0xba03fc78	-0.0005034874
2	0xbcc672f5	-0.024224738
3	0xbd32fd51	-0.043698613
4	0xbe153a39	-0.14572991
5	0xbee59568	-0.4484055
6	0xbc798bf3	-0.01523112
7	0xbeb52911	-0.35382894
