DR_Info_CFR/Jobs/Models/pi_net.pth (torch, 53547 bytes, 5 tensors)

hidden1_pi.weight f4 [100, 25]
0	0x3e297a62	0.16550592
1	0xbd6742ab	-0.056460064
2	0x3e3eb128	0.18622267
3	0xbe228e28	-0.15874541
4	0xbd492e2e	-0.049116306
5	0xbe432db1	-0.19060399
6	0xbd28c1bf	-0.041200396
7	0xbe03ec73	-0.12883167
8	0x3e21ec9b	0.15812914
9	0xbdd6b385	-0.104834594
10	0x3e25b1c0	0.16181087
11	0xbdd07e5e	-0.10180353
12	0xbc56f231	-0.013119266
13	0x3c02786e	0.007963283
14	0x3e067510	0.13130593
15	0xbd6d14ff	-0.05788135
16	0xbca92a9e	-0.020650204
17	0x3d63e249	0.055635724
18	0x3ceed597	0.029154582
19	0xbd884de9	-0.06655485
20	0xbd6554b3	-0.05598898
21	0x3db042b1	0.086064704
22	0xbb1664c2	-0.002294824
23	0x3e38ef0a	0.18059936
24	0x3d86f3b1	0.06589449
25	0x3e092130	0.13391566
26	0xbe4817e0	-0.19540358
27	0xbcb5fe21	-0.022215905
28	0x3d8033a6	0.06259851
29	0xbd48bd6b	-0.049008768
30	0x3dad8a6b	0.08473667
31	0x3c52dbe7	0.012869812
32	0x3debe681	0.115185745
33	0x3c629cdb	0.013831343
34	0x3d645024	0.05574049
35	0xbe12883d	-0.14309783
36	0x3e2f86e6	0.17141303
37	0xbddfa23e	-0.10919617
38	0x3dad5a8f	0.08464538
39	0xbdd514f7	-0.10404389
40	0x3e3d6c1f	0.18498276
41	0xbe28b88e	-0.16476652
42	0xbdc2c27e	-0.09509753
43	0xbe082137	-0.1329392
44	0x3c18d588	0.009328254
45	0xbd0efec0	-0.034910917
46	0x3e17b1bf	0.14813899
47	0xbde15a23	-0.1100352
48	0x3ce832f9	0.028344618
49	0x3e3b4184	0.18286711
50	0xbdd856ae	-0.10563408
51	0xbc980a0e	-0.018559482
52	0xbdaac408	-0.08338171
53	0x3cfd4eca	0.030921359
54	0x3e1494cc	0.14509887
55	0xbd5c6621	-0.053808335
56	0x3da8c2cd	0.0824028
57	0x3d929bab	0.071585976
58	0x3d8bd820	0.06828332
59	0x3db3e511	0.08783925
60	0x3d80537c	0.062659234
61	0xbda66767	-0.08125191
62	0xbdda7ed6	-0.10668723
63	0xbe0688fa	-0.1313819
64	0x3ccff46f	0.02538511
65	0x3e479d6b	0.19493644
66	0xbe029836	-0.12753376
67	0xbd8007ff	-0.06251525
68	0x3ca1067b	0.01965641
69	0xbd9f4e27	-0.07778578
70	0x3e26546d	0.16243143
71	0x3e58c0d8	0.21167314
72	0x3e6c0b2e	0.2305114
73	0x3e25d765	0.16195448
74	0xbe51d602	-0.20491794
75	0x3bfcba28	0.0077126212
76	0xbe0a8877	-0.1352862
77	0xbde9449e	-0.11390041
78	0xbd1ec92f	-0.038766082
79	0x3dba89ac	0.0910829
80	0x3dbe56aa	0.092938736
81	0x3e236ebe	0.15960214
82	0xbcece076	-0.028915625
83	0xbdd6cb87	-0.104880385
84	0xbd40281d	-0.046913255
85	0xbde8d9f5	-0.11369697
86	0xbd9c9b71	-0.076468356
87	0xbe3263ca	-0.17420879
88	0xbca00ac8	-0.01953639
89	0xbdd773fa	-0.10520168
90	0xbd14b033	-0.03630085
91	0x3d5fa021	0.05459607
92	0x3d3935c1	0.04521728
93	0xbe256cd6	-0.16154799
94	0x3e223de5	0.15843923
95	0x3d803839	0.062607236
96	0x373d33f0	1.12773705e-05
97	0x3dcfab5d	0.10140107
98	0xbdd8e37e	-0.10590266
99	0x3de5d8a6	0.11222963
100	0x3e232716	0.15932879
101	0xbe195502	-0.14973834
102	0x3e1a315d	0.15057893
103	0x3ccc178a	0.024913568
104	0xbd305288	-0.043047458
105	0xbe2de438	-0.1698159
106	0x3da8d4cc	0.08243713
107	0xbdd483d0	-0.10376704
108	0x3e4071df	0.18793438
109	0x3defb425	0.11704282
110	0xbdd6ebec	-0.10494217
111	0x3dcdf982	0.100573555
112	0xbd4b4c5d	-0.049633373
113	0x3e468387	0.19386111
114	0xbd2b6058	-0.041839927
115	0xbe45dc80	-0.19322395
116	0x3e2850d9	0.16437091
117	0x3dd67f9c	0.10473558
118	0x3ddc6c3d	0.10762832
119	0x3dd7ee6a	0.10543521
120	0xbd0b170b	-0.033957522
121	0x3e2c94a6	0.1685358
122	0x3e23e700	0.16006088
123	0x3c9870d6	0.018608492
124	0x3dc5c4f2	0.09656705
125	0xbe14b9a6	-0.14523944
126	0x3e2ec11c	0.17065853
127	0x3e0d1901	0.1377907
128	0xbccf527d	-0.025307888
129	0xbd54d795	-0.051963408
130	0x3d714e82	0.05891276
131	0xbdecf533	-0.115702055
132	0x3cbdc0f0	0.023163289
133	0x3e4ddf71	0.20104767
134	0xbdde5062	-0.108551756
135	0xbe0f6e40	-0.14006901
136	0xbe268bae	-0.16264221
137	0x3d8b2ca0	0.06795621
138	0xbe41dbbf	-0.18931483
139	0x3da57e63	0.08080747
140	0x3ba2ee8d	0.004972285
141	0xbcaae2f5	-0.020860175
142	0xbe23d784	-0.16000181
143	0xbdbca87b	-0.092118226
144	0x3e354642	0.17702582
145	0x3c00585c	0.0078335665
146	0xbd49bf0a	-0.049254455
147	0xbdb667e3	-0.089065336
148	0x3bb3a679	0.0054824916
149	0x3e0fc3f2	0.14039591
150	0xbdb2d0ec	-0.08731255
151	0x3daf014a	0.08545168
152	0x3d08e972	0.033425756
153	0xbdbcd71f	-0.092207186
154	0x3e239cdf	0.1597781
155	0x3d82b11d	0.06381438
156	0xbe03b7ea	-0.12863126
157	0xbdb1b473	-0.08676996
158	0xbb54fc4e	-0.0032499018
159	0x3d5ade16	0.053434454
160	0xbdca3e56	-0.09875171
161	0x3d8ae069	0.06781084
162	0xbc049ad9	-0.008093559
163	0x3d0da69b	0.034582715
164	0xbe5f1a4f	-0.2178738
165	0xbe75d7a9	-0.24008049
166	0xbe647a94	-0.22312385
167	0x3d905ef6	0.07049362
168	0x3c3105e6	0.010804629
169	0xbe442644	-0.19155222
170	0x3e0973c5	0.13423069
171	0x3da0c7bd	0.07850597
172	0xbe643d54	-0.2228902
173	0xbe0dc98e	-0.13846418
174	0xbe2be101	-0.16785051
175	0xbcce4911	-0.025181325
176	0x3ddd751e	0.10813354
177	0x3e11b5be	0.14229485
178	0xbd9f4ee2	-0.077787176
179	0xbc8b58cf	-0.01701012
180	0xbe2f73ea	-0.17134061
181	0x3e2ec62f	0.17067789
182	0x3e096ff2	0.1342161
183	0xbe38ff46	-0.18066129
184	0xbda7f1aa	-0.08200391
185	0x3d8e7683	0.06956198
186	0x3a184a1f	0.0005809385
187	0x3bcd8509	0.0062719625
188	0xbd8934da	-0.06699534
189	0x3caf595b	0.021404913
190	0xbdeb2b61	-0.11482883
191	0x3d92cb42	0.071676746
192	0x3e493d93	0.19652395
193	0xbd84df26	-0.06487875
194	0x3e065575	0.13118537
195	0x3e07b4bd	0.1325254
196	0xbd08910f	-0.033341464
197	0x3db1dbed	0.08684526
198	0x3e177762	0.14791635
199	0x3c00eb4e	0.007868601
200	0xbd3310f9	-0.04371736
201	0x3ca3c0c5	0.01998938
202	0xbe1c1a25	-0.15244348
203	0x3d13c78b	0.03607897
204	0x3daf041c	0.08545706
205	0x3dd07ca1	0.10180021
206	0xbdee7fa6	-0.11645441
207	0xbe12115f	-0.14264439
208	0x3d9dcde4	0.07705286
209	0xbd3987e8	-0.045295626
210	0xbdb8f20b	-0.09030541
211	0x3dceef1e	0.10104202
212	0x3db60af9	0.088888116
213	0xbd694671	-0.056951944
214	0x3d325446	0.0435374
215	0x3cd45f6e	0.02592441
216	0xbdb4846a	-0.088143185
217	0x3d155ec9	0.036467347
218	0xbe24dc44	-0.1609965
219	0xba24ecaa	-0.0006291369
220	0x3e250f04	0.1611901
221	0x3db6c578	0.08924383
222	0x3b5ddd2e	0.0033853757
223	0xbd3cb8ca	-0.046074666
224	0xbd88dbd1	-0.06682552
225	0x3bae58a3	0.005320625
226	0xbdb975c3	-0.090556644
227	0x3c98ac66	0.018636893
228	0x3caf8c4f	0.021429209
229	0x3dd290b1	0.10281504
230	0x3e156688	0.14589894
231	0xbe3a9e83	-0.1822453
232	0x3d3ad787	0.0456157
233	0x3d58f2c1	0.052965883
234	0xbe296c48	-0.16545212
235	0xbe0fe85e	-0.14053485
236	0xbd51a490	-0.05118233
237	0x3e26f4ba	0.16304293
238	0xbe26d8fc	-0.1629371
239	0x3d734a75	0.05939718
240	0x3e39c954	0.18143207
241	0xbe37d4e4	-0.17952305
242	0xbc9f8af8	-0.019475445
243	0x3e04b211	0.12958552
244	0xbd6d9780	-0.05800581
245	0xbdc14c06	-0.094383284
246	0xbe01d71f	-0.12679718
247	0x3d3aa7b6	0.045570098
248	0x3db8df88	0.0902701
249	0x3d526db6	0.05137416
250	0x3c6aeb29	0.014338293
251	0xbe425b1a	-0.18980065
252	0xbe185fc3	-0.1488028
253	0xbda9f0af	-0.0829786
254	0xbc87c018	-0.01657109
255	0xbe105e05	-0.14098366

hidden1_pi.bias f4 [100]
0	0x3e0da52c	0.1383254
1	0x3e17225b	0.147592
2	0x3e4636b1	0.193568
3	0x3d98d6b1	0.07462824
4	0xbd90dc50	-0.07073271
5	0x3e0e1345	0.13874538
6	0xbda6c356	-0.08142726
7	0x3ddd2f94	0.108000904
8	0x3e2adc7b	0.16685669
9	0xbd5d24bb	-0.053990107
10	0x3dceea06	0.1010323
11	0xbe0fb85b	-0.1403517
12	0xbcdd3389	-0.027002113
13	0xbd31f48f	-0.04344612
14	0x3d0275bb	0.031850558
15	0xbc7f7eb8	-0.015594177
16	0x3d0ce807	0.034400966
17	0x3de39e3d	0.11114166
18	0xbe2eeb3f	-0.17081927
19	0x3d9228d0	0.071366906
20	0xbda1579f	-0.078780405
21	0xbd149e5e	-0.036283843
22	0x3e5685f6	0.2094954
23	0x3e26c1c2	0.1628485
24	0x3cf6f74f	0.030147223
25	0x3e00b131	0.12567593
26	0xbe3dfb9f	-0.18553017
27	0xbc348037	-0.011016897
28	0x3d5a0501	0.05322743
29	0x3da8c765	0.082411565
30	0xbcc93516	-0.024561446
31	0x3e08e957	0.13370262
32	0xbda1c722	-0.0789931
33	0xbe3c9fa4	-0.18420273
34	0x3e3619c8	0.17783272
35	0x3dbbdbbb	0.0917277
36	0xbd9821a0	-0.074282885
37	0x3e2e7ff8	0.17041004
38	0x3dc5a80d	0.09651194
39	0x3e151f29	0.14562668
40	0xbe52e95d	-0.20596834
41	0xbd8a3541	-0.067484386
42	0x3dd5a187	0.104311995
43	0xbba3439a	-0.004982424
44	0x3da1f423	0.079078935
45	0xbbbbb6a5	-0.00572856
46	0xbd27ec22	-0.04099668
47	0xbda2bc53	-0.07946076
48	0x3d288871	0.041145746
49	0x3e177076	0.14788994
50	0xbd8b9f7f	-0.06817531
51	0xbe061207	-0.13092814
52	0x3d97650c	0.0739232
53	0xbddcedfb	-0.10787579
54	0x3d4a0581	0.049321655
55	0xbe084582	-0.13307765
56	0xbd4e7b03	-0.050410282
57	0x3dd4b8a7	0.10386782
58	0x3e3da89f	0.18521355
59	0xbd0dd1ba	-0.03462384
60	0xbe0c4af8	-0.13700473
61	0xbe36014b	-0.1777393
62	0x3e75023c	0.23926634
63	0xbdc9aef6	-0.09847824
64	0x3e2847a1	0.16433574
65	0xbe025991	-0.1272948
66	0xbe223959	-0.15842189
67	0x3d3d7c23	0.046260964
68	0xbc72cd90	-0.014819518
69	0xbe10b7b6	-0.1413258
70	0xbe12f42f	-0.14350961
71	0xbdf048fb	-0.1173267
72	0x3d9b4b94	0.07582775
73	0x3db746ae	0.08949028
74	0xbdb88276	-0.090092584
75	0x3e2f8253	0.17139558
76	0x3cddcd4c	0.027075432
77	0xbdeb86f8	-0.115003526
78	0x3bf5f438	0.00750592
79	0xbe16ebcc	-0.14738387
80	0xbda8194f	-0.08207952
81	0x3d16f946	0.03685882
82	0x3dfcfd77	0.12353032
83	0xbdab532f	-0.083654754
84	0x3e213bfb	0.15745537
85	0x3c563528	0.013074197
86	0x3d88ec5d	0.06685708
87	0xbc9daa27	-0.019246174
88	0x3e2262a7	0.15857945
89	0xbb7cd3ca	-0.0038578385
90	0x3d1a03e6	0.037601374
91	0x3d8ebb08	0.06969267
92	0x3cccfdaa	0.0250233
93	0xbd9de739	-0.07710118
94	0xbdafaa57	-0.085774116
95	0x3d1a0c33	0.03760929
96	0xbd326a5d	-0.043558467
97	0xbe0942ef	-0.1340444
98	0xbd0e88de	-0.034798495
99	0xbd63f40f	-0.055652674

hidden2_pi.weight f4 [100, 100]
0	0xbd8f5ceb	-0.070001446
1	0x3d2ec12d	0.042664696
2	0xbd8097f3	-0.06278982
3	0x3c806d08	0.01567699
4	0xbdbdb583	-0.09263136
5	0x3c192e51	0.009349422
6	0x3d847df3	0.064693354
7	0xbc734912	-0.014848964
8	0x3cd2743d	0.025690192
9	0xbd09384b	-0.03350095
10	0xbd84ff91	-0.06494058
11	0xbd0961b3	-0.03354044
12	0x3d479cb2	0.04873342
13	0xbb1a4e66	-0.0023545264
14	0x3c901b75	0.017591218
15	0x3cb0b928	0.021572664
16	0x3c2697af	0.010168
17	0x3cc65666	0.02421112
18	0x3d673d38	0.056454867
19	0xbb2c1f24	-0.0026263678
20	0x3d08eece	0.033430867
21	0xbd24b43b	-0.040210944
22	0xbc98250d	-0.018572355
23	0xbd684f1c	-0.05671607
24	0x3c81976f	0.01581928
25	0x3d450b38	0.048106402
26	0xbc2cb7c7	-0.010541863
27	0x3d5310e3	0.051529776
28	0x3bc8eab6	0.0061314953
29	0x3d117f58	0.035521835
30	0x3cfe7529	0.031061726
31	0x3c90ebff	0.017690657
32	0x3d941cff	0.07232093
33	0x3d9e3c1c	0.07726309
34	0x3d94109e	0.07229732
35	0xbd57b4cb	-0.052662652
36	0x3c11c5ca	0.008897254
37	0xbc82e36f	-0.01597759
38	0xbcc744a5	-0.024324724
39	0x3cf50a50	0.029912144
40	0x3d62a4b1	0.055332843
41	0x3cc6a39b	0.024247935
42	0xbcf1eaca	-0.029530901
43	0xbd25b7d1	-0.040458504
44	0x3d89c21d	0.06726477
45	0x3c1ecaf8	0.009691946
46	0xbd295ede	-0.041350238
47	0xbc5cd9a8	-0.013479628
48	0xbcec7f27	-0.028869225
49	0xbd81050c	-0.06299791
50	0xbd12918f	-0.035783347
51	0xbcb7af59	-0.02242248
52	0xbc176896	-0.009241244
53	0xbd4d676c	-0.05014746
54	0xbc993fb0	-0.018707126
55	0x3ced9680	0.029002428
56	0x3cd87986	0.026425134
57	0xbd7771f2	-0.0604114
58	0x3d526f52	0.051375695
59	0xbccbf18f	-0.024895458
60	0xbd80d91e	-0.06291412
61	0x3c8f1dce	0.017470267
62	0xbd0ab3c5	-0.033862848
63	0xbd5b431d	-0.0535308
64	0xbd9c096d	-0.07618985
65	0x3bd62440	0.006535083
66	0xbd04820e	-0.032350592
67	0xbd43857f	-0.047734734
68	0x3d0e9de2	0.034818538
69	0xbcc66505	-0.024218092
70	0xbd49a2b5	-0.049227435
71	0xbb508b8e	-0.0031821462
72	0x3c84af2e	0.016196813
73	0x3b37b1aa	0.002802948
74	0x3d0ca029	0.034332428
75	0x3d1c88ce	0.038216405
76	0x3b866e2e	0.00410249
77	0xbd99b22e	-0.07504688
78	0x3c7c2faa	0.015392223
79	0xbd5da4d1	-0.05411226
80	0xbd3f6f2a	-0.046736874
81	0x3d04c18b	0.03241114
82	0xbafa65b0	-0.0019103792
83	0x3da05ee9	0.07830603
84	0xbccc8e82	-0.024970297
85	0x3acb2f13	0.00155017
86	0xbc44dbc2	-0.012015285
87	0xbccb0655	-0.024783293
88	0xbceaa420	-0.028642714
89	0x3b469ac1	0.0030304643
90	0xbd5bff75	-0.05371042
91	0xbcd75783	-0.026286846
92	0xbccc9c9e	-0.024977025
93	0xbd1bbaef	-0.03802007
94	0xbc55e850	-0.013055876
95	0xbdc7db66	-0.09758644
96	0xbc82ad6c	-0.015951835
97	0x3d2ed1df	0.042680617
98	0xbce5a296	-0.028031629
99	0xbae44e45	-0.0017418346
100	0x3d9cc31f	0.07654404
101	0xbd76c976	-0.060250722
102	0x3d0fb651	0.03508598
103	0x3b0344b1	0.0020029957
104	0xbdc0deb4	-0.09417477
105	0x3be57435	0.0070023783
106	0x3d998f87	0.07498079
107	0xbc13c884	-0.009019975
108	0xbd5b6b11	-0.053568903
109	0xbcf2f1c5	-0.0296563
110	0xbd116887	-0.035500076
111	0xbc636c53	-0.013880807
112	0x3b2584a1	0.0025256055
113	0xbdb9f5cf	-0.090800874
114	0xbd965268	-0.073399365
115	0x3d8135df	0.06309103
116	0xbce837b7	-0.02834688
117	0xbd79536a	-0.060870565
118	0x3dbd0493	0.09229388
119	0x3cd08136	0.025452238
120	0xbd8bec5e	-0.06832193
121	0x3d319d0c	0.043362662
122	0xba94f8c8	-0.0011365646
123	0xbdb4e921	-0.08833528
124	0x3d8e6305	0.0695248
125	0x3dacd6a4	0.08439377
126	0x3dc8393c	0.097765416
127	0xbcbe9a2e	-0.023266878
128	0xbd2aaf2c	-0.041670963
129	0xbd8acef5	-0.06777755
130	0xbdbbc125	-0.09167699
131	0xbc296a98	-0.010340355
132	0xbdaed25b	-0.08536216
133	0x3daec5f8	0.08533853
134	0xbd5f0151	-0.054444615
135	0xbd51477c	-0.051093563
136	0xbd3e62b7	-0.04648086
137	0x3c833b00	0.016019344
138	0x3b7e08e1	0.0038762616
139	0xbda2e272	-0.07953347
140	0xbc71e7e2	-0.014764758
141	0xbbfd5901	-0.0077315574
142	0xbd3c08d8	-0.04590687
143	0xbdb3c177	-0.08777135
144	0xbd1faceb	-0.038983267
145	0x3d5b4f1f	0.053542253
146	0xbba91de1	-0.0051610325
147	0xbc3070db	-0.010769094
148	0x3d0910db	0.03346334
149	0xbda2e020	-0.07952905
150	0x3d208583	0.039189827
151	0x3d86460f	0.06556331
152	0xbd99f187	-0.07516771
153	0x3c920ff3	0.01782987
154	0x3bd496f0	0.0064877197
155	0x3da8a85f	0.08235239
156	0xbdc25660	-0.09489131
157	0xbcc1d224	-0.023659773
158	0xbdc37131	-0.09543074
159	0x3d5a8f84	0.053359523
160	0x3d8935fd	0.066997506
161	0xbce71ad8	-0.028211042
162	0x3c6e2484	0.014535073
163	0xbcfd3efa	-0.030913819
164	0xbd3803d6	-0.044925533
165	0x3d2e83f5	0.042606313
166	0xbd0176c5	-0.031607408
167	0xbc6b20b6	-0.014351061
168	0x3ce11cc6	0.02747954
169	0x3d2a8679	0.04163215
170	0xbd0a8a74	-0.033823445
171	0x3bd95591	0.0066325148
172	0xbd447ad2	-0.047968693
173	0x3a25e499	0.0006328314
174	0x3d41d0e2	0.047318347
175	0xbbcfb767	-0.006339002
176	0xbdb33589	-0.087504454
177	0x3d86b090	0.065766454
178	0xbdbba072	-0.09161462
179	0xbd1662c9	-0.036715303
180	0xbd40ce0d	-0.047071505
181	0x3cfcf677	0.030879242
182	0xbc4c32f9	-0.012463325
183	0x3cbdd47d	0.023172611
184	0xbc28a417	-0.010293028
185	0xbbd5b531	-0.006521844
186	0xbd769b69	-0.060206804
187	0x3db9f7d3	0.09080472
188	0xbd8f4084	-0.06994727
189	0x3d02dee9	0.031950865
190	0x3db68429	0.08911926
191	0x3cb64c0e	0.022253063
192	0xbcef15ae	-0.029185142
193	0x3daf117d	0.085482575
194	0xbb5a89ca	-0.003334629
195	0xbd8e71f2	-0.06955327
196	0x3d18e15a	0.037324287
197	0x3c532a82	0.012888553
198	0xbcd2ddca	-0.025740523
199	0xbde08270	-0.10962379
200	0xbdbb277a	-0.09138389
201	0x3d0e0a69	0.034677897
202	0xbdc0ea16	-0.09419648
203	0xbd324210	-0.043520033
204	0xbd12a9e9	-0.03580657
205	0xbca5de71	-0.02024767
206	0x3d340157	0.04394659
207	0x3c3d7dab	0.011565606
208	0xbb2a3ed7	-0.0025977397
209	0xbc5bfbb4	-0.01342671
210	0x3acb8fc2	0.0015530514
211	0x3da77940	0.081774235
212	0xbd96f613	-0.07371154
213	0x3cb66a9e	0.022267636
214	0xbbd43bd4	-0.0064768586
215	0x3cfc0e42	0.030768517
216	0x3d87edfb	0.06637188
217	0xbd555f81	-0.052093033
218	0x3d255b05	0.040370006
219	0x3d01d206	0.031694435
220	0xbce3c393	-0.027803218
221	0xbdc41da7	-0.09575968
222	0xbbeca984	-0.0072223563
223	0xbd2af010	-0.041732848
224	0x3d295501	0.04134083
225	0xbd67969e	-0.056540124
226	0x3db74711	0.08949102
227	0xbdb6f8f1	-0.089342006
228	0x3d4bad45	0.04972579
229	0xbbeec259	-0.0072863516
230	0x3d4708bd	0.048592318
231	0xbd3da146	-0.04629638
232	0x3d42e723	0.04758371
233	0x3d5d4b23	0.054026734
234	0x3c977779	0.018489586
235	0xbd8df7ba	-0.06932016
236	0x3cc98046	0.024597298
237	0xbd5e6aec	-0.054301187
238	0x3d3c69dc	0.045999393
239	0x3d1eb2d9	0.03874478
240	0xbc68fb7f	-0.014220118
241	0x3d981bc7	0.07427173
242	0xbd526607	-0.051366832
243	0x3cf768a5	0.030201266
244	0xbd40eac9	-0.04709891
245	0xbd3c5fc0	-0.04598975
246	0xbb965882	-0.0045881877
247	0xbda0799d	-0.07835696
248	0xbd83a96e	-0.064288005
249	0x3d362984	0.044473186
250	0x3d9d7574	0.07688418
251	0x3d7efb44	0.062251344
252	0x3cdb71f5	0.026787737
253	0x3d56d404	0.052448288
254	0xbd5c6627	-0.053808358
255	0xbd892f98	-0.06698531

hidden2_pi.bias f4 [100]
0	0x3c1c693c	0.009546574
1	0xbc506358	-0.012718998
2	0xbd9f37c0	-0.07774305
3	0xbd8f439c	-0.06995317
4	0x3d08a0d4	0.033356503
5	0xbdb6ece8	-0.08931905
6	0x3d01e09a	0.031708337
7	0x3d411018	0.04713449
8	0x3ae71ce7	0.0017632515
9	0x3bea37a8	0.007147748
10	0xbd3f8bef	-0.04676431
11	0xbd9f29d1	-0.07771648
12	0x3d803deb	0.0626181
13	0xbd2b1ea5	-0.04177727
14	0x3abd0335	0.0014420511
15	0xbd6e1c9b	-0.05813275
16	0xbcd6100d	-0.0261307
17	0xbd965571	-0.073405154
18	0x3d55c4c0	0.05218959
19	0xbd989526	-0.07450323
20	0x3d4a7984	0.049432293
21	0xbd9bbe0e	-0.076046094
22	0x3d83589f	0.064133875
23	0x3d38b5b0	0.045095146
24	0x3d914f97	0.07095259
25	0xbd014974	-0.03156419
26	0x3d444161	0.047913913
27	0x3d9572a6	0.07297258
28	0xbd5141dd	-0.051088203
29	0x3d436a5d	0.047708858
30	0x3d599d94	0.053128794
31	0x3ae56bba	0.0017503418
32	0xbc779c14	-0.0151128955
33	0x3d805915	0.06266991
34	0xbd795132	-0.06086845
35	0xbd8b9ad0	-0.068166375
36	0x3d80431f	0.06262802
37	0xbbc5dbee	-0.0060381806
38	0x3d9cd700	0.076581955
39	0x3dafd646	0.08585791
40	0x3d85b779	0.06529135
41	0xbd09d745	-0.033652563
42	0x3cff7db0	0.031187862
43	0xbd83b191	-0.064303525
44	0x3d9734fb	0.07383152
45	0x3d58d658	0.05293879
46	0xbc3a4978	-0.011370055
47	0x3d899614	0.06718078
48	0x3d778585	0.06043007
49	0x3ddad42b	0.10684999
50	0x3d133e1b	0.0359479
51	0x3d312840	0.043251276
52	0x3b87d85c	0.004145665
53	0xbd207025	-0.03916945
54	0x3cf9b39b	0.03048115
55	0xbd36dd91	-0.044644896
56	0xbd4fdffd	-0.05075072
57	0x3d89436e	0.06702314
58	0x3d40398e	0.04692989
59	0xbcb6fbc3	-0.022336846
60	0x3d89cd9c	0.0672867
61	0x3d6ba6e3	0.057532202
62	0x3d30ab0d	0.043131877
63	0x3c228e97	0.009921691
64	0xbdaf7f58	-0.08569211
65	0xbd8b053b	-0.06788107
66	0x3db2b68c	0.08726224
67	0xbd067017	-0.03282174
68	0x3d3aa7e5	0.045570273
69	0xbdc530cd	-0.09628449
70	0x3d36dca3	0.04464401
71	0xbdad5e47	-0.084652476
72	0x3ba96734	0.0051697735
73	0xbd85f873	-0.065415286
74	0x3b979036	0.0046253456
75	0x3d9d00a4	0.07666138
76	0xbc279301	-0.01022792
77	0xbdc6ea43	-0.097126506
78	0x3dc33b60	0.09532809
79	0xbcbc6efb	-0.023002138
80	0x3ca3d9ab	0.020001253
81	0xbbde2c9e	-0.006780221
82	0xbd8b5271	-0.06802834
83	0xbd97f5d1	-0.07419933
84	0xbcc8aa40	-0.024495244
85	0xbd30bf8b	-0.04315142
86	0x3d5b9c20	0.05361569
87	0x3da54819	0.08070392
88	0x3c58071a	0.013185287
89	0xbdc0cd69	-0.09414179
90	0x3ced54f0	0.028971165
91	0x3d8794a3	0.06620147
92	0xbd404a00	-0.046945572
93	0xbd6a269d	-0.05716573
94	0x3d5fc271	0.054628793
95	0xbc8824a4	-0.016619034
96	0x3d400339	0.046878073
97	0x3d9a8f55	0.0754687
98	0xbd818f1d	-0.06326125
99	0xbd10653b	-0.03525279

out_pi.weight f4 [1, 100]
0	0x3c233fa1	0.009963901
1	0x3d8749a1	0.066058405
2	0x3cda27a3	0.026630228
3	0x3c977c60	0.018491924
4	0x3d25ca6f	0.04047626
5	0x3db54c36	0.08852427
6	0x3da8111e	0.0820639
7	0x3c91d0f0	0.017799824
8	0x3cd9e81e	0.02659994
9	0xbcef3156	-0.02919833
10	0xbdababa7	-0.083823495
11	0x3d85f260	0.0654037
12	0xbb2e914b	-0.0026636894
13	0x3b26444a	0.0025370293
14	0x3da85101	0.08218575
15	0xbb5c8cf7	-0.0033653358
16	0xba0b989f	-0.00053251715
17	0xbbedbe6f	-0.0072553675
18	0x3d466e1d	0.048444856
19	0x3dbb9ac3	0.09160378
20	0x3dbca69f	0.09211468
21	0x3d71f77e	0.059073918
22	0xbdc6d7eb	-0.09709152
23	0x3dd72aa8	0.10506183
24	0x3bddd55b	0.0067698187
25	0x3d7679ff	0.06017494
26	0xbb987f37	-0.004653837
27	0xbd8306a0	-0.06397748
28	0xbaf67d4c	-0.0018805652
29	0x3cdb384b	0.026760241
30	0xbdc03444	-0.09384969
31	0xbdb1f61b	-0.08689519
32	0x3d815809	0.063156195
33	0xbc3c34c4	-0.01148719
34	0x3d42eff4	0.04759212
35	0xbd80b5af	-0.062846534
36	0xbd4b0bdb	-0.049571853
37	0x3c2da67f	0.010598778
38	0xbcbb4cb8	-0.02286373
39	0xbc80bb17	-0.015714211
40	0xbd68b0a9	-0.0568091
41	0x3d9c2885	0.07624916
42	0xbd90d49a	-0.070718005
43	0xbd8a7e78	-0.06762403
44	0xbd4e3678	-0.050344914
45	0x3d17a9b0	0.03702706
46	0x3c4228f7	0.011850587
47	0x3d2f3808	0.042778045
48	0xbd94fa58	-0.07274312
49	0xbca570bb	-0.020195356
50	0xbd618a93	-0.055063795
51	0x3b0d30de	0.002154402
52	0x3bba72cc	0.0056899544
53	0x3d79404a	0.060852326
54	0x3cc55a0a	0.024090786
55	0x3d91b658	0.071148574
56	0xbd8fd08f	-0.07022201
57	0xbda4d75d	-0.0804889
58	0xbd2195dd	-0.03944956
59	0x3d080e8e	0.033217005
60	0x3d0b0383	0.033938896
61	0xbd5e5a75	-0.054285485
62	0xbcb85ed3	-0.022506153
63	0x3ce41e48	0.02784647
64	0x3d116f59	0.03550658
65	0x3d81bf3e	0.06335305
66	0xbda59642	-0.080853
67	0xbc94f159	-0.01818149
68	0x3c09f202	0.008419516
69	0x3db648ba	0.0890059
70	0x3d3397d1	0.043845955
71	0x3c2d997f	0.010595678
72	0xbd1031aa	-0.035203613
73	0x3d9c55af	0.0763353
74	0x3d358261	0.044313792
75	0xbda6dd73	-0.08147707
76	0xbd0054ce	-0.031330876
77	0x3c9b7648	0.0189773
78	0x3d867a57	0.06566303
79	0x3c58886c	0.013216119
80	0xbd721591	-0.0591026
81	0xbb89a567	-0.0042006257
82	0xbd7a108b	-0.061050933
83	0x3dcd09a3	0.10011604
84	0x3db84828	0.08998138
85	0xbc9ac73e	-0.018893834
86	0x3dac0354	0.08399072
87	0xbcf99fab	-0.030471643
88	0xbd97d237	-0.07413142
89	0xbd1eeef8	-0.038802117
90	0xbdbe6117	-0.09295862
91	0xbc3900c9	-0.011291691
92	0x3d6810db	0.0566567
93	0x3d8f0f50	0.069853425
94	0x3d047bdb	0.03234468
95	0xbc901564	-0.017588325
96	0xbd996007	-0.07489019
97	0xbcfb861b	-0.030703595
98	0x3d7bd2e7	0.06148043
99	0xbd79fb5d	-0.061030734
