DR_Info_CFR/IHDP/Models/adversarial_vae.pth (torch, 29675 bytes, 32 tensors)

encoder_shared.shared1.weight f4 [15, 25]
000000 8c 5a dc 3d 9c 0f 1e be 4f 08 c6 bd 14 ba 61 bc
       0.10759458 -0.15435642 -0.096695535 -0.013777275
000010 ba 51 bd 3c ad fa 02 3c ba 2b f5 bd a7 f8 18 bd
       0.02311026 0.007994336 -0.11971231 -0.03734651
000020 bf 69 38 bd 77 81 a1 bd f0 b6 bb bd 78 a1 24 bd
       -0.045022722 -0.078860216 -0.09165752 -0.04019305
000030 78 5f 1d be e1 44 5e 3d 24 6c d7 3d e4 42 0c be
       -0.1536845 0.054264907 0.10518673 -0.13697392
000040 55 51 1b be b6 15 06 3e 4a 79 e5 bd 2e ed 00 bc
       -0.15167744 0.1309422 -0.11204775 -0.007869048
000050 dd ea de bd 15 e8 d1 3d f7 9f 41 bd 91 9f 6e bd
       -0.1088464 0.10249344 -0.047271695 -0.058257643
000060 bc f5 6a bd b1 3f 9c bd c1 59 37 bd 35 ce a0 3c
       -0.057363257 -0.07629336 -0.04476333 0.019629577
000070 92 c7 13 3b 56 80 27 bd c8 d8 a3 bd 59 1d b6 3d
       0.0022549373 -0.040893875 -0.08000332 0.08892316
000080 3c aa 61 bd 89 36 e2 bc 22 e3 dd bd 6c a8 4b 3d
       -0.05509399 -0.027613895 -0.10834338 0.049721166
000090 bd ac 4f bd b7 6f b6 3d c4 4a 84 3b 61 0c e7 bd
       -0.050701845 0.08908027 0.004037233 -0.11281658
0000a0 50 0f 6b 3e 62 e4 2a 3d 96 30 58 3e 7e 5c 19 3e
       0.2295506 0.04172171 0.21112284 0.14976689
0000b0 6d 89 a9 3c 2d 04 4c 3e 6c 8c 56 3e bf 35 0a 3e
       0.020695413 0.19923468 0.20952004 0.13497065
0000c0 67 ec 1a bd 22 9d 60 3e 16 24 53 3e bc ae 42 3b
       -0.037823107 0.21934941 0.20619234 0.00297062
0000d0 cb a8 d9 bd 0f 7e e6 3d 6f a3 af 3d b0 9f 01 be
       -0.10627898 0.112545125 0.08576094 -0.12658572
0000e0 dc c4 b7 3c 34 0c b8 bd cd d9 62 bd 1a e5 81 3d
       0.022432737 -0.089867026 -0.055383492 0.06342526
0000f0 91 e5 00 3e 1d ab 3f bb fa 9d 03 be 90 cc 87 3e
       0.12587573 -0.0029246279 -0.12853232 0.26523256
000100 2e 84 94 3d 48 65 58 3b 5e 01 97 3c 9c d9 36 bd
       0.07251774 0.0033019353 0.01843327 -0.044641122
000110 9a ff 1b be 49 9a e2 bd f2 84 42 bc 77 d0 ee 3c
       -0.15234223 -0.11064584 -0.011872517 0.029152138
000120 96 f3 ba 3c d6 41 4e 3d 18 61 c0 bd f8 24 a7 3d
       0.022821229 0.050355755 -0.09393519 0.08161348
000130 04 12 0b bc 2a 45 22 be 94 76 84 bd e2 a1 86 bd
       -0.008488182 -0.15846696 -0.064679295 -0.065738454
000140 de 7c 02 bd 4b 08 98 3d 9c 50 ca 3d ce 7a 05 3e
       -0.031857364 0.07423457 0.09878656 0.13035128
000150 0f 14 65 3d 85 76 a4 3d d9 08 41 3e 69 f7 08 be
       0.055927332 0.08030418 0.18851031 -0.1337563
000160 d5 fd 70 3e a0 ee b0 3d 2f 24 8d bd f4 a8 92 bd
       0.23534329 0.08639264 -0.06891667 -0.071611315
000170 da 20 86 bd 5d 46 19 bd 5d e7 fb 3d 36 2d af 3d
       -0.06549235 -0.03742062 0.122999884 0.08553545
000180 00 ce 95 3d 96 38 26 3e 2a e6 b9 3d 02 c2 0c 3e
       0.07314682 0.16232523 0.090771034 0.13745883
000190 eb bb dc bd 32 16 70 bd 7a 0f d0 3d 04 45 9e 3d
       -0.1077803 -0.058614917 0.10159202 0.077280074
0001a0 de 5b e6 bd 2e a0 46 3e 67 d3 e8 bb ff 0d 0a 3d
       -0.11247991 0.19397041 -0.0071052792 0.033704754
0001b0 05 59 80 bd fb 4f 61 3e cc 87 82 3d c3 8b 07 3e
       -0.06266979 0.22003166 0.063735574 0.13236909
0001c0 e7 8c b6 3c 8e 36 61 3e a7 df e8 3d 7d 50 65 3e
       0.022283984 0.21993467 0.11370783 0.22393985
0001d0 da b8 c2 bc 95 95 c3 3d c1 86 55 3e 45 5a 54 3e
       -0.023769785 0.09550015 0.20852186 0.2073756
0001e0 d9 78 36 3e ca 30 b0 bb 66 6c ae 3b 0d 43 63 3e
       0.17819537 -0.00537691 0.0053229807 0.22193547
0001f0 f7 d7 44 3d 22 49 26 bd 0b 93 be bc d3 18 c2 ba
       0.048057523 -0.04059709 -0.023263475 -0.0014808424
000200 e3 dc a8 bd 98 81 b6 3d fe 61 e4 bc 5b cd fa bd
       -0.08245256 0.08911437 -0.027878758 -0.122462
000210 dd 05 8d bc 7a 5a ca bd c7 d0 a5 bc 81 a8 f4 bd
       -0.01721471 -0.09880538 -0.020241154 -0.11946202
000220 99 fe 3b bc 31 48 94 3c 13 72 3b be 3e 53 9f 3d
       -0.011474275 0.01810083 -0.18305235 0.07779549
000230 9c ee bc 3d a9 b9 e0 bc 88 cd 3f bd ca 02 06 3e
       0.092251986 -0.02743228 -0.04682687 0.13087001
000240 28 51 18 3d bb f6 ed bc 92 81 1a 01 5c e9 b1 3d
       0.03718677 -0.029048314 2.8378295e-38 0.08687088
000250 95 3e b0 bd 49 90 a6 bd 85 9c a8 3d 19 05 3f 3e
       -0.086056866 -0.08132989 0.08232979 0.18654288
000260 6e eb d5 3c f6 3b 97 bd 32 46 d0 3d 8c 06 5f be
       0.026113238 -0.073844835 0.10169639 -0.21779841
000270 b8 aa cd bd ed c3 1a 3e fe 5a d8 3d c8 41 bd bc
       -0.10042328 0.15113802 0.105642304 -0.023102656
000280 42 38 09 3e 18 53 f6 bc 73 0a 06 3e 3b 5d 9e bd
       0.13400367 -0.030068919 0.13089924 -0.07732626
000290 af f1 02 3e bb 85 7e 3d 1a 63 a6 bb 12 8b 4b 3e
       0.12787507 0.062139254 -0.005077732 0.1987727
0002a0 56 df a1 3c 53 19 44 bd 6d 32 00 be b9 b9 1d 3e
       0.019759815 -0.047875714 -0.12519236 0.15402879
0002b0 a6 61 9c 3c fc a3 f7 ba fe 86 59 bd 8b 89 16 3d
       0.019089531 -0.0018893476 -0.053107254 0.036752265
0002c0 2f db 1d 3e 54 ca ac 3d ff b5 cf bd be 7b 55 3d
       0.15415643 0.084370285 -0.10142135 0.052119963
0002d0 3f c1 6b be f5 df 18 be 39 98 cf 3d b1 c0 a3 bd
       -0.23022936 -0.14929183 0.10136456 -0.07995737
0002e0 3f 64 4d 3c df e1 4d 3d a7 6d 81 3c 47 36 3c 3e
       0.012536108 0.050264236 0.015799357 0.1838008
0002f0 52 64 68 bd b0 b6 db 3c e5 7d 07 be 62 05 b0 3d
       -0.056736298 0.02682051 -0.13231619 0.08594777
000300 4d a7 ca 3d 71 34 43 3e 75 e6 80 3d b9 e3 98 bd
       0.09895191 0.19062974 0.06293956 -0.0746531
000310 49 87 b6 3d 71 21 ff 3a 82 65 23 3d c8 05 d3 3d
       0.08912522 0.0019464922 0.039891727 0.10303837
000320 68 a9 82 bd 55 6c b8 bd 7c 85 63 3c 2c 59 7d 3d
       -0.06379968 -0.09005038 0.013886806 0.06185262
000330 25 d9 93 bd 8e 74 06 3e fa e0 f3 3d 0b 25 84 3c
       -0.072191514 0.131304 0.11908145 0.016130945
000340 e2 7f ea bd a7 b9 fc 3c 09 5a 39 bd 82 39 99 3d
       -0.11450173 0.030850245 -0.04525188 0.07481672
000350 27 62 e0 3c 28 04 61 3e 3d 2c ae bd fa 24 11 3e
       0.027390553 0.21974242 -0.085045315 0.14174262
000360 1d 84 3f bd 03 0a 10 3e 0f a7 c4 3c 02 10 d1 3c
       -0.046756852 0.14066319 0.024005441 0.025520328
000370 b8 32 99 3d 5e 23 0e bd 8b 72 af 3d c4 72 e5 3d
       0.07480377 -0.034701698 0.08566769 0.112035304
000380 bf f6 e7 3d 09 9c 32 3e 56 fd 21 be 87 b3 a6 3d
       0.1132636 0.17442335 -0.15819296 0.08139711
000390 bd d1 72 bd 40 be 83 bd 82 6a fc 3d 96 31 3e 3d
       -0.059282053 -0.06432772 0.12325002 0.046434008
0003a0 8b d5 91 bd 94 1f ae bd 86 4d c7 3d 74 fc 9b 3d
       -0.07120808 -0.08502117 0.09731583 0.07616511
0003b0 76 4d 83 bd 89 05 26 3d 4f 49 e9 bd 6a 1d 3f be
       -0.06411259 0.040532622 -0.11390936 -0.18663564
0003c0 d6 a2 01 be 4d 4c 0a 3d bb 8d 9d 3d ea 34 3d 3c
       -0.12659773 0.033764172 0.076930486 0.01154826
0003d0 57 90 9b 3b ee a7 08 be e1 4b 9c 3d 30 52 33 be
       0.0047474313 -0.1334531 0.0763166 -0.17511821
0003e0 e1 27 26 3d ff e7 4e be 4c b6 02 be 3c d1 39 3e
       0.040565375 -0.20205687 -0.12764853 0.18146223
0003f0 57 de 1c bd e4 6c 50 bd 2a bc 86 bd 72 81 d7 3d
       -0.038297977 -0.050885096 -0.06578858 0.105227366

encoder_shared.shared1.bias f4 [15]
000000 e4 7a 18 be 0b c1 8d 3e fe 87 5b 3e 27 a7 69 3d
       -0.14890629 0.27686343 0.21438596 0.057044175
000010 eb 0c 13 3d 89 a1 29 be 32 7a d1 bd 31 60 3e 3e
       0.03590099 -0.16565527 -0.10228385 0.18591382
000020 77 da 24 3e a0 c6 82 bd 81 e7 36 3e d4 2a ce bd
       0.16098963 -0.06385541 0.17861749 -0.100667626
000030 72 5b 93 3c ab f9 d5 bc a8 3d 0c be
       0.01798794 -0.026120028 -0.13695395

encoder_shared.shared2.weight f4 [15, 15]
000000 a3 b1 28 3d ed bf 93 bd 25 23 0e bd 94 88 1d 3e
       0.041185033 -0.07214341 -0.034701485 0.15384132
000010 07 dc d4 bc 6b 52 04 3e ef 84 af bd e3 29 4a 3d
       -0.025983823 0.12922065 -0.08570277 0.049356353
000020 43 6a 8f 3d 33 f2 38 be 23 e8 00 be e5 c4 4e be
       0.0700269 -0.18061142 -0.12588553 -0.20192297
000030 6d 1f 02 3e 2a 02 86 bc 4a 7b e1 3d 8f 4d f3 bd
       0.127073 -0.016358454 0.11009844 -0.118800275
000040 55 dd 19 3d 5d 88 09 3d a9 28 b6 b9 4e 87 30 be
       0.037564594 0.03357731 -0.0003474404 -0.17239115
000050 8b aa cb 80 55 69 1c bb 77 81 1a bd 6f 11 4b bd
       -1.8703785e-38 -0.0023866494 -0.037721124 -0.049577173
000060 cf 6e 37 3e a1 63 12 b5 f9 06 75 00 e6 16 2f 3d
       0.17913364 -5.453422e-07 1.0747254e-38 0.042746447
000070 1d 76 ff bd dd 89 a4 bb 79 4d 51 bd c7 9e 4c 3e
       -0.124737 -0.0050213174 -0.051099274 0.19982444
000080 54 c3 1e 3e 57 66 11 3e 78 cb 4f 3e c4 07 ab bb
       0.155042 0.14199196 0.20292461 -0.0052194316
000090 53 f0 81 3c c0 9a 12 3e ba c0 b9 3c cd 39 25 be
       0.015861666 0.14316845 0.022674907 -0.1613533
0000a0 23 8c 12 3e c1 bc 10 bd 4d 2c 6b 3d ef a0 f3 bc
       0.1431127 -0.03533626 0.057415295 -0.029739825
0000b0 cc 10 cf 3d 15 9f 17 be f3 cc 8f 3e 9b c2 97 3e
       0.101106256 -0.14806779 0.2808605 0.2964066
0000c0 a7 e8 4c bc ee 3a c5 3c 04 5e 13 be 6f f6 ed bd
       -0.0125066405 0.024075951 -0.14391333 -0.11619269
0000d0 ff e0 b8 bc 3e 43 0d 3e 49 17 e2 bc 27 dc 31 3e
       -0.022568224 0.13795182 -0.027598994 0.17369138
0000e0 9f 63 49 bb 41 b2 81 bd 99 fd 1f be 42 3e 88 3e
       -0.0030729545 -0.06332827 -0.15624084 0.2661
0000f0 0d 56 0a be 36 7b b9 3c a8 e3 ae 3b 0a 1d 20 3e
       -0.13509388 0.02264176 0.0053371973 0.15636078
000100 45 4b 5c 3d 52 a0 7c 3d bf 61 18 be cd 7b 21 3e
       0.05378272 0.06167633 -0.14881037 0.15769883
000110 e1 17 91 bd 00 4c ae bd fe b2 77 ba 4f 63 ed bc
       -0.07084633 -0.085105896 -0.0009448974 -0.028978018
000120 cf 5b 50 3e 44 e7 c2 bc 84 fa ed 3d 69 1f 13 3d
       0.20347522 -0.023791917 0.11620048 0.035918627
000130 67 71 8c bd 36 ae ce 3a 3f 22 1f bc df 78 e0 bd
       -0.06857567 0.0015768472 -0.009712755 -0.10960554
000140 25 fb 38 01 aa 23 f9 b4 9c c4 75 81 f8 63 26 bd
       3.397565e-38 -4.6405813e-07 -4.5140453e-38 -0.04062268
000150 3d ff 18 3e aa ca 85 bc 9e e0 cf 2a ef 23 ef 3d
       0.14941116 -0.01633199 3.6926446e-13 0.11676776
000160 3b 4f 23 bd c2 b1 bb 00 0d f1 e8 bd 2e 24 92 be
       -0.039870482 1.7237005e-38 -0.11374102 -0.28543228
000170 60 37 63 be 6b dd 80 3d 63 ae b8 3d 70 e0 db 3d
       -0.22189093 0.06292232 0.090176366 0.107361674
000180 76 24 06 3e 7f 46 56 bd ac a3 b9 3c 33 5a f1 3d
       0.13099846 -0.052313324 0.022661053 0.11784782
000190 55 21 2d be 04 cb 2c bc 07 28 c4 3d 59 7b ad bd
       -0.16907246 -0.01054645 0.09577947 -0.08470792
0001a0 ea 9b 88 bd 8d 35 71 01 6b 04 90 ad 4c e3 54 aa
       -0.06670363 4.430313e-38 -1.6372867e-11 -1.8908242e-13
0001b0 5e a1 89 a3 71 57 0b ad a0 19 aa 81 b0 dc cf 80
       -1.4921911e-17 -7.920651e-12 -6.248491e-38 -1.9089115e-38
0001c0 6a 0d 0f 12 28 d6 75 ad 4a 93 83 81 1c 5a 67 04
       4.513938e-28 -1.397419e-11 -4.833315e-38 2.7195296e-36
0001d0 34 99 eb 00 1f 51 84 00 58 22 61 01 3e 4a 69 00
       2.16363e-38 1.2151386e-38 4.1350614e-38 9.66936e-39
0001e0 92 67 3c bd c6 c4 d1 3c c1 f9 c5 bb ea 0a c5 bd
       -0.04599721 0.025606524 -0.006041736 -0.09621222
0001f0 0d 61 bd 3d 80 e8 9b bc 63 b3 53 3e 81 ea fd bb
       0.092470266 -0.019031763 0.206739 -0.0077489023
000200 e3 96 13 3b 87 dc 0f 3e 64 0f d6 3d a2 09 e0 3d
       0.0022520355 0.14048968 0.10452154 0.10939337
000210 ef cb 2b be 88 af 3e 3e 46 89 de bd a0 ec 04 3e
       -0.16777013 0.18621647 -0.108660266 0.1298089
000220 c8 64 8e 3a 83 c0 94 bd fd 6b 6a 3d 94 ae 29 3e
       0.0010863775 -0.07263281 0.057231892 0.16570503
000230 21 a4 2c be 0c 19 85 3e 32 c5 87 3e 47 df 07 3e
       -0.16859485 0.25995672 0.26517636 0.13268767
000240 57 87 d8 bd dd 52 23 3e 69 c8 e5 3d 55 13 1c be
       -0.10572689 0.15949579 0.11219866 -0.1524175
000250 71 ae 0b 3e 27 b4 43 3d a1 7d 25 bc 7f b9 2c 3b
       0.13640763 0.04777923 -0.010100753 0.0026355681
000260 62 e7 b2 bd fd 59 20 be 4c 62 f7 bd 28 00 44 bd
       -0.08735539 -0.15659328 -0.120792955 -0.04785171
000270 23 24 50 3e 66 d3 26 be aa b0 87 3d 9d 4e 4f 80
       0.20326285 -0.1629158 0.06625493 -7.283205e-39
000280 b0 f4 d1 3c dd 24 58 80 36 95 f1 bc c6 6d c4 3d
       0.025629371 -8.094748e-39 -0.029490095 0.0959125
000290 ce a8 83 ba da 97 d0 3d be 88 b8 3c bb 30 6d 3d
       -0.0010044815 0.101852134 0.022526141 0.0579078
0002a0 6d 8b 34 3d de c2 3b 3d 07 dc 27 3d 28 b5 f6 3d
       0.04407828 0.045840137 0.04098132 0.120462716
0002b0 e2 28 6b 3b b8 34 5a 3e 78 2b a6 bd 23 ff 71 3c
       0.0035882522 0.21309173 -0.0811376 0.014770302
0002c0 76 2f 64 3e a2 9c 10 be 42 d3 18 3e cb 68 3d 3e
       0.2228373 -0.1412225 0.14924338 0.18497007
0002d0 4b 03 65 3c ab 3f 3b 3d 14 93 50 be d6 f8 50 be
       0.013977836 0.045715015 -0.20368606 -0.20407423
0002e0 b7 31 b3 3d 99 2c af bb 92 a0 39 be a6 d5 97 be
       0.08749717 -0.0053458926 -0.18127659 -0.29655188
0002f0 ce 17 59 be c0 da 84 bd 90 93 b0 bc c3 d2 87 bd
       -0.21200487 -0.06487036 -0.021554738 -0.066319965
000300 de 70 9a 3b c2 bd b1 bd 0b 7c 8e 3d c2 9f d3 3c
       0.004713162 -0.086787716 0.06957253 0.025833014
000310 d2 e5 63 3e 3e 04 84 3e 1c db 38 3e 1a 1f 54 3e
       0.22255638 0.25784487 0.18052334 0.2071499
000320 d3 d0 d1 3d 51 0a d0 3c dc 7a 86 bc 27 da b2 3d
       0.10244908 0.025395544 -0.016416006 0.087330155
000330 82 86 08 be f7 23 c5 3d 63 a5 2e 3e 5d bc 0d bd
       -0.1333256 0.096260004 0.17055278 -0.034603465
000340 92 d5 70 3d 40 2f 1c be 78 04 42 3e 0f ba 9e 3c
       0.058797427 -0.152524 0.18947017 0.019375829
000350 a2 34 98 bd e9 c7 0d 3e ae e0 8b 3e db dc 33 3d
       -0.07431914 0.13845791 0.27319854 0.043911796
000360 a4 8a 6e 3e 74 81 1b 3e e9 36 cc bd dd 70 5c be
       0.23295075 0.15186101 -0.09971411 -0.21527429
000370 6a c7 19 3d 9a f4 73 bd bd 5d 91 3d 04 95 a8 3d
       0.03754369 -0.059559442 0.07097957 0.082315475
000380 92 31 fb bd
       -0.12265314

encoder_shared.shared2.bias f4 [15]
000000 53 b4 cc 3d 58 ee 6b bd f6 b6 c7 be 23 2f 55 3e
       0.099953316 -0.05760035 -0.39006776 0.20818762
000010 f4 14 a7 3e 3a 40 9d bd 24 af 48 3d eb d6 89 af
       0.32633173 -0.07678266 0.048995152 -2.5072863e-10
000020 53 56 d7 3d eb b1 1e bd bd e2 86 3c e0 85 45 be
       0.10514512 -0.038743895 0.01646554 -0.1928935
000030 73 e7 84 3d 3b ec ba bd 01 af 64 3e
       0.06489458 -0.09127089 0.22332384

encoder_shared.shared3.weight f4 [15, 15]
000000 95 c6 88 00 f0 bf 51 80 b4 1b 73 04 de 96 fa ab
       1.2560865e-38 -7.50753e-39 2.8577233e-36 -1.7805442e-12
000010 1c 2a bb a3 c2 66 32 01 90 14 44 80 14 94 4d 01
       -2.0292415e-17 3.2767162e-38 -6.25219e-39 3.7758794e-38
000020 87 f3 b5 81 ec 19 b8 98 2d 89 3d 81 62 d2 35 81
       -6.6838344e-38 -4.758906e-24 -3.4812236e-38 -3.3395392e-38
000030 8b d6 66 01 40 fa 37 ab 6d a0 2a a8 69 0b 2a 3d
       4.2398255e-38 -6.536195e-13 -9.4716825e-15 0.041514788
000040 a6 93 00 01 aa 97 7b 00 6a 4c 0a bd b9 3e 8a bd
       2.361582e-38 1.1350173e-38 -0.03376428 -0.06750245
000050 3a bd b4 36 07 c0 66 3d f0 00 24 01 23 20 ca b5
       5.386447e-06 0.056335475 3.0122715e-38 -1.5059526e-06
000060 d6 8e 1f 81 ac d2 bf 00 7d ca 20 bc 2e 32 e4 bb
       -2.9306168e-38 1.7616155e-38 -0.009813902 -0.0069639897
000070 38 6e 91 01 43 1b 96 bd eb 7e 91 be 51 60 c1 3c
       5.3422744e-38 -0.073294185 -0.28417143 0.023605498
000080 68 62 bb 01 f7 ed 55 be 75 de 24 be ce 62 01 be
       6.8834157e-38 -0.20891558 -0.16100486 -0.12635347
000090 09 05 46 be 08 9b 75 00 d5 70 4f bd 27 7a 99 be
       -0.19337858 1.0800368e-38 -0.050644714 -0.29976007
0000a0 f0 8c af 3d 53 96 66 be 75 9d e4 bc 2e c0 0c be
       0.085718036 -0.22518282 -0.027907113 -0.13745186
0000b0 30 d9 38 3d a3 dc 7c 3d 35 3c 81 3d 3f c4 e4 bd
       0.045129 0.061733853 0.06310312 -0.111702435
0000c0 c5 bb 07 bd 6f 10 38 3e 02 90 ab 3d d9 99 b5 3d
       -0.033138055 0.17975019 0.08377077 0.08867235
0000d0 9c a4 1c 32 36 5f 47 3e f4 52 0c be 48 33 d5 bd
       9.117823e-09 0.19469914 -0.13703519 -0.10410172
0000e0 34 11 86 3d 4e 28 5b be 55 ed 87 3c df 18 cb 3d
       0.0654625 -0.21402094 0.01659266 0.09916853
0000f0 72 df 62 be d5 c8 dd 3c 08 18 b0 80 20 9b 21 bd
       -0.2215555 0.027073303 -1.6171668e-38 -0.03945458
000100 68 29 38 bd a0 1d a5 3d f1 db da 3c db a7 cc 80
       -0.044961363 0.08062291 0.026716204 -1.8794656e-38
000110 f4 c0 ac bc 86 2a 13 3e 72 32 31 bd 3e 81 c8 bd
       -0.021088101 0.1437169 -0.043261 -0.09790276
000120 28 f3 4f 3e 32 7a 8d be 11 3d 76 be be 9c c5 3d
       0.203076 -0.2763229 -0.24046732 0.09649037
000130 a7 b7 16 bb df be 67 be 9a e6 31 3e d8 24 70 bc
       -0.002299765 -0.22631405 0.17373124 -0.014657222
000140 34 4f 86 81 f5 a0 ca bd 9a 06 2d a0 8e 6d a4 3d
       -4.9337477e-38 -0.09893981 -1.4655854e-19 0.080287084
000150 d3 7c 57 3d 65 b4 8c 3d 11 1f 1b be 67 0a 41 3d
       0.052609276 0.06870345 -0.1514857 0.04712906
000160 15 18 99 3d dc e5 a3 3d 78 3a 31 3e 25 36 44 3b
       0.074752964 0.080028266 0.1730746 0.00299395
000170 5d d8 fe bc 7d 75 4d 3e 09 ef be bd c1 ed b9 bb
       -0.03110903 0.2006435 -0.09322936 -0.0056740944
000180 46 3a 1b 3e 94 d7 85 26 fe 41 2d 3e 93 23 44 3d
       0.15158948 9.287161e-16 0.16919705 0.04788549
000190 b9 a2 d9 3b 3c f2 4f be be 4e 3d be 19 d5 81 bc
       0.0066417125 -0.20307249 -0.18487069 -0.015848683
0001a0 e5 56 a1 bc da 12 50 b8 1e a0 3e 00 4a 22 07 00
       -0.019694755 -4.960862e-05 5.75124e-39 6.55149e-40
0001b0 5d 85 d5 b8 ab 81 7e b8 20 a3 a8 81 c0 38 a1 3c
       -0.00010181472 -6.067908e-05 -6.1947526e-38 0.01968038
0001c0 e6 34 72 01 14 27 3d 39 e5 57 f0 b3 b5 8b 58 0b
       4.4486333e-38 0.00018039002 -1.1191859e-07 4.170519e-32
0001d0 9f 9c 97 01 01 13 a3 b3 e0 68 99 81 fa 3f 37 39
       5.569338e-38 -7.593736e-08 -5.635381e-38 0.00017476073
0001e0 73 3e 79 00 fe 13 53 80 33 3e 24 9a fc 07 89 b5
       1.1134498e-38 -7.629518e-39 -3.396465e-23 -1.0209619e-06
0001f0 7c bd 5c b0 25 00 71 81 f4 b7 54 80 4f 86 32 80
       -8.030481e-10 -4.4264813e-38 -7.780172e-39 -4.639956e-39
000200 74 14 e3 a4 e7 83 be ad 18 b9 bd 01 7f 31 0c 06
       -9.8480206e-17 -2.1659076e-11 6.969323e-38 2.6367437e-35
000210 9d ac 87 81 05 cd 92 b3 43 47 d4 b1 65 73 65 3e
       -4.9838856e-38 -6.8359476e-08 -6.1781136e-09 0.22407301
000220 6d ff 6e 80 f7 46 96 be 92 67 62 3e fa 1c e9 3d
       -1.0193534e-38 -0.29351017 0.22109821 0.1138248
000230 7c ff ae 80 f8 01 34 3e 6e 10 06 b1 a3 66 db bb
       -1.6071027e-38 0.17578876 -1.9508906e-09 -0.006695585
000240 59 67 33 3e 92 aa 47 3c cd 37 bf bc 83 56 2d 3d
       0.17519893 0.012186663 -0.023342038 0.042318832
000250 f3 b1 94 bd 36 2a 97 3d c8 02 f5 3d 96 e6 a9 bd
       -0.072605036 0.07381098 0.11963421 -0.08295934
000260 16 2f 90 01 a8 ed 68 be fa 1b dd bd d5 0a f4 3d
       5.296481e-38 -0.22746909 -0.10796352 0.119161285
000270 04 10 70 be 80 54 69 01 6e 39 6c be c3 af 85 be
       -0.2344361 4.2855967e-38 -0.23068783 -0.26110658
000280 5a 6c 7e bc 3c 7d 17 3e cc 0e d0 3d 87 d2 09 be
       -0.015528763 0.14793867 0.10159072 -0.13459216
000290 03 04 fe bd 69 6e 38 be b3 5a 2e 3d 0f 59 24 80
       -0.12403109 -0.18010868 0.042566966 -3.338026e-39
0002a0 57 50 a5 bd f8 98 3d bb 36 bd 8b bd 68 aa 28 3e
       -0.08071964 -0.0028930288 -0.068231985 0.16471255
0002b0 4f 5b 8f 00 00 c1 c0 3c 89 95 72 be e5 ab 90 3d
       1.3165231e-38 0.02352953 -0.23689856 0.07064036
0002c0 9f 72 81 3d 5d 14 26 bd ec 9d ed 3d 40 28 af bd
       0.0632069 -0.040546764 0.11602387 -0.08552599
0002d0 37 02 d3 3d a4 1c 0c 3d 59 cb 12 bf e7 6f 18 3e
       0.10303157 0.034207 -0.57341534 0.14886437
0002e0 39 2b 51 3e 84 83 3f bd 14 4c 0d be d1 e5 e0 27
       0.20426644 -0.046756282 -0.13798553 6.2421657e-15
0002f0 b5 f9 82 bd a4 1d 64 3d ac 8a 0d 3e ed b1 76 3d
       -0.06395284 0.05569233 0.1382243 0.060228277
000300 d7 75 52 be 65 de c7 3d 6c 29 9b 3e 94 cd ff bd
       -0.20552765 0.09759215 0.3030504 -0.12490383
000310 53 9a 82 bc 36 aa 52 be a3 b2 45 be a3 76 15 be
       -0.015942728 -0.20572743 -0.19306426 -0.14596038
000320 5f 0b 1a 3e 61 29 5f 3e b8 2b 8e 01 16 90 38 3c
       0.150434 0.21793129 5.2225295e-38 0.0112648215
000330 aa b4 00 be 09 8c 82 bd 5e b1 3e 3e 25 05 53 3e
       -0.12568918 -0.06374366 0.18622348 0.20607431
000340 73 62 93 3d 1c 51 90 3e a9 5d 5a bd 51 96 62 bd
       0.07196512 0.28186882 -0.053311978 -0.055319134
000350 30 21 da be af af 9d 3e e6 92 47 3e 44 b6 80 3d
       -0.42603445 0.30798098 0.19489631 0.062847644
000360 5e ca 06 be 3c 10 96 35 5e 4f 1a 3e 47 a8 3e bc
       -0.13163134 1.1180596e-06 0.15069339 -0.0116368
000370 26 d3 2c 3e 88 69 9d bd 74 b3 d3 bd 64 17 9f 3d
       0.16877422 -0.07686144 -0.10336962 0.07768133
000380 ca 78 34 3e
       0.17624202

encoder_shared.shared3.bias f4 [15]
000000 48 26 f8 b0 9b d2 2f 3d 45 eb 46 3e ad 86 9e 3d
       -1.8055255e-09 0.04292546 0.19425686 0.07740531
000010 97 e9 58 3e 6f 37 73 3d de 69 91 3e 4a e5 48 bc
       0.21182857 0.059379037 0.28401083 -0.012261698
000020 78 3e 82 b7 d6 d2 8c bc df 89 4d 3e 5b 3b 17 3d
       -1.5526297e-05 -0.017190378 0.20072125 0.03692184
000030 dd 51 ff 3d 27 9f e0 3c 7a ff 67 3e
       0.12466786 0.02741964 0.2265605

encoder_x.out.weight f4 [15, 15]
000000 0b df 52 80 d4 60 6e 81 cc 87 58 01 6a d2 f8 82
       -7.610523e-39 -4.3783167e-38 3.9770364e-38 -3.6561097e-37
000010 06 48 89 81 5a ca 52 83 e6 32 38 8a 61 b4 3b 80
       -5.04292e-38 -6.194574e-37 -8.868851e-33 -5.483002e-39
000020 0a b1 2c 01 ca ca 1b 03 f9 de c0 00 01 a9 b2 81
       3.171843e-38 4.5783197e-37 1.7712403e-38 -6.562938e-38
000030 ba 0f 3e 0c e9 bd b5 01 51 1a 6a 1a c8 93 80 01
       1.46418e-31 6.6761407e-38 4.8411324e-23 4.723183e-38
000040 6e 1a 3c 3b 2f fa 38 be 6a 4a b9 3d ae c5 0f 3e
       0.0028702277 -0.18064187 0.090473965 0.14040253
000050 4c 1e df 3c c6 19 f1 bd 6d 5e 18 00 18 41 3f 01
       0.027236126 -0.11772494 2.237925e-39 3.5127862e-38
000060 04 ec 9f 3d ae d4 4b 3c cf f2 2d be 07 9b 53 be
       0.07808688 0.0124408435 -0.16987155 -0.20664607
000070 48 b1 e5 ba 4f 83 10 3b 90 77 70 01 f8 74 21 00
       -0.0017524147 0.0022050922 4.416682e-38 3.072532e-39
000080 b3 c8 1a 81 4a d1 8e 8c ce f6 22 01 5f 36 93 a3
       -2.8429327e-38 -2.2004525e-31 2.9931774e-38 -1.5960799e-17
000090 6e 15 80 ad 13 23 41 00 08 00 05 81 fc ab b4 99
       -1.4561432e-11 5.98189e-39 -2.4428264e-38 -1.8681028e-23
0000a0 7a 6c 1c 00 43 05 85 80 49 47 f9 ae 47 82 d7 00
       2.610308e-39 -1.2216009e-38 -1.1335872e-10 1.9791366e-38
0000b0 f8 25 d3 b2 08 e1 2b 2d 2d 98 5c 3a 8d 75 d6 bd
       -2.4580899e-08 9.770192e-12 0.000841501 -0.1047164
0000c0 7f 24 b3 bd 5a 4f 27 be 49 90 f2 3d 41 6c 17 be
       -0.087471955 -0.16338864 0.118439265 -0.1478739
0000d0 89 f9 01 b6 00 a2 67 2a a4 62 98 3e f8 5a cd bd
       -1.9367747e-06 2.0573127e-13 0.29762757 -0.100271165
0000e0 38 20 65 bb c2 ca 76 bd 35 b4 16 be 90 e9 98 3e
       -0.003496183 -0.06025196 -0.14717181 0.29865694
0000f0 1c e0 47 01 89 bb 11 00 c6 02 32 81 e8 5c 71 ad
       3.6711318e-38 1.628478e-39 -3.2695426e-38 -1.3719893e-11
000100 2d f8 89 81 48 02 a0 3a 11 8d c2 b9 6c bb e4 80
       -5.0681967e-38 0.0012207711 -0.00037107666 -2.1005727e-38
000110 59 23 8c 81 ff 85 9e 39 78 cd 7a 01 b4 e7 74 81
       -5.14786e-38 0.00030235943 4.6065165e-38 -4.498196e-38
000120 de 33 fd ba 49 e3 f5 2a 8d cb 43 bb 14 66 8e 01
       -0.0019317826 4.3678453e-13 -0.0029875964 5.2309037e-38
000130 15 6d 87 81 f0 48 a5 00 fe 7e 02 a0 3b 8b 0a 00
       -4.9747693e-38 1.5179022e-38 -1.1053447e-19 9.68301e-40
000140 84 4f 3d a9 e3 62 20 b1 d4 cd b0 01 d4 62 b7 80
       -4.20354e-14 -2.3339275e-09 6.494754e-38 -1.6841349e-38
000150 f2 b3 09 a6 fa 38 32 81 58 72 0e 81 eb 8c 4f b2
       -4.7775295e-16 -3.2734315e-38 -2.6163319e-38 -1.2081027e-08
000160 8d d4 ed 80 b1 85 ba b4 43 21 c1 0e ec 93 67 80
       -2.1841261e-38 -3.4742473e-07 4.7610203e-30 -9.51212e-39
000170 ac 5f 1e bd 3b 03 83 3e 0c 04 53 3e c6 b0 b4 3b
       -0.03866546 0.25588402 0.20607013 0.005514237
000180 7e 03 a8 3e bc a3 12 01 48 39 4e ae b3 10 a5 bd
       0.32815164 2.6933439e-38 -4.6889853e-11 -0.08059826
000190 c9 8c 8d bd 2c 99 ae 3c 0a 95 82 3e b7 6d 5f 3e
       -0.06911618 0.021313272 0.25504333 0.21819197
0001a0 0e 3a a1 3c 85 71 a6 00 6a 5f 87 bb 6b 5a 9b 3d
       0.019681003 1.5285415e-38 -0.0041312473 0.07585605
0001b0 d0 a2 27 3e cc fc 2d bd 9a 4b 8d be 51 98 10 bd
       0.16370702 -0.042477414 -0.27596742 -0.03530151
0001c0 a5 6d 8e b6 d2 c8 9c 01 f9 4e 5e bd 62 6a 7a 3d
       -4.244694e-06 5.759351e-38 -0.054274533 0.06113661
0001d0 73 38 ee bb 03 f7 6a be 5e af 8b be 8d 4b 99 bd
       -0.007269913 -0.2294579 -0.27282232 -0.07485113
0001e0 21 bf 71 2e 96 5e 2a 00 d8 07 1e 3e 00 5a c9 bd
       5.4966812e-11 3.891022e-39 0.1543268 -0.09831619
0001f0 e9 9e 09 3c a0 76 1b be 69 fe 6a 3e ab cd 03 af
       0.008399704 -0.1518197 0.22948612 -1.1987449e-10
000200 d8 52 c4 34 d2 45 9a ba 12 5a 90 bd 1d f7 b4 bd
       3.6568122e-07 -0.0011770076 -0.070484295 -0.088361956
000210 84 c0 a2 3e 37 80 1b 3e e6 c3 83 3e b3 52 a8 01
       0.31787503 0.15185629 0.25735396 6.183212e-38
000220 26 63 08 81 26 05 1e 00 2c e7 13 aa 2e d4 2d 80
       -2.505039e-38 2.756912e-39 -1.3136427e-13 -4.208713e-39
000230 4e 99 dc b1 47 dc 0f b5 6d 35 9e 81 2d 01 8d 81
       -6.4202714e-09 -5.3592197e-07 -5.8116696e-38 -5.1796907e-38
000240 f7 6d 9f af d4 49 af 01 44 1a 96 81 68 eb 9d b6
       -2.9000066e-10 6.4390785e-38 -5.5138987e-38 -4.7063695e-06
000250 bc b7 9d 01 34 2d ad b7 75 e8 85 80 50 a5 b5 00
       5.793634e-38 -2.0644256e-05 -1.2297511e-38 1.6681528e-38
000260 1c 67 f3 80 04 0e a0 81 a0 66 c3 80 31 43 fd 00
       -2.2353014e-38 -5.879483e-38 -1.7944737e-38 2.3258484e-38
000270 40 a8 03 99 e4 d4 62 80 9c 7a 1e 00 73 ed 92 80
       -6.806519e-24 -9.07625e-39 2.799049e-39 -1.3493163e-38
000280 d4 6b 02 80 d0 3e 12 80 17 aa bc a1 3b 92 b3 01
       -2.22352e-40 -1.675572e-39 -1.2784398e-18 6.5964046e-38
000290 41 68 34 a8 d7 24 fc 00 74 5b 3f 01 52 1f 25 01
       -1.0014614e-14 2.315576e-38 3.5146774e-38 3.0328185e-38
0002a0 a1 c5 f7 00 9c a2 72 80 6f 73 f4 2c c5 53 3b af
       2.2754263e-38 -1.052758e-38 6.947713e-12 -1.7037312e-10
0002b0 90 5e 28 00 6a e1 07 80 5d 6c 98 a4 12 ba 9c 81
       3.707342e-39 -7.23712e-40 -6.6103067e-17 -5.757235e-38
0002c0 b1 09 42 81 4d db 28 b2 6d b8 e8 80 34 04 91 b3
       -3.5639126e-38 -9.82875e-09 -2.1371995e-38 -6.752853e-08
0002d0 25 3e 87 8c 16 fb 8a 38 53 21 03 be 33 d6 a1 3d
       -2.0837445e-31 6.627121e-05 -0.12805681 0.079021834
0002e0 3e 94 e6 bd d5 cd 48 3e c5 ec c1 3d 0c fa 0f 01
       -0.11258744 0.19609769 0.09468988 2.6444352e-38
0002f0 8d 97 2a 2e 00 80 ce 3d b4 d9 26 3e 39 6e f5 3d
       3.878813e-11 0.10083008 0.16293985 0.11983914
000300 a9 a8 01 be ea 20 2c 3e af a2 1d be 78 ce 01 01
       -0.12661995 0.1680943 -0.1539409 2.3841692e-38
000310 4e 42 34 bc 18 84 d6 bd 24 d6 5b bd 8a 84 8b be
       -0.011002136 -0.10474414 -0.053671017 -0.27249557
000320 3f 2b 17 3e 77 e8 8a be 54 ca 19 01 b8 f8 07 81
       0.14762591 -0.27130482 2.8246825e-38 -2.497403e-38
000330 86 d4 4b be e9 d2 62 3e e5 e0 55 bd ab 32 58 3d
       -0.1990529 0.22150768 -0.05221643 0.052782696
000340 a2 a7 24 bd 5c 7d 33 be da 07 4f 80 e7 84 3f bb
       -0.04019893 -0.1752829 -7.257821e-39 -0.0029223503
000350 be f9 10 be 03 31 9b bc c8 6e 5c bd 19 5a 3d be
       -0.14157769 -0.018944269 -0.053816587 -0.18491401
000360 0b c7 82 bd f0 45 5b 00 dd 97 ee 80 4f b2 6f be
       -0.06385621 8.382119e-39 -2.1911326e-38 -0.23407863
000370 cb a7 03 3e f4 78 2e 3e 35 2c 2f be 99 86 87 be
       0.12856977 0.17038327 -0.17106707 -0.26469877
000380 ed 8e ff 3d
       0.12478433

encoder_x.out.bias f4 [15]
000000 4a de 25 ac 83 d9 6a 3c b4 2b bf b6 32 ac 97 3e
       -2.3571305e-12 0.014334085 -5.6973313e-06 0.29623562
000010 fb be 9b bb d7 d1 9b b7 f2 05 8c 3e b7 eb 0a 3e
       -0.0047529913 -1.8575154e-05 0.27348286 0.1356648
000020 f8 43 08 38 b0 fc a2 b9 bc 36 72 b1 9a 68 5f b6
       3.2488228e-05 -0.00031087315 -3.5246748e-09 -3.3290476e-06
000030 85 6f 35 3e aa 33 07 3e ae 82 a8 3c
       0.17718323 0.13203302 0.020570125

encoder_x.fc_mu.weight f4 [5, 15]
000000 2e c1 95 8e 92 de 6d be c5 53 71 31 c1 19 40 3e
       -3.691736e-30 -0.23229435 3.5117733e-09 0.18759824
000010 1b 90 84 80 32 ab 6c 31 57 59 02 be 36 dc 96 bd
       -1.2173981e-38 3.4439833e-09 -0.12729393 -0.07366221
000020 d6 bf 9d 3e 0d a8 03 39 4c e3 48 0c 51 a2 40 81
       0.30810422 0.00012555737 1.5475839e-31 -3.5381287e-38
000030 b6 5e 0d 3e 85 ef 0c be 14 9f 4a be d7 5a 71 14
       0.1380566 -0.13763244 -0.19787246 1.21853056e-26
000040 19 83 9e bd 52 22 9d 39 e8 d2 98 3d 32 ae 07 01
       -0.07739849 0.00029970944 0.07462102 2.4920563e-38
000050 b5 8c 5e b9 0c 42 47 3e 4b 8b 09 be a0 74 3f be
       -0.00021223987 0.19458789 -0.13432042 -0.18696833
000060 b0 4f cf 34 f4 21 4a af f8 34 60 81 d8 50 4d bd
       3.8614735e-07 -1.8383856e-10 -4.1180305e-38 -0.050125927
000070 ea 17 10 3e cf 1c 88 bd 59 b5 f4 82 6e 6d 1f be
       0.14071622 -0.0664612 -3.5956666e-37 -0.15569088
000080 a3 fe a4 81 c1 f6 f8 3d 18 4d 13 81 b4 20 53 16
       -6.060947e-38 0.121564396 -2.7054948e-38 1.7054764e-25
000090 03 a6 06 3e bf 6a 24 be 41 54 a4 3d 0f d8 cc 31
       0.13149266 -0.16056345 0.08023883 5.9617444e-09
0000a0 1b 36 37 81 f2 64 30 81 d6 a6 9f bc a5 54 d9 bd
       -3.365061e-38 -3.239852e-38 -0.019488733 -0.10611848
0000b0 2c 2d 61 be 2e 50 3f 03 8d 30 f8 3d f6 4c d9 00
       -0.21989888 5.6221897e-37 0.12118635 1.9955911e-38
0000c0 c5 1f 06 3e 5f b1 85 01 6b 12 a1 b4 4c c7 22 3e
       0.13098057 4.9111e-38 -3.0001988e-07 0.15896338
0000d0 16 6f 0d be 87 51 6f bc 2c f4 32 a5 7a 46 31 81
       -0.13811907 -0.01460684 -1.5521768e-16 -3.256033e-38
0000e0 68 e2 32 01 cc 00 1a 3e 21 41 33 be 7e 19 5c be
       3.2855875e-38 0.15039366 -0.17505313 -0.214941
0000f0 56 03 d8 01 27 2f 75 3e 84 ad 25 26 46 de 6e 3d
       7.9350656e-38 0.23943768 5.748103e-16 0.058317445
000100 e3 4d 16 00 d5 3a bc 2c e3 2b 76 bd 70 9d f5 3d
       2.048321e-39 5.349813e-12 -0.060100447 0.119929194
000110 e1 e0 c8 3c 9a e2 40 b1 e3 fe 61 0d 64 7d ed 80
       0.024521293 -2.8068485e-09 6.9640287e-31 -2.1809994e-38
000120 c9 6f 5d be 59 eb 31 be 52 ea 4e 3c
       -0.21624674 -0.17374934 0.0126291085

encoder_x.fc_mu.bias f4 [5]
000000 c5 d3 0e be 6d 25 98 bd 22 ae 1e be 98 98 2c be
       -0.13947971 -0.074290134 -0.15496114 -0.16855085
000010 05 99 ff 3c
       0.031200895

encoder_x.fc_log_var.weight f4 [5, 15]
000000 53 a1 32 11 37 dc e4 3d 4b 99 9b 30 e8 27 44 3e
       1.4091436e-28 0.11174815 1.1321303e-09 0.19155848
000010 f6 43 b7 81 ec dc 09 ad bd e3 4f be 67 f8 88 be
       -6.73211e-38 -7.836603e-12 -0.20301719 -0.26752016
000020 dd 27 27 be 10 9e 03 31 02 6d 6b 01 19 c5 01 00
       -0.163238 1.9152857e-09 4.3240892e-38 1.62541e-40
000030 96 8b 5a 3e e2 a3 a8 3d 20 f6 b7 3d 63 a6 4a 82
       0.2134231 0.08234383 0.089824915 -1.4888367e-37
000040 cc 60 5d 3d fe 36 8a 15 37 d8 ef 3d 21 82 6d 80
       0.05404739 5.582452e-26 0.117111616 -1.005675e-38
000050 12 9f 5b 8e 89 2c 12 3b 7a 99 4b bd 3a b7 97 3e
       -2.7070424e-30 0.0022304377 -0.049706914 0.29631978
000060 dc 60 5d 32 d8 f6 9a 81 38 c5 00 81 29 39 15 3c
       1.2885916e-08 -5.692487e-38 -2.3651385e-38 0.009107866
000070 b5 b6 fd 3d 35 ef 05 be 58 f6 33 03 3f 07 a5 3d
       0.12388364 -0.13079531 5.288616e-37 0.08058023
000080 4f 40 99 a9 03 78 98 be a2 ab 86 01 b7 f1 a7 2d
       -6.805721e-14 -0.29779062 4.9470107e-38 1.9093045e-11
000090 dd 5d 09 be 26 18 42 3e b0 ac 7c 3c 62 60 9e 29
       -0.13414712 0.18954524 0.015422031 7.033329e-14
0000a0 16 fb 65 00 d2 72 0c 81 53 4a 32 3e 68 f5 1b be
       9.365458e-39 -2.5796318e-38 0.17411165 -0.15230334
0000b0 4a 21 a8 bd f3 27 a6 81 5d bc f0 3d fb db cb 18
       -0.082094744 -6.1036094e-38 0.117546774 5.2696394e-24
0000c0 cd 94 c8 3d 9c b8 07 01 e3 7f c3 00 9e 9d 96 3d
       0.097940065 2.4928035e-38 1.7953799e-38 0.07354282
0000d0 84 97 ac 3d b6 96 03 3e 1a 38 1e 30 f3 da 60 81
       0.08427337 0.1285046 5.755979e-10 -4.129939e-38
0000e0 de 18 29 81 9f 6f cd bd af f8 5f 3b d2 de 3b 3e
       -3.105824e-38 -0.10031056 0.0034175327 0.18346718
0000f0 ef 00 0c 01 90 ab 06 bd 0b 94 50 84 bb 2b 23 3e
       2.571461e-38 -0.03287846 -2.451826e-36 0.1593465
000100 80 31 64 81 d9 fe b5 05 3f 2a 21 3e 1a 58 b0 3d
       -4.19125e-38 1.7114774e-35 0.15738772 0.08610554
000110 89 4d 30 3e 45 47 12 ad 0e 93 6e 01 0c 3b b5 01
       0.17217077 -8.314964e-12 4.3819203e-38 6.657363e-38
000120 e0 f2 d9 bd 37 8f 22 be 2e 47 9a 3d
       -0.10642028 -0.15874945 0.07533108

encoder_x.fc_log_var.bias f4 [5]
000000 cd d7 46 3d ad 6d 20 be de 55 3b 3e 84 ff eb bd
       0.048545647 -0.15666838 0.18294474 -0.11523345
000010 70 ec 51 be
       -0.2050035

encoder_t.out.weight f4 [15, 15]
000000 7c 66 b7 01 17 34 52 80 d9 15 bf 80 5e c3 da b8
       6.737064e-38 -7.549197e-39 -1.7548417e-38 -0.0001043144
000010 65 24 de 00 4e 0d 0c b9 9f 20 1e b9 ee 73 35 81
       2.0400536e-38 -0.00013356397 -0.00015080207 -3.3327625e-38
000020 22 05 6d 81 bc 27 d9 b8 0c dc 8f 80 14 e2 91 81
       -4.3533708e-38 -0.000103547674 -1.3211414e-38 -5.3588994e-38
000030 c3 7b 27 b9 0a 7a fa 32 f3 ba 46 b9 d5 5f 25 99
       -0.00015972466 2.9159327e-08 -0.00018952395 -8.549653e-24
000040 97 64 21 01 03 3b 80 bc 8b 2c 62 be 3c bc 84 be
       2.96432e-38 -0.015653139 -0.22087304 -0.2592486
000050 d1 08 5b bd d6 43 2d be 52 45 4b 81 8c 53 57 90
       -0.053475205 -0.16920409 -3.7334946e-38 -4.2465636e-29
000060 00 07 9b bd bc fd 24 be 7f ea 64 bd a8 10 4c 3e
       -0.075696945 -0.16112417 -0.055887695 0.19928229
000070 a4 8c 0f 3e 46 6e 3d bb 65 13 3d 00 2f 4a 86 01
       0.14018494 -0.002890484 5.608923e-39 4.9330274e-38
000080 53 2d 41 80 0f f9 86 32 38 b5 92 01 f0 22 8b 31
       -5.985567e-39 1.5712912e-08 5.3891966e-38 4.0494044e-09
000090 b6 76 e4 b2 1e f7 74 81 87 19 49 00 ca ec 77 32
       -2.6596677e-08 -4.499302e-38 6.713149e-39 1.4431132e-08
0000a0 0c a4 13 00 bb 06 5f 80 e7 0b d7 b2 31 cd c8 2d
       1.803723e-39 -8.726787e-39 -2.5034707e-08 2.282849e-11
0000b0 6a fe 3f b3 4b 79 3f 00 88 8e 78 81 41 8b a2 81
       -4.470204e-08 5.829148e-39 -4.5652667e-38 -5.970922e-38
0000c0 c8 06 b6 0c da 5c 32 01 9e c7 22 0c f5 84 82 0d
       2.8045621e-31 3.2760054e-38 1.2540096e-31 8.043877e-31
0000d0 ae 33 21 01 10 f7 7a 00 fb f7 3e 8d 51 c1 60 01
       2.9608108e-38 1.129256e-38 -5.8846766e-31 4.1281e-38
0000e0 9e f2 cd 00 08 d0 9b 0d 19 cb ea 06 25 dc a1 0d
       1.8913311e-38 9.602694e-31 8.831944e-35 9.975389e-31
0000f0 a7 21 38 00 49 46 9a 39 65 dd 2d bb 38 1d 5a 3e
       5.15486e-39 0.00029425535 -0.0026529667 0.21300209
000100 a6 ae aa 3d 19 0b ca 3c 6d 2d 31 be 33 92 7a 2c
       0.08334093 0.024663495 -0.17302485 3.5608294e-12
000110 56 ab bf a3 84 8b 00 be 8a 86 59 3e 64 47 b3 3c
       -2.0780825e-17 -0.12553221 0.21242729 0.021884628
000120 5a 83 68 3d 90 cd fe 3d a9 f0 04 3e 41 14 28 81
       0.05676589 0.12441552 0.1298243 -3.0871258e-38
000130 c1 ad a9 81 db 0b a8 80 70 08 c4 17 2f 92 a5 81
       -6.233012e-38 -1.5432616e-38 1.2668333e-24 -6.082119e-38
000140 48 05 7d 18 b5 85 e8 18 d8 3d ff 00 a0 ed d4 00
       3.270215e-24 6.0105604e-24 2.3440237e-38 1.9554369e-38
000150 64 63 35 18 e4 03 13 00 ce f1 3b 80 3d 92 e0 18
       2.3443881e-24 1.74627e-39 -5.505037e-39 5.8050306e-24
000160 b2 b4 ad 8e 1d 21 a2 18 22 53 de 80 0a 60 5c 96
       -4.2821796e-30 4.1909454e-24 -2.0417303e-38 -1.7801763e-25
000170 3a ee f7 3d cf a3 90 3d e5 ea 7b 3e 3b b6 20 3e
       0.12105985 0.07062494 0.24601324 0.15694515
000180 17 1c 83 3e be 94 26 00 ed 65 2f 82 78 40 15 bd
       0.25607368 3.543107e-39 -1.2886221e-37 -0.036438435
000190 9f 8f e4 bd 6b 1f c9 3d 0d c4 18 be b3 c0 46 be
       -0.11160206 0.098204456 -0.14918537 -0.19409446
0001a0 e7 bd 11 3e 86 78 03 81 68 f1 4f 81 41 fd 2b be
       0.14232598 -2.414737e-38 -3.8193096e-38 -0.16795827
0001b0 d6 6d 9e bc 0f 80 3c 3e 48 fb 10 be 9d b3 70 bd
       -0.019339483 0.18408225 -0.14158356 -0.058765043
0001c0 e0 5e 97 01 70 7e 12 01 0c f5 7c 3e 0f 2a 33 3e
       5.560478e-38 2.690668e-38 0.24702853 0.17496513
0001d0 83 03 d5 bd bd 04 f2 bd 00 be b5 3d f2 41 b3 3d
       -0.104010604 -0.1181731 0.0887413 0.087528124
0001e0 01 96 94 81 c3 ca b3 00 28 45 1b bb 97 97 02 bd
       -5.458186e-38 1.6511291e-38 -0.0023692343 -0.03188285
0001f0 09 da e3 3d 65 f7 ab bd ea 50 f4 bd c5 81 98 01
       0.11125571 -0.08396796 -0.11929496 5.602219e-38
000200 3c 5b 39 80 44 87 75 bc b4 d6 5c b7 eb f6 ef bc
       -5.267352e-39 -0.014985863 -1.3163011e-05 -0.029292544
000210 e0 45 0a bc a1 a5 ff bd 4e 15 f2 3d b4 c6 4f 81
       -0.008439511 -0.12482763 0.1182047 -3.8162458e-38
000220 e6 67 25 36 9e 6b 5c be 2e d1 2d be 28 f9 5e be
       2.4647393e-06 -0.21525428 -0.16974327 -0.21774733
000230 35 d3 62 bb be ec ea 3d ad cd 4f 19 a0 5d d8 1e
       -0.0034610752 0.11470936 1.0743185e-23 2.2908612e-20
000240 6b f4 80 3e 57 25 cf bd 51 08 5f bd f0 b8 83 3e
       0.25186476 -0.10114544 -0.05445129 0.25727034
000250 c6 a7 ef 3d f7 79 94 3e 54 10 26 81 b9 d3 a3 01
       0.11701922 0.28999302 -3.05011e-38 6.018055e-38
000260 9b 65 14 81 5a 8b 2f 3b 26 ec 07 01 9c 9b 50 3d
       -2.7256205e-38 0.002678594 2.4965012e-38 0.05092965
000270 1b d9 c8 3d f6 3d 61 01 56 c8 1e 01 64 d0 a6 3d
       0.098070346 4.1370428e-38 2.916375e-38 0.08145216
000280 8c ec 59 01 db c3 53 80 4e 43 09 bc ff df 4b ba
       4.002632e-38 -7.692606e-39 -0.008377863 -0.00077772135
000290 fb b0 d0 bc 3a 95 6d 80 b4 5e 18 01 da 3a 62 81
       -0.025475016 -1.0063601e-38 2.7985937e-38 -4.1551868e-38
0002a0 cb e6 5a a1 30 9c 25 01 f2 71 50 a4 15 1d 6c b1
       -7.4166725e-19 3.0417773e-38 -4.5199326e-17 -3.4359051e-09
0002b0 f3 76 17 01 d2 28 67 01 3f d5 ca 21 0d ce 63 00
       2.7819662e-38 4.2457286e-38 1.3744498e-18 9.165631e-39
0002c0 f4 ba 3c 80 0e 78 da b2 d3 62 cc 18 ff 53 a5 b5
       -5.577196e-39 -2.5433135e-08 5.283255e-24 -1.2317904e-06
0002d0 2a e5 e8 96 36 fa c0 a4 47 88 6b 3b 3a c9 2f bc
       -3.7626244e-25 -8.36906e-17 0.0035939382 -0.0107291285
0002e0 4d 28 51 3e d5 33 82 bc 1e aa 40 3e 2f 63 ad 81
       0.2042553 -0.015893856 0.18814895 -6.3692485e-38
0002f0 06 3e b7 84 66 31 c1 bd 5d 68 48 be 19 6c 46 bd
       -4.3080053e-36 -0.0943325 -0.19571061 -0.048442934
000300 95 1c 4c be 61 65 6a be 45 d5 d3 3c de 21 da 00
       -0.19932778 -0.22890235 0.02585853 2.0032287e-38
000310 4d d5 d3 00 17 10 99 3c 35 f6 3c be a7 b3 b2 bd
       1.9453808e-38 0.01868443 -0.18453296 -0.08725672
000320 ac 82 9e 81 85 cd 37 bd 48 29 e0 00 a9 fc 83 81
       -5.822754e-38 -0.044873733 2.058596e-38 -4.848435e-38
000330 39 df 81 b8 0e be 98 bd 81 83 91 bd 27 ce d1 80
       -6.192778e-05 -0.07458125 -0.071051605 -1.9267572e-38
000340 c1 3e 33 3d 2c 73 c6 bd 20 1a b9 01 6d 22 63 b7
       0.04376102 -0.09689936 6.7995755e-38 -1.353827e-05
000350 f6 57 17 3e 56 67 fd bd 4b c1 4c 3e 37 b0 a5 3d
       0.14779648 -0.123732254 0.1999561 0.08090251
000360 d2 65 32 3e 6d 53 ef 96 b4 4a b5 81 c2 c6 b7 bc
       0.17421654 -3.8665182e-25 -6.6596093e-38 -0.022433642
000370 df 0e 35 bd 03 72 63 be 2b ff f3 3b 04 df 0d be
       -0.044203635 -0.22211461 0.00744619 -0.13854605
000380 bb 6d 41 be
       -0.18889515

encoder_t.out.bias f4 [15]
000000 21 92 40 b9 38 a6 95 3d 02 c0 9c b3 98 9e 2a 8e
       -0.00018364984 0.07307094 -7.299242e-08 -2.1030478e-30
000010 cf de ea 3d 34 86 28 99 65 9e 30 3e 44 aa 15 3e
       0.114682786 -8.7124985e-24 0.17247923 0.14615732
000020 bb 4c fb bc 1a 33 45 3e e6 25 21 be 5a 39 b0 b8
       -0.030676236 0.19257775 -0.15737113 -8.4030165e-05
000030 84 fe 83 3e 5c 94 d3 3d 88 b9 40 3e
       0.25780118 0.10331032 0.18820775

encoder_t.fc_mu.weight f4 [1, 15]
000000 5d 50 ce b7 0c 50 da 3d c7 16 51 32 f1 ac 40 0d
       -2.4594536e-05 0.10659799 1.217058e-08 5.937274e-31
000010 c3 d3 82 be 10 4c 0d 99 22 55 e1 bd 34 00 8b bd
       -0.25552186 -7.30489e-24 -0.11002566 -0.06787148
000020 45 d4 3a be 65 ae 6b be a5 63 31 3c e0 31 df b9
       -0.18245037 -0.23015745 0.01082698 -0.00042571034
000030 75 85 4b 3d cf 12 0b 3c d6 08 eb 3d
       0.04968782 0.008488371 0.11476295

encoder_t.fc_log_var.weight f4 [1, 15]
000000 7c 82 7a 37 b7 3f 86 3e 0b 90 ae 30 da 47 ef 0b
       1.4931542e-05 0.26220486 1.2701106e-09 9.216756e-32
000010 ae 2f 95 3e ea 82 e2 98 62 56 21 be d1 a8 17 3d
       0.2913794 -5.855182e-24 -0.15755609 0.03702623
000020 0e d5 3d 3d 82 ec bf bd fd 7f 97 bc 9c ba 96 39
       0.046345763 -0.09371282 -0.018493647 0.00028749264
000030 89 40 94 3e 2e 1d ff ae 82 43 4c bd
       0.28955486 -1.1601241e-10 -0.049869068

encoder_yf.out.weight f4 [15, 15]
000000 19 98 7a 00 d3 02 4f 29 4d 32 8e bd ba b4 d4 3d
       1.1258493e-38 4.5965683e-14 -0.06943188 0.10386033
000010 62 49 83 3d 76 50 63 3e e6 50 35 bd 56 ec 73 01
       0.06410481 0.22198662 -0.044266604 4.4801614e-38
000020 d6 9b 33 80 e1 6d 13 3e e3 75 e5 bd 09 c7 9c 3d
       -4.739514e-39 0.14397384 -0.11204126 0.076551504
000030 f4 61 75 3e f6 98 fc 3d 7f 05 6a be 16 46 19 80
       0.23963147 0.123338625 -0.22853659 -2.32103e-39
000040 29 65 e9 b5 d3 af 4a be e1 94 93 3e 4f 81 3b be
       -1.7389294e-06 -0.19793634 0.28824523 -0.18311046
000050 2b b2 9d 3e 08 4d 5b bd ec 64 78 a0 6c e8 05 a5
       0.30799994 -0.05354026 -2.1039809e-19 -1.1614659e-16
000060 fa 2b 70 3d e2 2c 8d bd 9f 56 1e be 58 97 9a 3e
       0.05863569 -0.06893326 -0.15462731 0.3019359
000070 6a d0 fc bd 01 6e 3b 3e c1 eb 7e 81 10 07 99 9d
       -0.12344439 0.18303682 -4.6821577e-38 -4.0506065e-21
000080 78 eb ac 3c e4 47 01 be e5 7f 9b bd 96 d5 e9 3d
       0.021108374 -0.1262508 -0.07592753 0.114176914
000090 e5 1b 37 3a 3d 82 85 81 e2 69 9e 01 20 6f d6 3d
       0.00069850526 -4.9043367e-38 5.819197e-38 0.10470414
0000a0 5f c9 22 be d6 ce ff 3d 06 00 de 3d 8c 1b 86 be
       -0.1589713 0.12490623 0.10839848 -0.26192892
0000b0 f9 be 32 bd 2e 0a 6f 00 01 39 90 2f 2f ea e4 3d
       -0.043639157 1.0197392e-38 2.623395e-10 0.111774795
0000c0 a8 2d b6 3d 0f 8b 8d bd 6b f1 2c 3d 91 d9 dd bd
       0.08895427 -0.06911289 0.04222242 -0.10832513
0000d0 4c 3a 85 80 5a 5f 4a 01 c3 c6 0b bd 38 18 83 be
       -1.2235034e-38 3.7169952e-38 -0.0341251 -0.25604415
0000e0 ef 79 d5 bd b2 be 49 be d9 6d e2 bc 4b b5 0f bd
       -0.104236476 -0.1970165 -0.02764027 -0.035085004
0000f0 68 a7 2a 80 d5 cd 6f a9 44 f8 13 3e 86 48 62 3e
       -3.917145e-39 -5.324719e-14 0.14450175 0.22097978
000100 17 e2 8b 3d d6 20 0d 3e 6d 9b 50 be b2 f3 1c 81
       0.068302326 0.13782057 -0.2037179 -2.8827518e-38
000110 64 a7 4d 81 bc 03 f0 bc 00 fe 12 3d 80 62 0a 3d
       -3.777265e-38 -0.029298656 0.035886765 0.033785343
000120 fc 20 90 be 6f 0b 8c 3d 76 a0 15 3e cc 98 04 81
       -0.28150165 0.06838118 0.14611992 -2.4354197e-38
000130 44 eb a4 01 51 4f b2 01 e2 e3 37 00 c3 e3 05 01
       6.0581675e-38 6.5500687e-38 5.132701e-39 2.4591653e-38
000140 25 5e 46 00 f2 31 1b 9a 79 1b 9d 01 46 0b 31 01
       6.462257e-39 -3.2093594e-23 5.7712113e-38 3.2517854e-38
000150 a6 fc 6b 01 49 1c 20 00 b4 d1 98 80 d9 a4 97 9e
       4.334395e-38 2.948883e-39 -1.4034223e-38 -1.6055926e-20
000160 4d cb 32 81 ce 4b 05 a8 ea 52 07 80 3c 77 25 80
       -3.2839298e-38 -7.399421e-15 -6.72592e-40 -3.440687e-39
000170 24 4d 2a 01 dd a8 4d 80 5e 91 a1 01 5b 15 ce 0f
       3.1279414e-38 -7.13191e-39 5.935065e-38 2.0321394e-29
000180 18 de e7 a3 de db 9d 80 8f 76 88 81 24 e4 2c 06
       -2.513913e-17 -1.4497046e-38 -5.0128633e-38 3.2517216e-35
000190 ae ab 78 01 a8 19 73 81 bd 03 a6 a7 7d 64 13 01
       4.567358e-38 -4.4650459e-38 -4.607831e-15 2.7071733e-38
0001a0 50 71 82 ad fe b3 1e 01 5f d2 36 37 5f 2a 0a be
       -1.482961e-11 2.9149155e-38 1.0897026e-05 -0.13492726
0001b0 0b 99 c7 3c 84 3e 07 bc 2f 50 22 3d 53 3c 73 3e
       0.024364969 -0.008254651 0.03962725 0.2375348
0001c0 ab c0 8d a4 9e bf 00 a3 a3 ed 67 bd c9 83 19 3e
       -6.1475395e-17 -6.9794704e-18 -0.056623112 0.14991678
0001d0 cf be 80 3c c1 47 26 3e f9 fc 2c 3d d4 e2 a2 bd
       0.015715985 0.1623831 0.04223344 -0.0795342
0001e0 80 eb 96 00 90 76 56 00 3c c7 aa 81 dc 81 e7 3d
       1.3859806e-38 7.940385e-39 -6.2734025e-38 0.113040656
0001f0 7c 8f 53 3b 58 ff fd 3d d6 b8 48 3e d5 0e 5f 81
       0.0032281568 0.124022186 0.1960176 -4.0969273e-38
000200 be 31 74 01 c5 3e 0a be 9e 25 26 81 b5 f0 e7 95
       4.485141e-38 -0.13500507 -3.0516374e-38 -9.3679926e-26
000210 4c 64 ba bd e5 f2 cb 3b b8 7a f1 3d a4 6c 02 01
       -0.09101161 0.0062240236 0.11790985 2.3955175e-38
000220 65 6c f5 36 d0 fd 8a 3d 62 de ee bd 9e 8d 78 bd
       7.3141878e-06 0.06786692 -0.1166351 -0.06068193
000230 99 9a 82 be 5e 26 83 be 69 e2 9f 8e 02 94 9c 82
       -0.25508574 -0.2561521 -3.941455e-30 -2.3007092e-37
000240 8b 1c 04 3e 76 9a c1 3c e5 22 b3 3c 03 f0 15 3e
       0.12901513 0.023633223 0.021867225 0.14642338
000250 ba ff 12 be 1f 14 30 3e 4b 0e 11 81 63 1b 7d 01
       -0.14355364 0.17195176 -2.6642549e-38 4.648841e-38
000260 4e be 14 00 3e 33 35 34 71 2a 1d 01 72 2e af b4
       1.904978e-39 1.687558e-07 2.8866796e-38 -3.2630084e-07
000270 1d 0d c1 b4 46 05 b6 01 9d 30 de 00 4a 29 18 b5
       -3.5958593e-07 6.686381e-38 2.040492e-38 -5.6684496e-07
000280 db 9d 22 01 e1 52 1d 80 71 06 1b b5 0c e1 83 ae
       2.9867956e-38 -2.692961e-39 -5.7751373e-07 -5.9971667e-11
000290 c9 eb c1 b5 aa 6c 69 81 6c 12 49 a8 00 21 50 3e
       -1.4448243e-06 -4.2873304e-38 -1.1161736e-14 0.20325089
0002a0 d7 82 80 bd 11 de 64 3e b1 f7 1f bb 1e ad 15 be
       -0.06274956 0.22350337 -0.002440911 -0.1461682
0002b0 72 a5 6c 81 12 4c 7a 00 4c b6 ae 3d 49 48 44 3e
       -4.3465055e-38 1.123122e-38 0.08530864 0.191682
0002c0 58 3e 50 3e e1 e3 0c 3e 1b 29 9d 3d a3 02 33 be
       0.20336282 0.13758804 0.07673856 -0.17481475
0002d0 cc 3a 96 81 96 e8 26 01 cc 62 b1 80 74 6c dd 10
       -5.5185667e-38 3.0656257e-38 -1.6290324e-38 8.733623e-29
0002e0 99 dd d6 00 ec 89 1f 9f 59 8c 83 ad 18 29 03 01
       1.973229e-38 -3.3783646e-20 -1.4955303e-11 2.4090383e-38
0002f0 1d 31 bc 81 24 78 82 15 41 79 66 80 24 8a 31 81
       -6.913077e-38 5.269613e-26 -9.410718e-39 -3.2608877e-38
000300 f5 fb 65 af c4 fe 36 01 78 5e e4 b2 9e 5a 1d 81
       -2.0916942e-10 3.3610906e-38 -2.6585653e-08 -2.890136e-38
000310 7d d3 65 01 96 08 ce 80 1e 36 aa b4 9b a7 8e 81
       4.2212393e-38 -1.8921192e-38 -3.1704343e-07 -5.2403064e-38
000320 02 ab 0e b8 49 05 07 ba 1f 13 b9 01 38 74 3f 00
       -3.40147e-05 -0.0005150629 6.7985705e-38 5.827328e-39
000330 28 3f 40 38 90 36 b2 00 79 fe 26 00 f3 4a c4 b9
       4.5835186e-05 1.6366292e-38 3.581036e-39 -0.00037439875
000340 60 51 48 21 0c fe c3 ba f0 2c 75 80 a2 0e 68 81
       6.7870335e-19 -0.0014953031 -1.0760874e-38 -4.262217e-38
000350 8b 80 d0 80 6f 45 35 80 10 8f 39 00 78 49 8f 01
       -1.9147896e-38 -4.89219e-39 5.285944e-39 5.2635326e-38
000360 55 e0 b0 80 e4 46 51 01 c6 bd 22 01 f0 63 62 81
       -1.6243522e-38 3.84381e-38 2.9890857e-38 -4.1581346e-38
000370 61 6e 45 81 27 e1 04 00 06 2d 8a 01 a0 4e 5c 80
       -3.6262378e-38 4.48111e-40 5.07578e-38 -8.477071e-39
000380 ad b0 8d 85
       -1.3324477e-35

encoder_yf.out.bias f4 [15]
000000 14 1a 70 3d 60 30 9d 3e f4 b8 0b 3d 23 08 66 3d
       0.05861862 0.3070097 0.034111932 0.056160104
000010 88 f1 97 3a 50 5a 76 b0 e2 99 93 b3 eb 32 82 3e
       0.0011592368 -8.962262e-10 -6.873212e-08 0.25429472
000020 f6 c6 bc bd 41 83 5c 3e 2e eb ad 35 16 69 9c bd
       -0.09217636 0.21534444 1.2957951e-06 -0.07637231
000030 86 76 fa b6 d7 ab fb bb 4d d0 23 a1
       -7.4643785e-06 -0.007680397 -5.550223e-19

encoder_yf.fc_mu.weight f4 [1, 15]
000000 ec d2 83 3d 8a 68 73 be 87 05 9e bc db dc 09 3d
       0.064367145 -0.23770347 -0.019289745 0.03365789
000010 cc 0f 5d 3d 78 d5 84 35 d0 68 43 b2 77 25 3d be
       0.053970143 9.896894e-07 -1.13743255e-08 -0.18471323
000020 a7 e9 85 3d 18 ef 0a 3e 48 30 be 34 e6 98 ab 3d
       0.06538706 0.1356777 3.5425387e-07 0.083787724
000030 99 a5 24 3a d8 5e c8 80 b3 97 90 ac
       0.00062807795 -1.8401123e-38 -4.109568e-12

encoder_yf.fc_log_var.weight f4 [1, 15]
000000 c8 05 2a be 00 4e 1d 3d 2e 1e c5 bc 41 1c 9c 3d
       -0.16603768 0.038404465 -0.024062242 0.076225765
000010 f9 85 c7 bd fb b6 a5 2c e3 ca 03 24 6e 2f 25 be
       -0.0974235 4.709897e-12 2.857795e-17 -0.16131374
000020 84 0a a4 be 4c 61 37 be 17 8c 1a 35 f7 9b 92 bd
       -0.32039273 -0.1790821 5.757333e-07 -0.07158654
000030 10 4b d0 06 72 22 10 28 d1 fb 5d 05
       7.83512e-35 8.001075e-15 1.04376214e-35
