DR_Info_CFR/IHDP/Models/dr_net_y1.pth (torch, 123563 bytes, 5 tensors)

hidden1_Y0.weight f4 [100, 200]
0.01798205 -0.02265752 -0.03680471 -0.042661928 0.057598576 -0.061251793 -0.041034617 0.018364787
-0.03781562 0.036972422 -0.025787728 -0.072549134 0.026060335 0.019122409 -0.009969351 -0.04317615
0.03651019 -0.036032718 -0.05646496 0.057264775 0.0009965647 0.003695757 0.031082148 0.06426557
0.0048231413 0.0008827553 -0.016068012 0.060330693 -0.019771459 0.014088447 0.036551658 -0.057448313
0.012852992 -0.018947724 -0.0057287645 -0.014251082 -0.06530524 0.023217136 0.02942823 0.0014932355
-0.006902834 -0.0072266753 0.018388534 0.011713749 0.048379473 -0.046472285 -0.027017392 -0.057756554
0.02874819 -0.050973725 -0.054646354 0.046228763 0.049884666 -0.051066708 -0.0008586236 0.032183062
-0.007747418 0.0036505174 1.3551682e-05 0.050375663 0.023759015 -0.058771722 0.014445721 0.0016449904
-0.051512823 -0.030572103 -0.0019133085 -0.05916758 -0.053787306 0.043142535 0.031030659 0.045117404
-0.035356812 0.058132198 -0.032082886 -0.0173768 0.025849914 0.010217746 -0.021745738 0.0083412165
0.04143259 -0.016211001 0.028061904 -0.056760833 0.045053568 0.019611927 -0.03654121 0.020677084
-0.029336361 0.017422635 0.031412404 0.022572653 0.012469899 -0.026982915 0.03263057 0.026780771
0.001210503 -0.039837085 0.007837397 0.032353297 0.05577956 -0.028064871 -0.04657133 0.01985321
-0.03312787 0.018253276 0.059613988 0.014977037 -0.0030463776 -0.0012374003 0.05121447 0.042517625
-0.015671568 0.032270256 0.010439948 0.022982728 -0.033901148 -0.06902518 -0.00912277 0.03352345
-0.05013443 0.013390476 -0.021487813 -0.07728465 0.051977806 0.021234773 0.0073109106 -0.0008601177
0.025650224 0.02952953 -0.04228154 -0.048562687 0.04579061 0.029187247 0.055315133 0.0587596
-0.011183157 0.018711533 0.04477774 0.0041022603 0.057790827 0.044203237 -0.052696288 -0.05065876
0.054572273 0.060200024 -0.057228923 -0.03591259 -0.06990965 -0.034813683 -0.0029635774 -0.00079282135
-0.042041566 -0.04240274 -0.06357259 0.06364461 0.015531707 0.02400791 0.027257696 -0.042968247
-0.05742757 -0.05536519 -0.00044548896 0.023978584 0.040102787 0.04649897 -0.05480151 0.056459595
0.045396816 -0.024824506 -0.019399982 -0.019232407 0.017619 0.0034338054 -0.019713974 0.03266825
-0.06588537 -0.029941961 -0.016869288 0.030362535 0.0022200893 -0.014211169 -0.03232841 0.04936738
0.050288346 -0.017919682 -0.053070575 0.051467318 0.062195357 -0.06040447 0.04300179 0.00020373051
-0.008546992 0.049198847 0.018686177 0.0032367501 -0.0028508296 -0.061431125 -0.028823318 -0.062722035
0.045347594 -0.06987586 -0.004927168 -0.033800885 0.009203461 0.07772271 0.01894922 0.03349557
-0.05331312 0.07869453 -0.018530488 -0.06570693 -0.045508087 -0.03642801 0.07501605 0.0053531
0.07250728 -0.00800089 -0.028612865 0.05696257 -0.058509395 0.061652064 0.03732373 0.025028374
-0.0014551767 -0.05363068 -0.0031157876 -0.017799098 -0.019737702 0.03510558 -0.06533955 -0.06820842
0.07553947 0.008425633 -0.074784145 0.03217264 0.008548478 0.03877077 0.064051606 -0.08079297
0.01675569 -0.06784254 0.026124882 0.051984712 0.029650828 0.041156486 0.06557919 -0.053007048
0.013198891 0.024230257 0.031217225 0.055927187 0.021275664 0.062116165 -0.026983423 0.07102763
00000000: 184f 933c 439c b9bc 89c0 16bd 46be 2ebd
00000010: 7cec 6b3d 29e3 7abd ea13 28bd c071 963c
00000020: 8de4 1abd 6570 173d c940 d3bc a494 94bd
00000030: 7c7c d53c 99a6 9c3c 7d56 23bc 7ad9 30bd
00000040: b68b 153d 0b97 13bd cd47 67bd 788e 6a3d
00000050: 2a9f 823a 8334 723b fd9f fe3c ab9d 833d
00000060: 710b 9e3b b568 673a 10a1 83bc 511d 773d
00000070: c1f7 a1bc 3bd3 663c 31b7 153d ec4e 6bbd
00000080: 5b95 523c 4238 9bbc 5cb8 bbbb 5f7d 69bc
00000090: c1be 85bd dd31 be3c 7913 f13c abb8 c33a
000000a0: 2b31 e2bb bfcd ecbb 8da3 963c 06eb 3f3c
000000b0: 8e29 463d b959 3ebd 9453 ddbc 2392 6cbd
000000c0: 5381 eb3c d3c9 50bd dbd4 5fbd 5f5a 3d3d
000000d0: dd53 4c3d 532b 51bd 4115 61ba 63d2 033d
000000e0: 0dde fdbb 853d 6f3b 085c 6337 b656 4e3d
000000f0: 44a2 c23c 9eba 70bd bfad 6c3c b89c d73a
00000100: 1cff 52bd 5972 fabc fbc7 faba b459 72bd
00000110: 1450 5cbd 3ab6 303d 0234 fe3c 07cd 383d
00000120: 4ed2 10bd 071c 6e3d 5869 03bd ca59 8ebc
00000130: 33c3 d33c 5568 273c 1e24 b2bc 99a9 083c
00000140: 38b5 293d efcc 84bc 14e2 e53c 0c7e 68bd
00000150: 178a 383d 31a9 a03c 3cac 15bd fd62 a93c
00000160: cf52 f0bc eab9 8e3c 4baa 003d 49ea b83c
00000170: 8c4e 4c3c 460b ddbc a2a7 053d 5963 db3c
00000180: bea9 9e3a 362c 23bd 6d68 003c e484 043d
00000190: 1c79 643d 4de8 e5bc 94c1 3ebd 33a3 a23c
000001a0: 17b1 07bd e587 953c cc2d 743d 3f62 753c
000001b0: bca5 47bb 4430 a2ba 44c6 513d f626 2e3d
000001c0: a961 80bc d12d 043d 510c 2b3c 4646 bc3c
000001d0: eedb 0abd 135d 8dbd ac77 15bc e34f 093d
000001e0: c359 4dbd ba63 5b3c 3607 b0bc 6a47 9ebd
000001f0: aee6 543d 8cf4 ad3c 5d90 ef3b 8679 61ba
00000200: 6b20 d23c eae7 f13c 682f 2dbd abe9 46bd
00000210: ef8e 3b3d 181a ef3c 1f92 623d e8ad 703d
00000220: 8f39 37bc ee48 993c dd68 373d 416c 863b
00000230: 13b6 6c3d 740e 353d 10d8 57bd 8f7f 4fbd
00000240: 2d87 5f3d 4d94 763d e068 6abd 1419 13bd
00000250: ca2c 8fbd cb98 0ebd 9438 42bb 57d5 4fba
00000260: c733 2cbd 7fae 2dbd 5932 82bd 1b58 823d
00000270: b378 7e3c 3dac c43c 884b df3c 79ff 2fbd
00000280: 2c39 6bbd 9cc6 62bd 8490 e9b9 bc6e c43c
00000290: d242 243d b475 3e3d 8c77 60bd 2d42 673d
000002a0: 03f2 393d c35c cbbc b6ec 9ebc 488d 9dbc
000002b0: b955 903c b209 613b 337f a1bc 25cf 053d
000002c0: e9ee 86bd d848 f5bc 7631 8abc daba f83c
000002d0: eb7e 113b f7d5 68bc cb6a 04bd 7335 4a3d
000002e0: 27fb 4d3d 4ccc 92bc 8860 59bd 65cf 523d
000002f0: 8fc0 7e3d ad6a 77bd a522 303d 7ea0 5539
00000300: af08 0cbc bb84 493d c113 993c a81f 543b
00000310: fcd4 3abb 349f 7bbd e11e ecbc 6974 80bd
00000320: 66be 393d 131b 8fbd 1574 a1bb cc72 0abd
00000330: 1dca 163c 162d 9f3d 653b 9b3c a732 093d
00000340: dc5e 5abd 992a a13d 40cd 97bc 5b91 86bd
00000350: b066 3abd 8935 15bd 04a2 993d 0f69 af3b
00000360: b27e 943d 2a16 03bc 8765 eabc 9551 693d
00000370: 8ca7 6fbd e086 7c3d c4e0 183d 4e08 cd3c
00000380: a1bb beba d8ab 5bbd 3e32 4cbb 6acf 91bc
00000390: f6b0 a1bc deca 0f3d bed0 85bd dbb0 8bbd
000003a0: 70b4 9a3d ab0b 0a3c 6e28 99bd 75c7 033d
000003b0: ea0e 0c3c 19ce 1e3d 7d2d 833d c976 a5bd
000003c0: 3b43 893c 08f1 8abd d903 d63c eced 543d
000003d0: 4be6 f23c b493 283d 624e 863d eb1d 59bd
000003e0: 2940 583c 887e c63c 44bb ff3c e813 653d
000003f0: 4d4a ae3c 856d 7e3d 570c ddbc ef76 913d

hidden1_Y0.bias f4 [100]
-0.01685329 0.06491769 -0.015402419 0.07905292 -0.07844388 -0.06796814 0.03644519 -0.016149776
0.0087169325 -0.04409596 0.056605645 0.07649688 0.046705022 0.023877308 -0.008387454 0.06876828
-0.07049654 -0.065213375 -0.056216985 -0.033066522 -0.011419757 -0.011836354 -0.077739604 0.06647943
0.021528428 0.04443708 -0.011754448 -0.03177282 0.07298313 0.06630561 0.050163623 0.0644764
-0.010295534 0.030729614 0.031146653 -0.050256353 -0.04960036 0.02754932 -0.024767654 -0.08420002
0.030998124 -0.012604778 0.06340814 -0.03930161 0.030214548 -0.0011772036 -0.033554886 -0.07627109
-0.026352331 -0.05871183 -0.012133023 -0.023033755 0.022754045 -0.044583715 0.033236913 0.030196123
-0.043680247 0.049861785 -0.023187941 0.031257585 -0.04754305 0.038931523 0.077079386 -0.030069338
-0.076502085 -0.07742218 0.06420525 -0.034845147 0.04691956 -0.066898905 -0.04566454 -0.02557947
0.0324952 -0.038861156 0.075159565 0.00068063434 -0.04041287 -0.029521083 -0.04404648 0.04835956
0.052194115 0.027672403 -0.05942714 -0.01780437 -0.015138757 0.022252832 -0.084782355 -0.044625435
0.039739832 0.046105836 -0.019473612 0.024690865 -0.026327394 0.061479874 0.024821235 0.01249346
-0.029010532 0.03164372 -0.06452555 0.010911847
00000000: e90f 8abc 91f3 843d 6d5a 7cbc 7fe6 a13d
00000010: 2fa7 a0bd e132 8bbd 8d47 153d 894c 84bc
00000020: 77d1 0e3c f79d 34bd 52db 673d 65aa 9c3d
00000030: c44d 3f3d 589a c33c 886b 09bc 62d6 8c3d
00000040: 7d60 90bd 978e 85bd c843 66bd c370 07bd
00000050: ef19 3bbc 44ed 41bc f135 9fbd 5e26 883d
00000060: 635c b03c a803 363d ba95 40bc 3724 02bd
00000070: 2e78 953d 3ccb 873d 5f78 4d3d 340c 843d
00000080: 99ae 28bc acbc fb3c 4427 ff3c 9bd9 4dbd
00000090: bf29 4bbd 1daf e13c 89e5 cabc 0f71 acbd
000000a0: c7ef fd3c 4584 4ebc 20dc 813d bafa 20bd
000000b0: 8084 f73c 664c 9aba d970 09bd 0434 9cbd
000000c0: d8e0 d7bc d17b 70bd 96c9 46bc 49b1 bcbc
000000d0: b166 ba3c 6a9d 36bd 6e23 083d dc5d f73c
000000e0: 0fea 32bd df3b 4c3d a3f4 bdbc f407 003d
000000f0: 80bc 42bd a976 1f3d ccdb 9d3d f953 f6bc
00000100: 20ad 9cbd 858f 9ebd 0b7e 833d c9b9 0ebd
00000110: b92e 403d 4b02 89bd be0a 3bbd 098c d1bc
00000120: b019 053d e02c 1fbd 42ed 993d 996c 323a
00000130: f787 25bd 33d6 f1bc 156a 34bd ad14 463d
00000140: 7fc9 553d 3cb1 e23c df69 73bd 78da 91bc
00000150: 8d08 78bc 924b b63c 5fa2 adbd 29c9 36bd
00000160: 3cc6 223d 79d9 3c3d 2087 9fbc 7f44 ca3c
00000170: 8cac d7bc 52d2 7b3d e755 cb3c 5fb1 4c3c
00000180: 7fa7 edbc d89c 013d f925 84bd 9bc7 323c

hidden2_Y0.weight f4 [100, 100]
0.040016774 -0.09170674 -0.10349982 -0.01795301 0.05018216 -0.05481428 0.054002356 0.010219635
0.058208346 -0.064588 -0.00860581 0.001881838 -0.07737972 -0.01165519 0.0003410912 0.057504613
-0.06201 -0.082924135 -0.10094429 0.028652072 -0.00039013097 0.06404369 -0.0783269 -0.0028145576
0.07135387 -0.010300358 -0.051100336 0.071634896 -0.06334752 0.028559927 0.07820692 0.024449691
0.03070383 -0.040471014 -0.004144107 0.096529804 0.09202549 0.03989297 0.04361676 -0.04624726
-0.07642767 -0.105420716 -0.06312703 -0.0021349506 -0.08725401 0.095467575 -0.103626035 -0.06747066
0.059020042 -0.04725124 -0.074154064 0.021297112 0.0984052 -0.0365414 0.019905662 -0.01664709
1.941288e-05 -0.040901475 0.06846372 0.08239478 -0.023270963 0.038587295 0.04067629 0.09079325
9.425363e-05 0.037486687 0.048744615 0.0055280146 -0.09139298 0.015063289 0.06383566 -0.044599943
0.08450384 -0.0871747 0.056147434 -0.06728419 -0.045101225 -0.073956266 0.0903084 -0.011738299
-0.03416024 -0.05679017 0.06813696 0.041197564 -0.03624013 -0.013154907 -0.03495469 -0.029934848
0.047474716 0.09774711 0.09271847 -0.015853073 0.0039114617 -0.019129286 0.06506389 -0.06539955
-0.05269683 0.018948603 -0.08560422 0.05094114 0.061319713 -0.06790709 0.03799833 -0.04738139
-0.011945556 -0.037066054 -0.07589551 0.07021214 0.0074152704 0.06442054 -0.031489626 0.04251827
0.09520156 -0.0014173463 -0.02008414 0.07886282 0.034002908 0.035917666 -0.08339936 -0.050599214
-0.009339041 0.041493148 -0.05819224 -0.016274652 0.046372775 0.025830593 -0.022256505 -0.0022471184
0.023886604 0.042232115 0.03567033 0.06633024 0.052015077 0.052917533 -0.059467126 -0.025706382
0.050243355 -0.04090081 0.028965862 0.0755946 0.08283022 0.08771269 0.077050395 0.012051165
0.027329616 0.057381604 0.038727794 -0.0041131857 -0.061274376 -0.049090277 0.08981532 0.0661201
-0.04805921 -0.021573775 -0.0006692858 0.023982236 0.042692162 -0.066034324 -0.045463555 0.038297273
-0.0010791182 -0.05454817 0.004756788 -0.06270619 0.033093464 -0.040353112 -0.011111777 0.017769301
-0.043166965 0.06715207 0.055196088 -0.08278381 -0.043861263 0.08335782 0.05863578 0.007422311
0.010466801 0.05309621 0.006763803 -0.02091876 -0.035965245 0.07976337 -0.0011062715 -0.08100115
0.038362984 0.022310657 -0.04839879 -0.097565114 -0.028130433 0.05729304 -0.03939113 -0.01284669
-0.05620182 0.075900994 0.07400771 -0.05979298 -0.007978463 -0.056558963 -0.04177698 -0.04692424
0.056503594 0.043021794 -0.007719945 -0.06340666 -0.008833647 -0.015772391 0.06293308 0.04397898
-0.064893246 0.040266752 0.036641497 -0.076636344 -0.0027662842 0.019836005 0.08466781 -0.00479385
0.011252817 0.067005806 0.032975946 0.032233674 -0.03140884 -0.058344353 -0.0725266 -0.036987748
-0.038134217 0.038865715 -0.025309274 -0.041729923 0.028165082 0.044643156 0.016465649 0.011905607
-0.05137771 -0.047282852 -0.016856378 -0.008920667 0.016727569 0.041466177 0.04097911 0.04251652
-0.05192361 0.061535582 0.00077652687 -0.0794737 0.02205434 -0.0055048866 0.05481439 0.045363944
0.045570735 -0.026357505 -0.034144748 -0.07882284 -0.022049563 0.018811006 -0.009826888 -0.0841534
00000000: a1e8 233d bed0 bbbd b7f7 d3bd 3112 93bc
00000010: cf8b 4d3d f084 60bd 9331 5d3d 4270 273c
00000020: e06b 6e3d b746 84bd 62ff 0cbc 01a8 f63a
00000030: 4279 9ebd 69f5 3ebc 7cd4 b239 f589 6b3d
00000040: 33fe 7dbd 21d4 a9bd e1bb cebd c0b7 ea3c
00000050: 7e8a ccb9 5729 833d db69 a0bd 7174 38bb
00000060: fa21 923d d5c2 28bc 964e 51bd 51b5 923d
00000070: 58bc 81bd 82f6 e93c f32a a03d b84a c83c
00000080: 9986 fb3c efc4 25bd 4acb 87bb 6bb1 c53d
00000090: dc77 bc3d d066 233d 7da7 323d c46d 3dbd
000000a0: 1c86 9cbd d1e6 d7bd bf48 81bd 87ea 0bbb
000000b0: 3bb2 b2bd 8184 c33d e339 d4bd 0f2e 8abd
000000c0: 00bf 713d 848a 41bd 16de 97bd 4877 ae3c
000000d0: aa88 c93d 6fac 15bd 3311 a33c 7a5f 88bc
000000e0: d8d8 a237 4e88 27bd b536 8c3d 98be a83d
000000f0: bfa2 bebc b60d 1e3d 2e9c 263d d0f1 b93d
00000100: 08aa c538 a48b 193d 6fa8 473d 5924 b53b
00000110: 3e2c bbbd 03cc 763c 45bc 823d 6eae 36bd
00000120: 5910 ad3d a688 b2bd dafa 653d 4bcc 89bd
00000130: 10bc 38bd 6276 97bd 9cf3 b83d ff51 40bc
00000140: 9ceb 0bbd cf9c 68bd 648b 8b3d c7be 283d
00000150: 8870 14bd ae87 57bc a62c 0fbd ed39 f5bc
00000160: d974 423d a32f c83d 2ee3 bd3d 4ede 81bc
00000170: b82b 803b 05b5 9cbc 3740 853d 33f0 85bd
00000180: a2d8 57bd 1a3a 9b3c 4451 afbd a8a7 503d
00000190: 612a 7b3d df12 8bbd 23a4 1b3d fd12 42bd
000001a0: 4bb7 43bc 93d2 17bd 1b6f 9bbd 62cb 8f3d
000001b0: ccfb f23b ebee 833d 44fb 00bd a327 2e3d
000001c0: 09f9 c23d 40c6 b9ba 7f87 a4bc d582 a13d
000001d0: a246 0b3d 671e 133d 49cd aabd 1f41 4fbd
000001e0: c702 19bc b8f4 293d fc5a 6ebd 6b52 85bc
000001f0: 61f1 3d3d ae9a d33c 4653 b6bc 6444 13bb
00000200: d7ad c33c 95fb 2c3d 0d1b 123d 26d8 873d
00000210: c30d 553d 0ec0 583d cd93 73bd 3196 d2bc
00000220: facb 4d3d 9c87 27bd d149 ed3c 57d1 9a3d
00000230: e4a2 a93d b6a2 b33d 99cc 9d3d 4072 453c
00000240: 5ce2 df3c f908 6b3d 09a1 1e3d e7c7 86bb
00000250: d7fa 7abd e312 49bd 18f1 b73d fa69 873d
00000260: bcd9 44bd 7cbb b0bc 0273 2fba 6576 c43c
00000270: fadd 2e3d 013d 87bd fe37 3abd 9add 1c3d
00000280: 3371 8dba e76d 5fbd d4de 9b3b 1a6c 80bd
00000290: 038d 073d 4e49 25bd 2c0e 36bc ed90 913c
000002a0: d8cf 30bd 0687 893d 4b15 623d 8f8a a9bd
000002b0: dea7 33bd 81b7 aa3d 122c 703d dc36 f33b
000002c0: f27c 2b3c 697b 593d e4a2 dd3b d25d abbc
000002d0: 4b50 13bd fa5a a33d 5000 91ba eee3 a5bd
000002e0: 8122 1d3d d7c4 b63c cf3d 46bd 38d0 c7bd
000002f0: cb71 e6bc 1bac 6a3d 9858 21bd ec7a 52bc
00000300: e133 66bd fb71 9b3d 5b91 973d 7ce9 74bd
00000310: 19b8 02bc 5faa 67bd 571e 2bbd a233 40bd
00000320: 5070 673d 9f37 303d 98f7 fcbb 5adb 81bd
00000330: 00bb 10bc 1a35 81bc 0fe3 803d 4e23 343d
00000340: c0e6 84bd c0ee 243d 6515 163d 84f3 9cbd
00000350: 8c4a 35bb 1e7f a23c 5166 ad3d ba15 9dbb
00000360: bc5d 383c 573a 893d c911 073d 7507 043d
00000370: 8ea6 00bd 7dfa 6ebd d388 94bd 7780 17bd
00000380: a032 1cbd a831 1f3d 6555 cfbc ffec 2abd
00000390: 75ba e63c bedb 363d f8e2 863c bc0f 433c
000003a0: 6f71 52bd aaab 41bd 6316 8abc fd27 12bc
000003b0: 4108 893c 70d8 293d b6d9 273d cd25 2e3d
000003c0: daad 54bd bc0c 7c3d d68f 4b3a 1bc3 a2bd
000003d0: 4eab b43c 5662 b4bb 0e85 603d 8bcf 393d
000003e0: 61a8 3a3d b2eb d7bc 5ddb 0bbd de6d a1bd
000003f0: 49a1 b4bc 8a19 9a3c f500 21bc 9e58 acbd

hidden2_Y0.bias f4 [100]
-0.0066837487 0.0498124 -0.047240276 -0.0807222 0.034680746 0.033453185 -0.08696027 -0.01072698
-0.027213758 -0.058386784 -0.0005136412 -0.04116371 -0.1051585 -0.006748455 -0.03571219 -0.04309997
0.00028235596 0.045856066 -0.052584324 0.060386885 -0.06925397 0.00434611 0.06626859 -0.049423575
-0.006541411 -0.04117916 -0.009167258 -0.07630149 0.09006086 0.050369147 0.016879149 0.005263087
-0.025991548 0.09627842 0.063626826 -0.05096871 -0.03820747 0.07183815 -0.031197019 0.080422565
-0.055459224 0.03455652 0.0617776 -0.032247122 -0.06582974 0.011317883 -0.102181025 0.03233814
0.04619105 -0.079330094 0.102578916 -0.06295036 0.010655569 0.037964884 -0.067139395 0.010490673
-0.09266138 -0.023612076 0.057966385 -0.093502216 0.0035173963 -0.023973385 0.10424853 -0.0058407434
-0.09201251 -0.019120159 -0.05192567 -0.051415123 -0.103960164 -0.037383426 0.02991729 -0.056264058
-0.023474183 0.07015995 -0.041544627 0.05724379 -0.024515077 -0.031153932 -0.024759756 0.030808115
-0.030771533 -0.06539842 -0.09027326 0.08780793 0.057295058 -0.045240846 0.055064153 0.05841224
-0.10845754 -0.06820262 0.029353436 -0.033450358 -0.07835145 -0.0623965 -0.03386825 0.015485045
-0.056154087 -0.025814619 0.05475518 0.11253591
00000000: 5903 dbbb 1608 4c3d 057f 41bd ae51 a5bd
00000010: 660d 0e3d 3506 093d 3a18 b2bd 37c0 2fbc
00000020: 63ef debc fb26 6fbd e1a5 06ba 479b 28bd
00000030: 575d d7bd 2522 ddbb f246 12bd 9889 30bd
00000040: 2d09 9439 92d3 3b3d a962 57bd 3d58 773d
00000050: 07d5 8dbd d069 8e3b d4b7 873d 6070 4abd
00000060: 5559 d6bb 7bab 28bd 4432 16bc f543 9cbd
00000070: d471 b83d e14f 4e3d 2446 8a3c f975 ac3b
00000080: 3aec d4bc 9f2d c53d c84e 823d 91c4 50bd
00000090: 707f 1cbd e11f 933d e490 ffbc 96b4 a43d
000000a0: 3629 63bd 238b 0d3d 820a 7d3d 8f15 04bd
000000b0: bed1 86bd a46e 393c 4944 d1bd ff74 043d
000000c0: d432 3d3d d177 a2bd e514 d23d 1eec 80bd
000000d0: b294 2e3c 1181 1b3d 6180 89bd 12e1 2b3c
000000e0: 40c5 bdbd 1d6e c1bc 296e 6d3d 177e bfbd
000000f0: 1e84 663b d563 c4bc 4180 d53d b563 bfbb
00000100: 0e71 bcbd e1a1 9cbc 03b0 54bd aa98 52bd
00000110: 11e9 d4bd 5d1f 19bd 1b15 f53c 2475 66bd
00000120: ee4c c0bc 05b0 8f3d b32a 2abd 7778 6a3d
00000130: d8d3 c8bc 8836 ffbc f9d4 cabc 4d61 fc3c
00000140: 9514 fcbc 9bef 85bd 30e1 b8bd a5d4 b33d
00000150: 39ae 6a3d 774e 39bd f38a 613d ac41 6f3d
00000160: fd1e debd d1ad 8bbd 9e76 f03c 3e03 09bd
00000170: ba76 a0bd 7993 7fbd 6fb9 0abd fcb4 7d3c
00000180: d401 66bd 2e79 d3bc f846 603d 3a79 e63d

out_Y0.weight f4 [1, 100]
-0.0703216 0.00855573 -0.0013408272 0.090019636 -0.022628862 -0.067169316 -0.040645957 0.0064028124
0.011515775 -0.001445112 0.046283167 0.005791872 -0.09241882 -0.03198324 -0.07261729 -0.023171194
-0.025498988 -0.065581724 -0.04470413 0.09106033 0.051093567 0.02417629 -0.040685456 -0.030436719
-0.00860651 -0.05880234 0.059897006 -0.094747655 0.106985256 0.10924169 0.0029921348 0.097968936
-0.08471701 0.03851091 0.05168695 0.07105871 0.06769969 -0.09774579 -0.034689143 -0.0864248
-0.01897563 -0.013579225 0.06381586 0.026536489 -0.08082293 0.029074442 -0.072286144 -0.029675582
0.06013168 -0.033035673 0.077992536 -0.09458117 0.033678368 -0.049022827 0.022704972 0.09704768
-0.06544131 0.038540356 -0.012492405 -0.08356347 -0.06984805 -0.044728376 0.03139782 -0.061757788
-0.0012256637 0.01987826 -0.0005083772 -0.048064254 -0.054350086 0.05624332 -0.057114176 -0.0033417235
-0.08810253 0.02170053 -0.020713603 -0.0054554245 -0.0003146492 -0.091067456 0.08909838 -0.035272166
0.0932538 -0.067316845 -0.024542829 0.036175616 -0.026894148 0.08179311 -0.014764362 -0.030918464
-0.05424068 0.04436006 0.005415349 0.017828103 0.0009501339 0.03975212 -0.057704378 0.095992655
0.0676015 0.095002614 0.013754893 0.04190071
00000000: c504 90bd 552d 0c3c b2be afba 375c b83d
00000010: 2a60 b9bc 1190 89bd 607c 26bd afce d13b
00000020: a9ac 3c3c ea69 bdba 6b93 3d3d bec9 bd3b
00000030: 1446 bdbd dc00 03bd 60b8 94bd 84d1 bdbc
00000040: 41e3 d0bc b64f 86bd ae1b 37bd d77d ba3d
00000050: 7d47 513d 5b0d c63c cba5 26bd 6d56 f9bc
00000060: 5202 0dbc b9da 70bd 9056 753d 0f0b c2bd
00000070: 161b db3d 1bba df3d b117 443b f0a3 c83d
00000080: 1d80 adbd 9ebd 1d3d b2b5 533d 3b87 913d
00000090: 23a6 8a3d f22e c8bd 3416 0ebd 7cff b0bd
000000a0: c872 9bbc 667b 5ebc e4b1 823d 0d63 d93c
000000b0: 7e86 a5bd 862d ee3c c20a 94bd 351a f3bc
000000c0: a34c 763d 6a50 07bd 8dba 9f3d c6b3 c1bd
000000d0: 54f2 093d 29cc 48bd c7ff b93c efc0 c63d
000000e0: 1806 86bd 7edc 1d3d f2ac 4cbc 5323 abbd
000000f0: 7f0c 8fbd 1a35 37bd 009b 003d bcf5 7cbd
00000100: 73a6 a0ba bcd7 a23c 9e44 05ba 06df 44bd
00000110: 329e 5ebd 655f 663d 8ef0 69bd d100 5bbb
00000120: 196f b4bd 4fc5 b13c 93af a9bc 6bc3 b2bb
00000130: 80f7 a4b9 9381 babd 3679 b63d 8c79 10bd
00000140: d9fb be3d 6add 89bd 0b0e c9bc e22c 143d
00000150: 1e51 dcbc 2583 a73d 39e6 71bc b848 fdbc
00000160: 7a2b 5ebd e5b2 353d 3d73 b13b 3e0c 923c
00000170: 6812 793a 1ed3 223d 6d5b 6cbd cc97 c43d
00000180: a872 8a3d bb90 c23d 345c 613c 14a0 2b3d
