DR_Info_CFR/IHDP/Models/dr_net_y0.pth (torch, 123563 bytes, 5 tensors)

hidden1_Y1.weight f4 [100, 200]
-0.03441514 0.018172173 -0.044283003 -0.042927507 0.0322989 0.024710508 -0.04360331 -0.0070125675
0.007004675 -0.043155037 -0.01560877 -0.025398249 -0.051737927 0.015831148 -0.03824056 -0.030758806
-0.05654053 0.018193139 -0.009104729 -0.030569598 -0.05008152 0.0037788788 0.07212601 -0.009469622
-0.038200263 0.03871111 0.08501026 -0.011769762 0.041940577 -0.031606823 0.037145972 0.037386253
0.041254703 0.02782424 -0.027547738 -0.02616839 -0.06095422 0.002736673 -1.558637e-05 -0.0004761743
-0.015713945 0.0002811986 0.042810746 -0.051179558 -0.013712158 0.015034534 0.035399687 -0.018185874
-0.084100716 0.015199593 -0.014971608 0.045799494 0.008165894 -0.017536087 0.02187902 -0.015941814
-0.018217996 -0.040921256 -0.0072647994 -0.00018277478 -0.040113598 -0.06806473 -0.055737212 0.07937861
-0.016408162 0.029113863 0.014475527 -0.009732986 0.009974915 -0.025585761 -0.04271415 0.026442163
-0.008411853 0.02398896 -0.014670019 0.0797851 0.04761963 -0.038312763 -0.025924847 0.007876636
0.016955994 0.07193704 0.06906525 -0.023701137 -0.0072909277 0.079164326 -0.0062628374 -0.042521324
-0.018840062 -0.019456867 -0.021676399 0.033746988 0.0036454871 -0.04983967 0.034097094 -0.056310996
0.03686832 -0.021616781 0.0105416505 0.02887865 0.063375756 -0.005095369 0.016095826 0.0045504943
0.047538612 0.024704104 0.023510901 0.051179036 -0.002464486 -0.026992306 0.024703395 -0.018189257
-0.08052147 0.04753694 -0.0018167289 0.021387786 -0.017572718 -0.04643843 -0.022372354 0.0035065194
0.018708935 -0.009752282 0.012305599 -0.013807388 0.01759621 0.029581621 0.039804667 0.03297216
0.045574654 -0.026779825 0.020676093 -0.02139317 0.04373993 0.08174652 -0.025656257 0.068567395
0.008996641 -0.013445867 0.055410992 -0.05822799 0.01791524 0.030046986 0.07920812 0.012201135
-0.011141085 0.0020648476 -0.008076672 -0.06194581 -0.072854996 -0.07183755 0.031538405 -0.0017736385
-0.06544203 0.01970443 -0.083148755 -0.026276618 0.008399943 0.046013996 0.08462858 0.075276926
-0.042582378 -0.014481511 -0.064278305 -0.008139807 0.019194962 0.0816715 0.015754793 0.02012879
-0.019965947 0.0042814617 -0.019108063 -0.048857838 0.0579624 0.047991328 0.06619433 -0.060242936
-0.026607996 -0.041798737 0.04314251 0.037796576 0.03093603 0.046775874 -0.038985897 -0.0791873
0.020349395 0.049753923 0.001182502 0.078553826 0.067148834 0.021420889 -0.008047047 0.0202706
0.06803504 0.022479095 -0.057486318 -0.014039022 -0.06082094 0.029491462 0.012797626 -0.022513298
0.006547158 -0.06073954 -0.032089088 0.0777144 0.012503088 -0.07866667 -0.07305233 0.06293666
0.041409317 -0.08708503 0.0084617995 -0.057719987 -0.013086448 0.013289353 0.020634163 -0.019285737
-0.0096970145 0.087680876 -0.0360969 -0.005725344 0.04500718 0.0051835245 -0.028247451 -0.058648467
0.021695027 0.06555899 -0.02864659 -0.08062082 0.06595618 -0.044735655 0.034345962 0.07394387
-0.0062000155 -0.022931295 0.041771244 -0.08569465 0.042621147 -0.08387101 0.009045612 0.05212702
0.091336705 0.041404128 -0.029120015 0.03453447 -0.07002862 0.00986601 0.026426459 -0.057306778
-0.0011640381 -0.05698993 0.003096474 -0.044342928 0.016275357 0.015232122 -0.040279347 -0.041556865
00000000: e4f6 0cbd cfdd 943c 1862 35bd c1d4 2fbd
00000010: da4b 043d b16d ca3c 6299 32bd aec9 e5bb
00000020: 7987 e53b 56c3 30bd edbb 7fbc fd0f d0bc
00000030: 26eb 53bd 53b0 813c 22a2 1cbd e4f9 fbbc
00000040: 0b97 67bd c709 953c 002c 15bc 186d fabc
00000050: 4822 4dbd 11a7 773b cdb6 933d 7926 1bbc
00000060: e177 1cbd 8a8f 1e3d dc19 ae3d f6d5 40bc
00000070: e2c9 2b3d 2876 01bd 6026 183d 5422 193d
00000080: b1fa 283d a9ef e33c cbab e1bc 175f d6bc
00000090: 22ab 79bd c159 333b 7abf 82b7 08a7 f9b9
000000a0: 88ba 80bc d66d 9339 525a 2f3d a8a1 51bd
000000b0: f6a8 60bc 6853 763c 43ff 103d 8bfa 94bc
000000c0: ff3c acbd b707 793c 7a4b 75bc 4098 3b3d
000000d0: 3eca 053c d7a7 8fbc a13b b33c 6898 82bc
000000e0: e83d 95bc 0c9d 27bd 8e0d eebb 3ba7 3fb9
000000f0: 284e 24bd 8565 8bbd b44c 64bd 4191 a23d
00000100: 696a 86bc 3280 ee3c c32a 6d3c 1a77 1fbc
00000110: d36d 233c 3b99 d1bc 08f5 2ebd 3c9d d83c
00000120: ded1 09bc 7f84 c43c 855a 70bc 5f66 a33d
00000130: cd0c 433d d8ed 1cbd 5860 d4bc 020d 013c
00000140: 4ce7 8a3c ba53 933d 1572 8d3d e328 c2bc
00000150: bce8 eebb e820 a23d 7d38 cdbb d72a 2ebd
00000160: 7956 9abc 0264 9fbc b492 b1bc 483a 0a3d
00000170: 20e9 6e3b af24 4cbd 65a9 0b3d 5ca6 66bd
00000180: 3c03 173d ad15 b1bc e3b6 2c3c eb92 ec3c
00000190: 26cb 813d 0ef7 a6bb 65db 833c 501c 953b
000001a0: d9b7 423d 4360 ca3c ef99 c03c 1ca1 513d
000001b0: 3783 21bb f81e ddbc c65e ca3c a301 95bc
000001c0: 71e8 a4bd 18b6 423d 4e1f eeba 7035 af3c
000001d0: a9f4 8fbc 3936 3ebd 3a46 b7bc a2cd 653b
000001e0: 7b43 993c 09c8 1fbc 6c9d 493c 6238 62bc
000001f0: ed25 903c 2855 f23c 380a 233d d10d 073d
00000200: 7dac 3a3d 5d61 dbbc e960 a93c bb40 afbc
00000210: a428 333d b86a a73d 122d d2bc 106d 8c3d
00000220: a666 133c 0e4c 5cbc a3f6 623d 7980 6ebd
00000230: fbc2 923c 1925 f63c de37 a23d 45e7 473c
00000240: 1989 36bc 6552 073b 0554 04bc e4ba 7dbd
00000250: 0035 95bd 911f 93bd 6a2e 013d 6f79 e8ba
00000260: 7906 86bd 2f6b a13c e549 aabd 1042 d7bc
00000270: ea9f 093c 2c79 3c3d c051 ad3d ca2a 9a3d
00000280: dc6a 2ebd dc43 6dbc 58a4 83bd d35c 05bc
00000290: c13e 9d3c 6343 a73d 3210 813c 22e5 a43c
000002a0: a08f a3bc 814b 8c3b 8388 9cbc 281f 48bd
000002b0: fb69 6d3d 8e92 443d e590 873d 4cc1 76bd
000002c0: 03f9 d9bc 2735 2bbd 33b6 303d 95d0 1a3d
000002d0: 8f6d fd3c 0f98 3f3d adaf 1fbd f32c a2bd
000002e0: c6b3 a63c c5ca 4b3d 2ffe 9a3a d4e0 a03d
000002f0: 5485 893d dc7a af3c c3d7 03bc 880e a63c
00000300: f455 8b3d 1426 b83c c676 6bbd ed03 66bc
00000310: 611f 79bd 1498 f13c 22ad 513c cf6d b8bc
00000320: 8b89 d63b 06ca 78bd d96f 03bd ba28 9f3d
00000330: c1d9 4c3c fe1b a1bd 769c 95bd f0e4 803d
00000340: d19c 293d a359 b2bd 5ca3 0a3c cb6b 6cbd
00000350: 8b68 56bc 96bb 593c fa08 a93c 1ffd 9dbc
00000360: 3ae0 1ebc 0892 b33d 58da 13bd ab9b bbbb
00000370: 7359 383d 8eda a93b 3367 e7bc 6039 70bd
00000380: c5b9 b13c cb43 863d 41ac eabc 871c a5bd
00000390: 0914 873d bc3c 37bd 5aae 0c3d e26f 973d
000003a0: 8029 cbbb 69da bbbc 5318 2b3d ad80 afbd
000003b0: 8393 2e3d 90c4 abbd 0c34 143c 2483 553d
000003c0: bd0e bb3d 6097 293d 198d eebc 0474 0d3d
000003d0: 2a6b 8fbd 0ca5 213c 4d7c d83c 83ba 6abd
000003e0: a392 98ba 466e 69bd 37ee 4a3b eea0 35bd
000003f0: e653 853c 2690 793c f5fb 24bd 8837 2abd

hidden1_Y1.bias f4 [100]
-0.055094603 0.015499282 -0.024516806 0.031461652 -0.0338185 -0.04993936 -0.08877622 -0.069281414
-0.03547483 -0.063420475 0.034680195 0.07807008 -0.028894559 9.5206495e-05 0.027328061 -0.041881848
0.03348814 -0.02046037 -0.016661827 -0.074352466 -0.01525877 0.02157789 0.054594103 -0.078623645
-0.06870277 -0.050271127 -0.039789215 -0.02007137 0.03015667 -0.062616624 0.046995904 0.06391086
-0.008983264 0.031456903 0.051962886 0.029162085 -0.067316495 -0.0067016245 0.079040825 -0.051765997
-0.009907275 -0.06415479 -0.0852485 0.057560448 0.015174267 -0.04991869 0.010772063 -0.018956492
0.061957672 -0.06991351 0.0846763 0.046069566 -0.020130638 0.07516167 -0.051571727 0.03579083
0.03932776 0.028471729 -0.044520542 -0.04297193 0.0048110597 -0.08410496 -0.016440783 0.03423616
-0.016959738 0.015750086 0.03476212 -0.025269492 -0.01217203 0.040087674 -0.01378802 -0.05979298
-0.037984062 -0.0356886 -0.054216165 0.081519485 0.060289215 0.06879882 -0.005248733 0.034379832
0.072617225 -0.047463473 -0.014429868 0.00667588 0.016864894 0.05090115 0.040404674 0.04236564
0.085036084 0.012356225 0.022590993 -0.05662959 -0.01650736 -0.025368009 -0.037998732 0.021226326
-0.038124118 0.06256379 0.0061405203 -0.03848469
00000000: e1aa 61bd b3f0 7d3c 78d7 c8bc efdd 003d
00000010: 4485 0abd 378d 4cbd 4fd0 b5bd 6ae3 8dbd
00000020: 0e4e 11bd 98e2 81bd d20c 0e3d 35e3 9f3d
00000030: 48b4 ecbc 99a9 c738 19df df3c 4d8c 2bbd
00000040: dc2a 093d 829c a7bc 627e 88bc 1b46 98bd
00000050: ecff 79bc 1dc4 b03c 119e 5f3d 6f05 a1bd
00000060: 0ab4 8cbd 19e9 4dbd 04fa 22bd b76c a4bc
00000070: 1f0b f73c 253d 80bd c77e 403d b2e3 823d
00000080: 8a2e 13bc f4d8 003d 09d7 543d 53e5 ee3c
00000090: 3bdd 89bd 4d99 dbbb 28e0 a13d 9508 54bd
000000a0: 2052 22bc 9663 83bd c496 aebd 81c4 6b3d
000000b0: 7d9d 783c 8a77 4cbd 4f7d 303c a54a 9bbc
000000c0: 54c7 7d3d d02e 8fbd c56a ad3d 71b3 3c3d
000000d0: 02e9 a4bc 5dee 993d e03c 53bd 6899 123d
000000e0: 2516 213d 8b3d e93c 2c5b 36bd 5603 30bd
000000f0: 18a6 9d3b 393f acbd d2ae 86bc 373b 0c3d
00000100: 26ef 8abc 5306 813c ba62 0e3d f701 cfbc
00000110: 326d 47bc f932 243d 26e7 61bc 7ce9 74bd
00000120: 2d95 1bbd 362e 12bd c511 5ebd b0f3 a63d
00000130: d3f1 763d 65e6 8c3d 90fd abbb ded1 0c3d
00000140: 57b8 943d 0f69 42bd 416b 6cbc 57c1 da3b
00000150: 3f28 8a3c b97d 503d 5f7f 253d 9887 2d3d
00000160: 6627 ae3d c471 4a3c bf10 b93c 6ef4 67bd
00000170: 713a 87bc 92d0 cfbc 8fa4 1bbd d5e2 ad3c
00000180: 0928 1cbd 7221 803d 6b36 c93b 1fa2 1dbd

hidden2_Y1.weight f4 [100, 100]
0.010907627 -0.06498334 -0.047035623 -0.0026677563 0.05831189 -0.051416636 0.0539556 -0.038023427
-0.0066196625 -0.014684846 0.030276014 0.025478654 0.022796012 -0.075920835 -0.020766824 0.018577052
0.08029224 0.03506609 0.026226658 -0.02283751 -0.029131843 0.0024005645 -0.051318485 -0.0040083216
0.09738949 0.062325433 0.066846244 0.011048949 -0.058055304 -0.062331412 0.04344858 -0.057253934
0.073560774 0.108442254 0.05306632 0.05477683 0.038061 -0.016847683 -0.041684736 0.04596954
0.08318931 0.023455389 0.06500089 -0.06693525 0.025366154 -0.04724599 -0.006756719 0.044874225
0.02859065 0.041850608 0.03131089 0.070234604 0.042362668 -0.058064476 0.106442645 -0.027811425
0.046388846 -0.091381274 -0.061473478 0.08178455 -0.0041815755 -0.05512204 0.07442319 -0.022975111
-0.058352083 -0.061385274 -0.08289025 -0.027713405 -0.094777204 0.0835888 0.025863195 0.11227413
-0.05249008 0.045057986 -0.01625119 0.01714004 0.017953202 -0.103142224 -0.07012233 0.03341755
-0.0032294984 0.024161562 0.097393356 0.011974087 0.09801139 0.061941583 -0.08301346 0.03706744
-0.00034223485 0.037351213 -0.028394897 0.06653935 0.013814032 0.0014897644 0.0048691253 0.010256176
0.03299149 0.05662215 0.07706863 0.062863536 -0.060293026 0.021090697 0.041540883 0.09640739
-0.05099443 0.081656866 -0.062098224 -0.014449489 -0.03144705 0.019402605 0.09012717 0.09061122
0.090567596 0.0724934 0.026716143 0.02753291 -0.068631135 0.010335377 0.0046725776 0.030184068
-0.0065941243 -0.013009206 0.09519201 0.04435956 -0.04211571 -0.036099747 -0.03359793 0.06536117
0.06354391 -0.04109715 -0.09419368 0.037289243 -0.09133873 -0.07235576 0.022491153 -0.014933627
-0.045144014 0.050024558 0.09219073 -0.0549637 0.055629704 -0.10230211 -0.000703901 -0.006034013
0.080729 0.06311322 -0.08319592 0.0439171 0.04355418 -0.047724795 0.06149822 0.016034996
0.07553822 -0.03350209 -0.038582485 -0.00648518 0.033206813 0.035489593 -0.04954547 0.008326869
-0.0064387135 0.016569907 -0.051648643 -0.037956424 -0.037236404 0.08742945 0.0033502802 -0.08531093
0.021320054 -0.075676955 -0.008718224 0.06476708 0.080121465 0.06479 0.046284642 -0.011199757
0.05281226 -0.08175179 0.09072487 0.04485306 -0.0856806 -0.08876916 0.089366995 0.01420601
0.009905828 0.056648534 -0.030094344 0.04645318 0.009176383 -0.017096972 -0.07056013 -0.10844839
0.002156974 0.00621976 -0.07984997 -0.060268465 -0.060063876 -0.055171303 0.06490823 0.047775507
0.07681487 0.0029045122 -0.07277488 0.09832286 0.056863002 0.024078183 -0.09240806 -0.10002762
0.06290229 0.07311345 -0.064334914 0.016749792 -0.052123994 -0.0631531 0.04844276 0.005991022
0.10361137 0.09212272 -0.0943649 -0.055450566 -0.033059232 -0.024844768 0.047340993 0.05642915
-0.0787733 -0.06906401 -0.08536552 -0.11110734 -0.070263796 -0.014482977 0.07455453 0.0491899
0.067403175 -0.0100645935 -0.01640817 0.041585624 0.0063778046 0.01952488 -0.04124934 0.024011368
0.0042232214 -0.082488045 -0.077202454 -0.08930694 0.032999363 -0.053996287 0.09073124 -0.0014174688
0.07220161 0.060382508 0.02103038 -0.01213311 0.08118598 -0.077951655 -0.0018846109 -0.051537924
00000000: e7b5 323c fc15 85bd 6da8 40bd 86d5 2ebb
00000010: 73d8 6e3d 409a 52bd 8c00 5d3d 74be 1bbd
00000020: c1e9 d8bb b598 70bc 6705 f83c 9cb8 d03c
00000030: b4be ba3c 627c 9bbd 301f aabc e72e 983c
00000040: 4270 a43d 76a1 0f3d 4ad9 d63c bb15 bbbc
00000050: e7a5 eebc ca52 1d3b 5533 52bd 3d58 83bb
00000060: 2474 c73d f448 7f3d afe6 883d a706 353c
00000070: 66cb 6dbd 394f 7fbd 23f7 313d 1a83 6abd
00000080: 08a7 963d f916 de3d 125c 593d ab5d 603d
00000090: dae5 1b3d 2704 8abc 9dbd 2abd 8e4a 3c3d
000000a0: 285f aa3d 8425 c03c 301f 853d 5915 89bd
000000b0: aecc cf3c 0385 41bd 7867 ddbb 09ce 373d
000000c0: f036 ea3c 8b6b 2b3d d93f 003d 29d7 8f3d
000000d0: 7a84 2d3d 04d5 6dbd 9afe d93d c9d4 e3bc
000000e0: 3b02 3e3d 1b26 bbbd 9dcb 7bbd a87e a73d
000000f0: 9905 89bb a6c7 61bd 2f6b 983d 4d36 bcbc
00000100: 9802 6fbd 206f 7bbd 5dc2 a9bd 3907 e3bc
00000110: 8d1a c2bd 9b30 ab3d 0ddf d33c fbef e53d
00000120: d7ff 56bd b98e 383d 3721 85bc 4569 8c3c
00000130: 9812 933c 3b3c d3bd 4c9c 8fbd d7e0 083d
00000140: fea5 53bb 78ee c53c 2b76 c73d f62e 443c
00000150: 32ba c83d 75b6 7d3d f602 aabd 07d4 173d
00000160: fc6d b3b9 96fd 183d 6a9c e8bc c845 883d
00000170: 4054 623c 3344 c33a 2f8d 9f3b 8509 283c
00000180: 1622 073d a1ec 673d 28d6 9d3d 99be 803d
00000190: d2f5 76bd 66c6 ac3c c626 2a3d 3d71 c53d
000001a0: 89df 50bd b73b a73d b55a 7ebd 8dbd 6cbc
000001b0: 9fce 00bd 36f2 9e3c 9894 b83d 6092 b93d
000001c0: 817b b93d 6b77 943d d0db da3c b38c e13c
000001d0: 7b8e 8cbd b755 293c 6c1c 993b 9444 f73c
000001e0: 8613 d8bb 9124 55bc 07f4 c23d 5fb2 353d
000001f0: 8681 2cbd 54dd 13bd fc9d 09bd 14dc 853d
00000200: 4f23 823d 7c55 28bd 9ee8 c0bd 9bbc 183d
00000210: cd0f bbbd 422f 94bd 5e3f b83c 2cac 74bc
00000220: eee8 38bd 8de6 4c3d 7ece bc3d 9e21 61bd
00000230: f9db 633d c583 d1bd ff85 38ba f8b8 c5bb
00000240: 3f55 a53d 8141 813d 9f62 aabd 6be2 333d
00000250: de65 323d 137b 43bd 8fe5 7b3d d35b 833c
00000260: c8b3 9a3d 7d39 09bd ab08 1ebd a281 d4bb
00000270: de03 083d 895d 113d 31f0 4abd 6c6d 083c
00000280: d8fb d2bb 9dbd 873c 878d 53bd 3278 1bbd
00000290: 3385 18bd 360e b33d 6090 5b3b 7fb7 aebd
000002a0: 65a7 ae3c 85fc 9abd e2d6 0ebc 9aa4 843d
000002b0: b916 a43d 9fb0 843d f794 3d3d 307f 37bc
000002c0: ab51 583d 7c6d a7bd f6cd b93d d8b7 373d
000002d0: 4f79 afbd 9bcc b5bd 0b06 b73d 53c0 683c
000002e0: 0e4c 223c 4b08 683d 6a88 f6bc b145 3e3d
000002f0: 8a58 163c f30e 8cbc d481 90bd 311a debd
00000300: 055c 0d3b 21cf cb3b 6288 a3bd 11dc 76bd
00000310: 8a05 76bd 4efb 61bd 9bee 843d 40b0 433d
00000320: 1d51 9d3d a159 3e3b ff0a 95bd 7f5d c93d
00000330: 2ee9 683d 9c3f c53c 7040 bdbd 48db ccbd
00000340: ead2 803d 81bc 953d 06c2 83bd dc36 893c
00000350: f87f 55bd 6a56 81bd ea6b 463d 5650 c43b
00000360: 3332 d43d d6aa bc3d 6242 c1bd 2220 63bd
00000370: 1e69 07bd 4187 cbbc a1e8 413d 4122 673d
00000380: e553 a1bd 6f71 8dbd 1ed4 aebd 3f8c e3bd
00000390: 77e6 8fbd 024a 6dbc 0cb0 983d 597b 493d
000003a0: ad0a 8a3d f7e5 24bc 6d6a 86bc b055 2a3d
000003b0: e7fc d03b a4f2 9f3c 11f5 28bd 7db3 c43c
000003c0: f362 8a3b 7eef a8bd 521c 9ebd 8fe6 b6bd
000003d0: 572a 073d 362b 5dbd 4dd1 b93d 5cca b9ba
000003e0: 70de 933d a653 773d e747 ac3c f4c9 46bc
000003f0: d644 a63d 1ea5 9fbd 0c05 f7ba 6e19 53bd

hidden2_Y1.bias f4 [100]
-0.101625964 -0.06188026 0.082819246 0.037802782 0.08371688 0.11708859 0.048123837 0.03772963
-0.038518462 -0.10769007 -0.0273341 0.07717211 -0.050885342 0.060546853 -0.05508324 0.024784986
-0.07448496 0.031594597 0.020319013 -0.029630056 0.069111854 -0.007028579 0.07388782 -0.0052269716
0.006824168 0.08163504 0.10717051 -0.04170372 0.0488514 0.0826724 -0.07261986 -0.015376468
0.04996393 0.076762296 -0.053634174 0.013160232 -0.059231658 -0.025010113 0.072768785 0.040444802
0.021513095 0.047608502 -0.03847417 5.1230963e-05 -0.051133532 -0.09503266 -0.022909755 0.089099064
-0.07691423 -0.0019488977 0.10379738 -0.08713508 -0.057665303 -0.0066676317 -0.071490735 0.075409874
0.056663793 -0.06530017 -0.04588644 0.08916124 0.018492108 0.014572609 -0.04432158 -0.05317743
0.02994929 -0.04540831 0.085717104 0.08065235 -0.057093244 -0.03133566 0.021247571 -0.057756856
0.087670356 0.08998532 0.08414788 0.062130455 -0.060875375 0.0918703 -0.01772465 -0.05242348
-0.0062194727 -0.025517026 0.007988342 -0.019027742 -0.056008518 -0.04068211 0.022991857 -0.032284375
-0.018988144 0.022880632 0.090945095 0.091337316 -0.09891324 0.053400956 -0.106542096 -0.020988932
-0.04320058 0.062212743 -0.009839957 -0.058900137
00000000: 4621 d0bd 2876 7dbd 239d a93d 17d7 1a3d
00000010: c173 ab3d 25cc ef3d 801d 453d 628a 1a3d
00000020: 89c5 1dbd 9d8c dcbd c3eb dfbc 690c 9e3d
00000030: 266d 50bd faff 773d f79e 61bd e209 cb3c
00000040: 928b 98bd 5669 013d 0f74 a63c bbba f2bc
00000050: 848a 8d3d fe4f e6bb 7f52 973d 0447 abbb
00000060: 459d df3b 4630 a73d 367c db3d 85d1 2abd
00000070: 6818 483d 2650 a93d b9b9 94bd 95ed 7bbc
00000080: faa6 4c3d 8d35 9d3d 82af 5bbd 049e 573c
00000090: e59c 72bd 02e2 ccbc cd07 953d 73a9 253d
000000a0: 3b3c b03c 2201 433d 1797 1dbd d4e0 5638
000000b0: 6571 51bd 7ca0 c2bd 3dad bbbc 9279 b63d
000000c0: 3585 9dbd 2872 ffba b993 d43d e073 b2bd
000000d0: 7432 6cbd 267c dabb bc69 92bd 7e70 9a3d
000000e0: 4b18 683d 18bc 85bd 6bf3 3bbd 2b9a b63d
000000f0: c37c 973c f4c1 6e3c 8c8a 35bd 94d0 59bd
00000100: 3758 f53c 10fe 39bd 738c af3d 0f2d a53d
00000110: 9bda 69bd d259 00bd 630f ae3c 7492 6cbd
00000120: 848c b33d 394a b83d b955 ac3d 817c 7e3d
00000130: 7558 79bd 7f26 bc3d 4933 91bc 01ba 56bd
00000140: b8cc cbbb 1509 d1bc 89e1 023c 11e0 9bbc
00000150: 3069 65bd 49a2 26bd 6b59 bc3c 9f3c 04bd
00000160: 068d 9bbc 2a70 bb3c 6c41 ba3d 0f0f bb3d
00000170: 0693 cabd f6ba 5a3d be32 dabd fbf0 abbc
00000180: 17f3 30bd cad2 7e3d c537 21bc 4541 71bd

out_Y1.weight f4 [1, 100]
-0.041800965 0.040456936 0.057806514 0.076279305 0.08741658 0.095466994 0.054020375 -0.0031454652
-0.07675993 -0.10681569 0.093379185 -0.008065666 0.013889522 -0.06450208 0.09386048 0.086513475
-0.057199046 -0.03409297 -0.10857751 0.014585425 0.08935656 0.027182167 0.052956138 0.027272299
-0.029217327 -0.020514041 0.050446287 -0.10529129 0.06725975 0.060676076 -0.05325482 0.097943276
0.050196517 0.059910662 -0.076528646 -0.01852183 0.019803917 0.032697476 0.07028457 0.0046628565
0.045607787 0.0030447522 -0.06443569 0.052256875 0.088196896 -0.038538188 -0.010151712 0.068385296
0.018134018 0.09034735 0.11234001 -0.10374911 0.05065476 -0.07378533 -0.038261067 0.051014706
0.043590438 -0.065791 -0.09378531 0.033516143 0.014690387 0.09926397 -0.09308508 0.034646485
-0.020663666 -0.0011301837 0.011641136 0.09255231 0.08620606 -0.0014221005 -0.07651613 0.03863295
0.047130663 0.053697865 0.02193076 0.0026377728 0.078834146 0.09826634 -0.09583772 -0.05304294
-0.10883234 0.0816192 0.05729237 -0.11059419 -0.098440334 -0.074395664 0.10700682 0.057798855
-0.10989481 -0.007914763 0.018502224 0.060422745 -0.07545719 0.08486526 -0.04663297 -0.037302922
-0.07577045 -0.047276594 -0.10228694 -0.05348055
00000000: 7d37 2bbd 2cb6 253d 86c6 6c3d 5338 9c3d
00000010: 7707 b33d 3384 c33d 7844 5d3d 2624 4ebb
00000020: 4f34 9dbd 2fc2 dabd 963d bf3d db25 04bc
00000030: e190 633c ab19 84bd ec39 c03d fa2d b13d
00000040: 8c49 6abd 12a5 0bbd e35d debd b5f7 6e3c
00000050: 9200 b73d 23ad de3c 89e8 583d 286a df3c
00000060: 2d59 efbc 100d a8bc c4a0 4e3d f6a2 d7bd
00000070: 7bbf 893d 7a87 783d ba21 5abd 7c96 c83d
00000080: dd9a 4d3d e264 753d 0dbb 9cbd 18bb 97bc
00000090: d33b a23c caed 053d 5bf1 8f3d e0ca 983b
000000a0: 3bcf 3a3d 778a 473b dcf6 83bd 4e0b 563d
000000b0: 93a0 b43d 38da 1dbd 5e53 26bc 970d 8c3d
000000c0: cb8d 943c 0808 b93d 8512 e63d 6a7a d4bd
000000d0: 5e7b 4f3d c31c 97bd a3b7 1cbd ccf4 503d
000000e0: e38b 323d 6fbd 86bd 8312 c0bd 3948 093d
000000f0: f3af 703c e94a cb3d 64a3 bebd 79e9 0d3d
00000100: d946 a9bc ac22 94ba 77ba 3e3c 118c bd3d
00000110: ce8c b03d c665 baba 7db4 9cbd 963d 1e3d
00000120: 150c 413d 4bf2 5b3d 23a8 b33c 7cde 2c3b
00000130: cc73 a13d dd3f c93d 9146 c4bd 8e43 59bd
00000140: 7de3 debd f827 a73d 67ab 6a3d 357f e2bd
00000150: 169b c9bd c15c 98bd 6426 db3d 7ebe 6c3d
00000160: 8810 e1bd ecac 01bc fa91 973c d77d 773d
00000170: 4d89 9abd d6cd ad3d 3702 3fbd f3ca 18bd
00000180: 8a2d 9bbd 1aa5 41bd d17b d1bd 6c0e 5bbd
