DR_Info_CFR/IHDP/Models/netD.pth (torch, 9515 bytes, 5 tensors)

hidden1.weight f4 [30, 27]
0.054851923 0.05376149 -0.19715117 -0.07666091 -0.069979295 0.08722086 0.23379044 0.037406657
0.12697 0.2627708 0.024120407 0.06824876 0.06443588 0.045677226 0.19129741 0.029579641
0.31092498 0.10884114 0.014548497 0.057868414 -0.030262496 0.117521435 0.0071341237 0.1352167
0.17412741 0.0276317 -0.24747819 0.047644638 0.13354233 -0.0037539918 0.01954761 -0.066427045
-0.1925229 0.31526512 0.09843927 0.2920129 0.1638965 -0.08848618 -0.034112338 -0.0002126216
0.09680603 -0.048449304 -0.04050043 0.21130915 0.023330107 -0.100984655 -0.055438995 0.04940494
0.024697065 -0.20322329 0.042334322 0.27713853 0.10226891 0.2613636 -0.078562036 0.020202564
0.14194682 0.19757335 0.037556577 -0.079904914 0.06037512 0.16225225 -0.04590615 0.040094372
0.1668602 0.23690754 0.19397558 0.17973651 0.204691 0.15731415 -0.039815217 -0.013092755
0.026518915 -0.038006183 0.17699106 0.1232385 0.21821256 -0.030305145 0.1068637 0.09190802
-0.20952684 0.041515194 -0.04999597 0.12120466 0.19902284 -0.00037406507 0.11508376 -0.021307226
0.061722036 0.021983104 0.21270037 -0.017714305 0.21230407 0.16934 0.30160126 -0.107061744
-0.04438499 -0.031562507 0.039784327 0.15681563 -0.05602049 0.19084428 0.25758854 0.16034353
0.07407015 0.0674546 0.23193467 -0.06988072 -0.1582074 0.14533535 -0.09922606 -0.06307812
-0.07133766 0.07211934 -0.061461534 -0.07645653 -0.034790553 -0.022372957 -0.051736515 -0.19087674
0.022136083 -0.041050486 0.027952196 0.037761077 0.12662104 0.20261185 -0.118463315 -0.108058415
-0.10847219 -0.0310829 -0.22311996 -0.18041286 0.006693616 0.003375757 0.25743738 -0.13050377
0.09546933 0.084597975 0.017495915 -0.1409743 0.02751896 0.09447508 0.21117188 -0.037285898
0.2661802 0.2652652 -0.01590655 -0.01901056 0.054889806 -0.10087612 0.23872541 0.08227807
0.1352159 0.18533483 0.13519242 0.08208252 -0.053084206 -0.00627855 0.14391871 -0.11898841
0.29017088 0.11928386 0.078489795 -0.063841715 -0.03403843 0.018850574 0.0856772 -0.07687752
0.14346312 -0.001993447 0.12290399 0.014269883 -0.11351132 -0.051109757 -0.028248338 0.09338013
0.011983228 0.07294605 0.17640083 0.027053583 0.15413278 -0.13066617 0.09452944 -0.1441053
-0.2301641 -0.14492267 0.21636741 -0.06077528 0.2554165 0.02643177 0.0030502514 -0.096228324
-0.09677137 -0.05370646 0.05922838 -0.012918948 0.103511214 0.16755478 0.2111934 0.24827203
0.033294197 0.14090532 0.24500509 0.18502605 0.10503766 0.014751694 -0.0064148256 -0.0617093
0.05498444 0.08615008 0.13618268 0.14214507 -0.08760489 0.11219802 0.2386355 -0.27691278
0.052896358 0.17045286 0.0397542 -0.032595173 -0.08668868 -0.029910034 0.2511029 0.11213202
-0.044609226 -0.037093874 0.22741117 -0.05751472 -0.08696665 -0.002744706 0.1840377 0.13608794
0.21398303 0.02493849 0.14667037 0.19570987 0.2189937 0.006470616 0.07172179 -0.013513025
-0.0439431 0.23066686 0.1666306 -0.118518636 0.041176137 -0.05615315 0.13772826 0.12434091
-0.23506398 0.033766493 -0.101798445 0.138035 0.011940351 0.2725681 0.060075164 0.23179571
00000000: 69ac 603d 0235 5c3d ffe1 49be 6500 9dbd
00000010: 4e51 8fbd daa0 b23d c366 6f3e b937 193d
00000020: 6c04 023e e589 863e 2998 c53c 02c6 8b3d
00000030: f5f6 833d 0b18 3b3d 78e3 433e 0151 f23c
00000040: 8f31 9f3e 1be8 de3d d25c 6e3c 6e07 6d3d
00000050: 0ee9 f7bc 14af f03d 5ec5 e93b 3f76 0a3e
00000060: 754e 323e e05b e23c ec6a 7dbe 0627 433d
00000070: 52bf 083e 8805 76bb 4f22 a03c e70a 88bd
00000080: b924 45be 6e6a a13e 879a c93d b782 953e
00000090: 7cd4 273e 3e38 b5bd 61b9 0bbd 2df3 5eb9
000000a0: 3d42 c63d c772 46bd c7e3 25bd 6d61 583e
000000b0: c81e bf3c 0bd1 cebd 0014 63bd d65c 4a3d
000000c0: 8051 ca3c c419 50be c166 2d3d 1ae5 8d3e
000000d0: 5d72 d13d 73d1 853e 22e5 a0bd d97f a53c
000000e0: 825a 113e ab50 4a3e edd4 193d 30a5 a3bd
000000f0: e74b 773d 7425 263e 1608 3cbd ff39 243d
00000100: 66dd 2a3e e497 723e 89a1 463e d90c 383e
00000110: 849a 513e f616 213e 4815 23bd ff82 56bc
00000120: 323e d93c 5fac 1bbd 253d 353e 7764 fc3d
00000130: 1d73 5f3e 7f42 f8bc 5bdb da3d 463a bc3d
00000140: 348e 56be d60b 2a3d 93c8 4cbd 263a f83d
00000150: a5cc 4b3e 2a1e c4b9 09b1 eb3d 7e8c aebc
00000160: 3fd0 7c3d e915 b43c 20ce 593e 971d 91bc
00000170: 3d66 593e 7767 2d3e 7b6b 9a3e 3043 dbbd
00000180: 09cd 35bd b047 01bd e4f4 223d 4794 203e
00000190: be75 65bd af6c 433e a5e2 833e 1831 243e
000001a0: 17b2 973d a325 8a3d 4880 6d3e 9f1d 8fbd
000001b0: 1f01 22be cad2 143e 0837 cbbd 1a2f 81bd
000001c0: 7b19 92bd 4eb3 933d 17bf 7bbd 3e95 9cbd
000001d0: 8a80 0ebd 7e47 b7bc abe9 53bd 3175 43be
000001e0: bb56 b53c 8e24 28bd 01fc e43c 5cab 1a3d
000001f0: f2a8 013e 7b79 4f3e e59c f2bd bb4d ddbd
00000200: ab26 debd 91a1 febc 8f79 64be 26be 38be
00000210: 1f56 db3b ce3b 5d3b d5ce 833e c8a2 05be
00000220: 6d85 c33d b441 ad3d 9853 8f3c 915b 10be
00000230: 716f e13c 277c c13d 713d 583e 19b9 18bd
00000240: c548 883e d7d0 873e 744e 82bc 09bc 9bbc
00000250: 22d4 603d 2498 cebd 6f74 743e 6881 a83d
00000260: 0976 0a3e 6ac8 3d3e e26f 0a3e e11a a83d
00000270: d36e 59bd 4bbc cdbb 6d5f 133e 32b0 f3bd
00000280: 4791 943e 194b f43d 42bf a03d 72bf 82bd
00000290: e16b 0bbd 856c 9a3c 8777 af3d f671 9dbd
000002a0: ffe7 123e 7ea4 02bb 16b5 fb3d 3acc 693c
000002b0: 9f78 e8bd 7758 51bd 0f69 e7bc 153e bf3d
000002c0: 4d55 443c bd64 953d 6ba2 343e 7a9f dd3c
000002d0: fcd4 1d3e 5acd 05be a798 c13d 5790 13be
000002e0: 23b0 6bbe 9c66 14be 6b8f 5d3e 80ef 78bd
000002f0: f4c5 823e 7087 d83c bae6 473b 5b13 c5bd
00000300: 1130 c6bd 4efb 5bbd 7599 723d ffa9 53bc
00000310: b0fd d33d 7b93 2b3e 1543 583e 063b 7e3e
00000320: 7f5f 083d 7c49 103e 9de2 7a3e 7877 3d3e
00000330: fc1d d73d 17b1 713c 7533 d2bb e4c2 7cbd
00000340: 5d37 613d 746f b03d 7973 0b3e 7a8e 113e
00000350: 316a b3bd 13c8 e53d dd5c 743e 83c7 8dbe
00000360: daa9 583d 328b 2e3e 4dd5 223d 8482 05bd
00000370: d689 b1bd e305 f5bc 8f90 803e 79a5 e53d
00000380: 2ab8 36bd bfef 17bd 79de 683e 8e94 6bbd
00000390: 921b b2bd 87e0 33bb 6174 3c3e a35a 0b3e
000003a0: 5e1e 5b3e ce4b cc3c c230 163e 2b68 483e
000003b0: e23f 603e 7607 d43b e0e2 923d bc65 5dbc
000003c0: aefd 33bd ef33 6c3e 36a1 2a3e e6b9 f2bd
000003d0: 4fa8 283d d800 66bd a308 0d3e 72a6 fe3d
000003e0: 9db4 70be bc4e 0a3d b47b d0bd 0c59 0d3e
000003f0: 76a1 433c 0c8e 8b3e 6011 763d db5b 6d3e

hidden1.bias f4 [30]
0.22343883 -0.007185092 0.28322953 0.1727749 0.16478814 -0.035742078 -0.09071077 0.30569983
-0.06203859 0.041022576 0.14744323 -0.06350583 -0.013201077 0.034837082 0.19525348 -0.13663284
-0.012055204 0.08917018 -0.0511251 -0.22165443 0.24853691 0.23333019 -0.033095535 0.2370427
0.0785734 0.045023166 0.24108243 0.019518664 0.14449951 0.24040033
00000000: 26cd 643e ec70 ebbb 7603 913e e7eb 303e
00000010: 39be 283e 4966 12bd 91c6 b9bd b084 9c3e
00000020: 2d1c 7ebd 4a07 283d 5cfb 163e 580f 82bd
00000030: 5449 58bc 54b1 0e3d 87f0 473e 7be9 0bbe
00000040: 3183 45bc db9e b63d 8e68 51bd 61f9 62be
00000050: 7680 7e3e 1cee 6e3e 2f8f 07bd 52bb 723e
00000060: 17eb a03d 366a 383d 50de 763e 9be5 9f3c
00000070: aef7 133e 812b 763e

hidden2.weight f4 [30, 30]
-0.018105878 0.2932475 -0.06814115 0.066464014 0.20144656 0.28323227 0.32139322 -0.049250122
-0.005507472 0.07788184 -0.25491795 0.041581616 0.09769714 -0.11135226 0.19099565 0.019032683
0.18724102 -0.26187643 0.23956947 0.1298626 -0.30464968 -0.36160904 -0.02833552 -0.3045557
-0.0023164377 -0.0002107371 -0.18538898 -0.26921558 -0.20503384 -0.18972576 0.13772304 -0.15534358
0.067732096 0.08711744 -0.028312953 0.10362763 -0.2715226 0.21372364 0.09447825 0.022128746
0.16561364 0.17357211 0.12918313 0.23808993 0.17063132 -0.107992396 0.17093243 -0.037478976
-0.2668945 -0.0638975 0.06898722 0.41193625 0.12772354 0.19410358 0.15600342 -0.06612115
0.33787468 0.04184785 -0.04394389 0.010586828 0.2846612 -0.15607193 0.059297923 -0.07352528
0.040329378 0.09186324 -0.16955993 0.09456763 0.09413783 0.12352466 0.330705 0.24257554
0.060479354 0.15214129 -0.003440863 -0.104091674 0.020390164 0.036156584 -0.109714665 -0.13245757
0.07595136 0.08848229 0.19167921 0.26385275 0.24378559 -0.08819042 0.20421053 0.23997952
-0.08046819 0.16597384 0.34781042 -0.07361986 0.11235216 0.20473185 -0.1762838 0.10480781
-0.0591497 0.030872133 0.0763936 0.338683 0.32906535 0.094845176 0.035106007 0.018994182
0.18191221 0.015954494 -0.06971943 0.2052327 -0.14068498 0.08646509 0.17911163 0.31108636
0.16665925 0.18913065 0.037530765 0.004862337 0.291622 0.19696857 0.14717227 0.28456485
0.06515586 -0.10099637 0.271473 0.24250644 -0.07140038 -0.06346713 -0.245438 -0.07725678
-0.08329233 0.2444221 0.08869413 0.25072417 0.01417866 0.20385845 0.24681517 -0.033844724
-0.07141766 0.22343764 0.021414021 -0.068655185 0.075228274 0.21253735 0.20364009 -0.041320153
0.042743295 -0.070649505 0.09920846 0.24538858 0.2482503 0.218901 -0.3320446 0.24181278
-0.21136698 -0.07250953 0.20572188 0.148291 0.07714743 0.025987493 0.019635826 -0.009840562
-0.13695714 -0.18103604 0.007948557 -0.064861864 0.08028752 -0.01869045 0.21394232 0.046869908
0.28864247 -0.12337729 -0.018909484 -0.33401302 -0.082485415 -0.15852022 0.0792376 -0.0075066895
-0.19340013 -0.2684625 0.04512359 -0.06905545 -0.013521376 0.062271517 -0.12707658 0.13631605
-0.0045780744 0.076664306 -0.015781915 -0.05253534 -0.09740678 -0.0038124707 -0.10022046 0.014521546
0.09382053 -0.09829938 -0.13485391 0.00033187369 -0.13415384 -0.026460374 -0.019994846 0.12651122
-0.16405842 0.06719949 -0.01686338 0.030778395 0.09191424 -6.4175676e-37 -0.014542555 0.07538924
0.098252065 -0.04278325 -0.03381227 0.0021872201 -0.15967906 0.035762142 0.105928265 0.108009584
-2.2007312e-18 -0.009295695 0.04100542 0.0012150558 0.03355444 0.14420477 -0.09168292 -0.029207379
0.012229111 0.01929896 -0.10748567 0.13856728 -0.1060669 -0.041139487 -0.15612419 -0.034091163
-5.8187544e-37 -0.0026347572 -0.014940659 -6.985067e-08 0.005495862 -0.13137665 0.0054275957 -0.13652606
-0.16326122 -0.05671356 0.058970097 -0.08747392 -0.15829866 -0.14469258 -0.104746856 -0.06615505
-0.017816963 0.10369975 0.039456453 0.07560683 0.116108306 0.0012068248 0.12397887 -0.0405393
00000000: c752 94bc 8924 963e 968d 8bbd 491e 883d
00000010: 0248 4e3e d203 913e a78d a43e 7fba 49bd
00000020: 0678 b4bb 8480 9f3d 9b84 82be 7c51 2a3d
00000030: 7015 c83d a70c e4bd 5d94 433e 6eea 9b3c
00000040: 1cbc 3f3e ab14 86be b351 753e b4fa 043e
00000050: 0bfb 9bbe d224 b9be e41f e8bc baee 9bbe
00000060: 60cf 17bb 4ff9 5cb9 9cd6 3dbe a0d6 89be
00000070: 64f4 51be 7847 42be 4507 0d3e 6312 1fbe
00000080: 20b7 8a3d a16a b23d 91f0 e7bc b93a d43d
00000090: 0305 8bbe 5fda 5a3e d07d c13d 5847 b53c
000000a0: 9f96 293e e3bc 313e 9548 043e d9cd 733e
000000b0: fab9 2e3e 1e2b ddbd e908 2f3e 8e83 19bd
000000c0: 65a6 88be b1dc 82bd 2c49 8d3d 4fe9 d23e
000000d0: f6c9 023e 17c3 463e 5cbf 1f3e 876a 87bd
000000e0: e9fd ac3e a768 2b3d 82fe 33bd 6074 2d3c
000000f0: 1dbf 913e 52d1 1fbe 61e2 723d 6c94 96bd
00000100: 6b30 253d cb22 bc3d 1ea1 2dbe acac c13d
00000110: 56cb c03d 7ffa fc3d 2a52 a93e b965 783e
00000120: 33b9 773d edca 1b3e 1a80 61bb 042e d5bd
00000130: 4609 a73c ed18 143d 15b2 e0bd f5a2 07be
00000140: 638c 9b3d 3436 b53d 8e47 443e b517 873e
00000150: eea2 793e 2e9d b4bd 911c 513e 31bd 753e
00000160: 82cc a4bd 0cf5 293e 3514 b23e 02c6 96bd
00000170: e418 e63d 3aa5 513e be83 34be 7aa5 d63d
00000180: f546 72bd 8ee7 fc3c 3f74 9c3d dc67 ad3e
00000190: 417b a83e 303e c23d 51cb 0f3d b099 9b3c
000001a0: 3247 3a3e 00b3 823c 0fc9 8ebd 8528 523e
000001b0: b90f 10be 9c14 b13d 0a69 373e b646 9f3e
000001c0: b9a8 2a3e 77ab 413e dcb9 193d 3d54 9f3b
000001d0: 7b4f 953e 21b2 493e 54b4 163e 7cb2 913e
000001e0: 6f70 853d 2fd7 cebd 82fe 8a3e 9c53 783e
000001f0: 5d3a 92bd 0efb 81bd 1954 7bbe cd38 9ebd
00000200: 2b95 aabd c949 7a3e 45a5 b53d eb5e 803e
00000210: 9c4d 683c 45c0 503e 1ebd 7c3e c4a0 0abd
00000220: 6c43 92bd d6cc 643e 756c af3c 179b 8cbd
00000230: 4811 9a3d 64a3 593e 0787 503e 523f 29bd
00000240: 9813 2f3d b0b0 90bd ce2d cb3d 2547 7b3e
00000250: 5435 7e3e 9527 603e c001 aabe c59d 773e
00000260: 9670 58be e07f 94bd c2a8 523e 99d9 173e
00000270: 79ff 9d3d b9e3 d43c 50db a03c 4f3a 21bc
00000280: 7e3e 0cbe 8361 39be aa3a 023c 4cd6 84bd
00000290: c96d a43d b71c 99bc b213 5b3e a9fa 3f3d
000002a0: f2c8 933e 3cad fcbd 10e8 9abc c103 abbe
000002b0: 1dee a8bd 2053 22be 5347 a23d adfa f5bb
000002c0: af0a 46be eb73 89be 83d3 383d f26c 8dbd
000002d0: c388 5dbc 6b10 7f3d 5d20 02be 6f96 0b3e
000002e0: ac03 96bb 2d02 9d3d 1349 81bc 4c2f 57bd
000002f0: 357d c7bd a5da 79bb 6240 cdbd c7eb 6d3c
00000300: fa24 c03d 2f51 c9bd 2517 0abe 55ff ad39
00000310: a05f 09be 6dc3 d8bc 3bcc a3bc 288c 013e
00000320: eefe 27be e39f 893d 1225 8abc f922 fc3c
00000330: 883d bc3d e660 5a83 e643 6ebc ad65 9a3d
00000340: 6138 c93d 7d3d 2fbd bc7e 0abd 7757 0f3b
00000350: e882 23be 537b 123d ebf0 d83d 2134 dd3d
00000360: a362 22a2 f94c 18bc 4df5 273d 8242 9f3a
00000370: 6170 093d 6aaa 133e 41c4 bbbd 5044 efbc
00000380: 9c5c 483c da18 9e3c 7221 dcbd 95e4 0d3e
00000390: 9a39 d9bd e181 28bd 05df 1fbe 2da3 0bbd
000003a0: 8000 4683 e4ab 2cbb aac9 74bc d000 96b3
000003b0: a216 b43b 9a87 06be f9d9 b13b 7dcd 0bbe
000003c0: f32d 27be 7a4c 68bd a18a 713d 8725 b3bd
000003d0: 0b19 22be 4b2a 14be 8585 d6bd 4d7c 87bd
000003e0: e1f4 91bc 8960 d43d 179d 213d c1d7 9a3d
000003f0: 31ca ed3d 522e 9e3a a2e8 fd3d 890c 26bd

hidden2.bias f4 [30]
-0.059612654 0.018344453 0.16630574 0.014487365 0.08702753 0.1639414 -0.01375626 -0.15422264
-0.13076 -0.0015888482 -0.089991905 -0.022169348 -0.122490995 -0.06484744 0.03283223 0.22974715
0.17623442 0.05370279 0.07582856 -0.10697027 0.06364348 0.064290375 0.046630688 -0.0223365
0.0053911717 -0.017826518 -0.19321796 0.19696954 0.009127884 -0.03704658
00000000: 662c 74bd 1b47 963c 0d4c 2a3e 6a5c 6d3c
00000010: 7d3b b23d 41e0 273e f061 61bc 8aec 1dbe
00000020: f3e5 05be e640 d0ba ad4d b8bd 7e9c b5bc
00000030: 8fdc fabd bcce 84bd 177b 063d d642 6b3e
00000040: cc76 343e 75f7 5b3d 014c 9b3d 3b13 dbbd
00000050: 8357 823d acaa 833d d2ff 3e3d 09fb b6bc
00000060: 6da8 b03b eb08 92bc eeda 45be 62b2 493e
00000070: 1f8d 153c 28be 17bd

out.weight f4 [1, 30]
0.28522953 -0.18047047 -0.28915247 -0.16477004 -0.25273266 0.300776 0.04037767 0.05898185
0.08954991 0.2623792 0.22299032 0.15482646 -0.22511731 -0.28478345 0.029224662 -0.14089714
-0.17631368 -0.20372859 -0.30544516 -0.27082568 0.36443686 0.26349205 -0.13931282 -0.3648974
-0.29562336 0.30132487 -0.1479603 0.3276393 -0.24468708 -0.2158434
00000000: 9b09 923e 40cd 38be cb0b 94be 7ab9 28be
00000010: 2d66 81be 50ff 993e 0e63 253d f496 713d
00000020: f165 b73d 9156 863e 9357 643e d48a 1e3e
00000030: 2785 66be 23cf 91be 8f68 ef3c 5747 10be
00000040: 938b 34be 3a9e 50be 4f63 9cbe aaa9 8abe
00000050: 7897 ba3e 6ee8 863e 05a8 0ebe d5d3 babe
00000060: f25b 97be 4147 9a3e e882 17be 57c0 a73e
00000070: 408f 7abe 0d06 5dbe
