DR_Info_CFR/IHDP/Models/netG.pth (torch, 27623 bytes, 10 tensors)

shared1.weight f4 [30, 100]
00000000: cc64 55bd 6ae9 d33b 30b7 453d 1c3d 8fbd
00000010: 42ac acbc 5c52 aebd 7170 3abd 9a9f 0e3e
00000020: f191 573d df9a 563d fb6e 00bc 080b af3c
00000030: ba83 d03d 80be 1d3d ba59 8bbc f9d8 e43b
00000040: f923 c1bc 7555 393d 1cef fa3d 3007 d23d
00000050: a3a3 98bd 50c2 9d3c f831 fabd d17f b9bc
00000060: ed0c b13d aca5 823d 9cc4 04be 1969 873d
00000070: fc96 8b3c 72bf 5b3d de90 5ebd 1667 e1bd
00000080: cf3e 9fbd 0adc a0bc fa20 24bd 1880 22bd
00000090: d6bc a83d c51b 49bd c36a 323c 6dba 9d3d
000000a0: 4a9a 003a c7e5 a2bd f12e 3b3d 36a4 45bc
000000b0: 9c3c fbbd 26d1 dd3d fd31 1f3d b502 09be
000000c0: d9ce 593a a493 b63d 8753 debd b838 863d
000000d0: 6e92 ac3c 5fa5 1fbb b133 c73c 34e1 49bd
000000e0: 0d9b a6bd 0109 963d 21d6 a33d 5dd8 babd
000000f0: ff16 4fbd 20c2 263d 1900 bcbd 5849 c1bc
00000100: 9440 f7bc a4c0 e13d f41d 99bd e3b4 4e3d
00000110: 89a7 13be b52b d03d 1790 b8bd 8584 05bc
00000120: 38fe 58bc 0e4d 6bbd 5d5e 04bd 82d9 14bd
00000130: 584f c1bd 9d0d 923d 2aa7 7a3d 1b98 cf3d
00000140: afdf 5cbd 5185 943c 8d0b 933d cbf3 a8bc
00000150: 1ace 90bd 3c3c 2ebd 9ecf 29bc 2684 4a3d
00000160: 5b1c b33d 08ef 41bd 1a45 afbd af50 dd3d
00000170: 1c76 fd3c 253a 8ebd dcb8 af3d e1ad ad3d
00000180: 4464 acbd fb1f 7ebc ac4a 943c b58b 85bd
00000190: e8ce 7a3d 544c 77bd 203c bdbd d91e a43d
000001a0: 6964 2cbd a98d c9bb c52a 813d 7720 a13d
000001b0: dcde 04bd f627 ad3d 1dfb 813d 38d7 923d
000001c0: 6ecc 5f3d 1187 dd3c 11db 58bd 159c aabd
000001d0: 25f4 38bd 396b 823d 7f1d 28bd 61d7 8bbd
000001e0: 5159 7bbd 5b50 4abd 66ca 863d b0eb b73d
000001f0: c2b9 e7bc b2d4 e1bd d377 563d e836 20bd
00000200: 21cc c0bd 2ccd e8bd e2f6 c53d 075c 5abd
00000210: d3cc 533c 08b2 27bc f851 f1bc 9cbd 743c
00000220: ac59 e2bd 9e71 583c 6d9f 47bd 6e96 fc3c
00000230: 942d ccbc 662c 0dbd b49b 00be dae3 f63c
00000240: 6973 72bd ac55 b43d e6c4 8cbc 587d cfbd
00000250: 6920 b13d 442a a73d 7fb7 37bd 9a54 df3d
00000260: fd6b ee3c 4450 ecbc 2359 56bd c3f9 c4bd
00000270: 9d59 f9bd 67df 313c 924c b93d 586a 013d
00000280: cb75 813c 64b6 ddbd b021 9d3d fa7f 9ebd
00000290: 70d5 81bd 90e2 e3bd 38e4 34bb 9da9 80bd
000002a0: 7dde a2bc a3c3 bbbd 6541 eabc 4b8b 2abd
000002b0: 89d1 0bbd f629 69bd d1fe 2ebd 17be b73b
000002c0: 9db3 a93d 15fe ae3d bf6c 7d3a e6db a03d
000002d0: e2f0 fc3d f9ef 243d e81d 173d eed0 773d
000002e0: 61f3 943d 4686 f0bb 34ae f93c 8b69 b63d
000002f0: 546f b63d 2568 8d3d 43bc 67bd 5738 623d
00000300: 9686 8e3d 7332 db3a 4b45 64bd 61c9 7a3d
00000310: e5b5 40bd 1da2 07bd b339 b1bd 6467 a0bd
00000320: 4696 b5bd f80b b33d a9e7 4cbd 4eff 3a3d
00000330: 356b d2bd 5342 aabd 1bc2 213c 93ba 403d
00000340: 5c25 92bd 67e1 693d d576 9ebd 13ad af3c
00000350: e083 133e af64 a83d 123b 523c cb4c babd
00000360: 1ded d5bd 4a35 7b3c c4de 443d 5604 5e3d
00000370: 599f 233d 40f0 de3d d6af d83d 27af 66bd
00000380: 489b 6d3d 95db b13d 2bba 30bd 0faa 823d
00000390: 5d9c 6bbd 9e02 633d 8ccb 8c3c 2fcd 95bb
000003a0: 27d7 76bd 7cb8 6dbc 27e0 c53c f650 863c
000003b0: 3f1e 3a3c 2f7b 0a3d 09b0 6a3d c5d7 22bd
000003c0: e18c 123d acff 8c3d 883e 4a3c 23a5 8a3d
000003d0: 1299 e9bd 2b65 a53d 7278 8bbd 8806 ba3d
000003e0: 8523 26bd 3c0b e43b 6aa0 2f3d 0b5a 053d
000003f0: e1d8 523c cefe 003d 428e ce3c c63c e63d
-0.05209808 0.006467034 0.048270404 -0.069940776 -0.021078233 -0.085118026 -0.04551739 0.1392807
0.052629415 0.05239379 -0.00783896 0.021367565 0.10181375 0.038511753 -0.017010558 0.006983873
-0.023576723 0.045247514 0.12252638 0.10255277 -0.07453086 0.019257694 -0.12216562 -0.022643955
0.086450435 0.06379256 -0.12965626 0.06611843 0.017039768 0.053649373 -0.054337375 -0.1100599
-0.07775652 -0.019636173 -0.04007051 -0.03967294 0.082391426 -0.04909875 0.010889712 0.077015735
0.00049058034 -0.07953983 0.045699064 -0.012063077 -0.1226742 0.108309075 0.038866032 -0.13379939
0.0008308716 0.08914879 -0.10855775 0.06553787 0.021065917 -0.0024360043 0.02431664 -0.049287036
-0.08135042 0.07325936 0.07999826 -0.09123299 -0.05055904 0.040712476 -0.09179706 -0.023594543
-0.03018216 0.110230714 -0.07476416 0.050465476 -0.14419378 0.101645865 -0.09011858 -0.008149271
-0.013244204 -0.057446532 -0.032316554 -0.036340244 -0.09438962 0.07131503 0.061194576 0.10136434
-0.05392426 0.018129976 0.071799375 -0.020624062 -0.07070561 -0.042537913 -0.010364441 0.049442433
0.08745643 -0.0473471 -0.08558102 0.10806405 0.030940108 -0.06944684 0.08580181 0.084804304
-0.08417562 -0.015510554 0.018102013 -0.065207876 0.061232477 -0.060375527 -0.092399836 0.08013696
-0.042087946 -0.0061509204 0.06306986 0.0786752 -0.032439098 0.084548876 0.06346724 0.07169956
0.05463832 0.027041944 -0.052943293 -0.083305515 -0.04515471 0.06368107 -0.041043755 -0.0682819
-0.061364476 -0.04939304 0.06581573 0.08980501 -0.028286818 -0.110268965 0.052360367 -0.039114863
-0.094139345 -0.113672584 0.0966623 -0.05331042 0.012927252 -0.010235317 -0.029458031 0.0149377845
-0.1105226 0.013210682 -0.048736025 0.03083345 -0.024924077 -0.03446617 -0.12559396 0.030137945
-0.059192095 0.08805403 -0.017183732 -0.10131329 0.0864876 0.081623584 -0.04485273 0.10904808
0.029104227 -0.028846867 -0.0523311 -0.09617951 -0.121752955 0.010856486 0.09047808 0.031595558
0.015803238 -0.10825804 0.07672441 -0.07739253 -0.06339538 -0.11127198 -0.002760185 -0.06282351
-0.019881481 -0.09168174 -0.028595636 -0.041636746 -0.034135375 -0.056924783 -0.04272348 0.0056073773
0.08286212 0.08544556 0.00096673885 0.07854442 0.12350632 0.04026792 0.036893755 0.060501985
0.07272983 -0.0073402254 0.030478574 0.089068495 0.08907953 0.069046296 -0.056576025 0.05522951
0.06959264 0.0016723409 -0.055730145 0.061227206 -0.04704847 -0.033113588 -0.086535834 -0.0783222
-0.08866553 0.08742517 -0.050025616 0.045653634 -0.10274354 -0.083134316 0.0098729385 0.04705293
-0.07136032 0.057099726 -0.07737509 0.021444833 0.14405775 0.08222329 0.012831466 -0.09096678
-0.104456164 0.015332529 0.04806401 0.054203354 0.039946888 0.10885668 0.10580413 -0.056319382
0.058009416 0.0868446 -0.043146294 0.06380092 -0.057522167 0.055422418 0.017186902 -0.004571579
-0.06026378 -0.0145093165 0.024154736 0.016396027 0.01135975 0.033808883 0.057296786 -0.039756555
0.035778884 0.06884703 0.01234401 0.067697786 -0.11406149 0.08075937 -0.068100825 0.09083277
-0.040561218 0.006959347 0.042877592 0.032556575 0.012869091 0.031493 0.025214318 0.1124206

shared1.bias f4 [30]
00000000: faeb 173e bdd8 b23d d9db 7d3d e242 423e
00000010: 5ccf 8f3d 00f5 543e 53fa 743e 8c4a 433d
00000020: 4d17 523e 6c6e ec3d c411 513c 89a5 323e
00000030: d12d dc3d bd35 163e 9b1d d83d 4b57 843e
00000040: 41b7 083e 8d5e 9d3d 9d25 6d3e f9ad 273c
00000050: 9081 4c3e 6303 963d c4f3 e13d 2ae8 283e
00000060: a0dd 823d 12d0 3c3e abd0 263e b36c 123e
00000070: 4c53 0b3e 909e 4d3e
0.14836112 0.08732746 0.06197724 0.18970826 0.070219725 0.20796585 0.23923616 0.047678515
0.20516701 0.11544499 0.012760583 0.17445959 0.10750926 0.14668937 0.10552522 0.2584785
0.13351156 0.0768405 0.2315888 0.010234349 0.19971299 0.07324865 0.11032823 0.16494814
0.06389928 0.18438748 0.16290538 0.14299278 0.13605994 0.20080018

shared2.weight f4 [30, 30]
00000000: 57a4 e93c 9614 213e 0235 08bd 9c15 233e
00000010: f97c 433d c328 9fbd 7617 6dbd 9ae2 ca3c
00000020: 7d52 603e 041f 793e 4ebf 463e 80b8 6e3d
00000030: 071f 283e ecfb 943d 8f8a 78bd f2fb 9f3c
00000040: bb62 e03d e158 0a3e 8d9c 2d3e 8c11 8bbd
00000050: 002c 963d a668 c23d 987f 5d3e e1a7 423e
00000060: 2e2b c33d aeba 6d3d 8bb6 063e f3e9 bd3c
00000070: 94a5 4cbc 8a1e 133e 14ca e43d 0465 a93d
00000080: 8057 95bd 2e01 553e 8d7a b53d 46b6 423e
00000090: 5557 4c3e 6bd0 313b 85f0 243e a7ef 073e
000000a0: 0888 c0bd e44a f73d 062d c93d a106 c73b
000000b0: ae89 4dbb ba70 16bd 8708 0d3e c3a2 a7bd
000000c0: 5f0a ae3d bc03 423e 3309 643e 6d4e 6dbd
000000d0: 3eba febb d0e6 2f3e 1ad4 83bd 9e62 293e
000000e0: 53d5 bebd 7ecf bc3d b85f d83d 2a15 b1bd
000000f0: 238b aa3d 1769 f5bd c38e 493e 1554 013e
00000100: 5dbd 4c3e 19b9 623e c8e8 2e3e feb8 e2bc
00000110: e65b b43d e6c2 643e fdea 473e 1d72 cbbc
00000120: 5be5 c23d bc83 323e 3bc5 b13d eeff 5f3e
00000130: e17f d8bc 2c25 8dbd 4211 3bbd 1e93 d3bd
00000140: c854 d73c 9652 c83d e966 4c3e 9a4c 04bd
00000150: d508 3a3c f358 94bc 6068 843d 677f a5bc
00000160: 0472 573e a9c3 683e b433 1fbd 72a0 bbbd
00000170: 67ff 1cbc a71a 3a3c 7dd3 88bd 3e03 173e
00000180: e994 e33d c6f2 583e dd6f cabd 1098 663e
00000190: 6e05 9cbd 512a 55bd 6d45 183e 5934 9dbc
000001a0: 3d68 4b3e f8fc 3d3e e6cb 603e 6fdc 0a3e
000001b0: f254 843d 3ba4 643d 4b14 83bd b980 1ebd
000001c0: 781b 79bd ae9b d23c 8e2f 133e 9450 4e3e
000001d0: 2a95 ccbc 582c b13d bae4 bcbc 311d c9bd
000001e0: 0684 4b3d ea8a c5ba 6206 6cbd 6f5b cbbd
000001f0: 2b9b a23d 0443 863d 8cfa 323e d801 c53c
00000200: e88d 94bd 3513 fbbd 5871 5d3d 28ea 6a3e
00000210: e346 7ebd c93f 663d 141d f3bd 0edc 003e
00000220: c810 ddbd 6cb3 b4bd fc55 10bc 415b 113d
00000230: f68b e13d 73ef c13d 3102 e43d 7439 32bd
00000240: 84f8 2b3e b26a 8cbd 6bc2 e5bc 2db2 be3d
00000250: fa92 fd3d 7f22 973d d54a d73d cf41 0b3e
00000260: 24d8 babd 0cef b5bc 8ae3 a6bd fdb3 683d
00000270: e022 c03d 6b1c 2ebd 64ce b13b f63e 833d
00000280: 418c 043d da5b 9e3d 967a 34bd 7c4f 793d
00000290: 5d8d 433e 6c00 523d 43dc 833d 55d5 8b3d
000002a0: 46bf 873d e019 4a3e a8c6 0d3e 3256 efbd
000002b0: ea49 ef3d 7380 0ebd fc83 433e ca8b 4cbd
000002c0: fdb3 f43d d19c 413e 1da1 a5bd 05c9 183e
000002d0: 0741 59bd b46c 25bd ccbd 513e 0b47 8a3c
000002e0: 29b2 cd3d 8292 3f39 0594 8b3b 6a54 7d3e
000002f0: 5898 373e daf9 083e 4f09 11bd c47c 0a3e
00000300: 13ca 6c3c 7ad8 583d ff93 c33b d458 063b
00000310: 7bed 623d b49b bbbc 6c00 153e 305d fa3d
00000320: 332a 1b3e b3d9 643e 38b8 a9bd 00de 973d
00000330: cb45 dbbd fbf0 6c3d 2047 09bd 0626 4ebd
00000340: 69bc 66bd 06b7 a9bc 0989 24be 1a32 043e
00000350: 6edb 13be b1a9 ed3d da80 263c 291e e4bc
00000360: c3b2 41be 687d 45be 3fea 5fbd 24db 123d
00000370: 1fc3 653d 7c83 ebbb 68a9 1dbd 549b e93c
00000380: ee7f ce3d 12ce 293d dd2a b8bd 83cb e8bd
00000390: cff9 87bb ef47 853c 72b7 cfbb e552 eabd
000003a0: 4e88 c73d 0753 903d 40e7 21be ed0e 9b3d
000003b0: d451 ac3d 0be9 fe3d c72c a4bd 1193 37be
000003c0: bef4 c23d ed34 413e dc63 f0bc 71a7 863d
000003d0: 4d04 3f3e d2b6 4d3e e0f9 163d 8071 933c
000003e0: 5ec2 50bb e94c 4c3e f61a aa3d b2ae 09bc
000003f0: 4cf8 463e 9f09 a8bc 2422 cd3b be57 a0bd
0.028520746 0.15730509 -0.033253677 0.15926212 0.047726605 -0.077714466 -0.057883702 0.024766255
0.21906467 0.24328238 0.19408914 0.05828142 0.16418086 0.07274613 -0.060679015 0.019529317
0.10956331 0.13510467 0.1695425 -0.06790456 0.07332611 0.09492616 0.21630704 0.19009353
0.0952972 0.05803936 0.13155572 0.023182845 -0.012490649 0.14367118 0.11171356 0.0827122
-0.0729208 0.20801231 0.08861265 0.19014844 0.1995519 0.0027132283 0.16107376 0.13275014
-0.09400946 0.12074831 0.09823041 0.0060737883 -0.003136258 -0.0367286 0.13772784 -0.08185341
0.08498072 0.18946737 0.22269134 -0.05793612 -0.0077736666 0.17177892 -0.064369395 0.16541526
-0.09318032 0.092192635 0.10565132 -0.08646615 0.083273195 -0.11982935 0.19683366 0.12629731
0.19994111 0.22140922 0.17080986 -0.027676102 0.08806591 0.22339973 0.19523235 -0.024834687
0.09516402 0.17433065 0.08680197 0.21874973 -0.026428165 -0.068918556 -0.045670755 -0.10330795
0.026285544 0.09781377 0.19961132 -0.032299615 0.011354645 -0.01810882 0.064652205 -0.020202352
0.21039587 0.22730888 -0.038867667 -0.09161462 -0.009582377 0.0113588935 -0.06680963 0.1474733
0.11112387 0.2118636 -0.098846175 0.22518945 -0.07618223 -0.05204231 0.14870234 -0.01919
0.19863982 0.18553531 0.21952781 0.13560651 0.064615145 0.055820685 -0.06400355 -0.03869698
-0.060817212 0.025709 0.1437361 0.20147926 -0.02497347 0.08651036 -0.023058284 -0.09820021
0.049686454 -0.0015071307 -0.057623275 -0.09929549 0.07939752 0.06555751 0.17478389 0.02404873
-0.07253629 -0.12259523 0.05406317 0.22940886 -0.06207932 0.056213174 -0.118707806 0.12583944
-0.107942164 -0.088232845 -0.008809563 0.035487417 0.110130236 0.094694994 0.111332305 -0.043511823
0.1679402 -0.06856288 -0.028046807 0.09311328 0.12381549 0.073796265 0.1051232 0.13599323
-0.09123257 -0.022208713 -0.081488684 0.056812275 0.09381652 -0.04250757 0.005426215 0.06408493
0.03236032 0.07732363 -0.04406222 0.060866818 0.19096895 0.051269934 0.06438496 0.06827799
0.066282794 0.19736433 0.13845313 -0.11686362 0.1168402 -0.034790467 0.19093317 -0.049938
0.119483925 0.18907477 -0.080873705 0.14920433 -0.05304053 -0.04038687 0.20482558 0.016879579
0.10043747 0.00018269758 0.0042595887 0.24739233 0.17929208 0.13376561 -0.035409268 0.13524157
0.014452475 0.052940823 0.0059685702 0.0020499723 0.05540226 -0.022901393 0.14550942 0.12224805
0.15152816 0.2234867 -0.0828709 0.0741539 -0.10706671 0.057847004 -0.033515096 -0.05032923
-0.056332026 -0.020717155 -0.160679 0.12909737 -0.14439175 0.11604632 0.010162557 -0.027846413
-0.18915848 -0.1928612 -0.054666754 0.03585352 0.056094285 -0.007187305 -0.038491637 0.028516449
0.100829944 0.04145629 -0.089925505 -0.11366942 -0.0041496526 0.016269652 -0.006339007 -0.11441592
0.09742795 0.07047086 -0.15810871 0.07571206 0.08414045 0.12446793 -0.08016353 -0.17927195
0.09519337 0.18867846 -0.029344492 0.06574906 0.18653984 0.20089272 0.036859393 0.017998457
-0.0031854133 0.19951214 0.08305924 -0.008403467 0.19430655 -0.0205124 0.0062601734 -0.078292355

shared2.bias f4 [30]
00000000: c67f 183d 3925 d4bc f5c4 533d 25cd 203e
00000010: f13e 033e a4f3 443e 4a53 863e 30dd 57bd
00000020: ea35 013e 9735 4a3e 4e22 843d bfb6 713e
00000030: f6cb 633e 62e1 4d3e 03ca 8f3d d961 24bd
00000040: b6c0 ca3c 2cef 083e f51a 743d 7bc9 c4bd
00000050: 759d 433e 322d 5a3e e1e0 233e b60b 0a3e
00000060: f5c1 c73d edf2 7e3d 8011 a33d 5b14 eb3d
00000070: b34e 603e 1236 ef3d
0.03723123 -0.025896655 0.051701505 0.15703256 0.12816979 0.19233567 0.2623542 -0.052701175
0.12618223 0.19747005 0.064518556 0.23604868 0.22245774 0.20105508 0.070209526 -0.040132377
0.024750095 0.13372487 0.05959602 -0.09608742 0.19103034 0.21306303 0.16003753 0.1348103
0.09753791 0.06224339 0.07962322 0.11478492 0.21905021 0.11680235

hidden_y0.weight f4 [30, 30]
00000000: 01e8 b1bd 2ea8 593d ff5d 803d b6ba e2bd
00000010: 375c 03be 7138 94bd c4ca c2bd 6d75 ffbd
00000020: 7391 c53d 3c93 9d3d 31cb 7bbd f97d 0f3d
00000030: 32a4 0b3e 1d82 a03d e641 1d3e 9026 5dbd
00000040: 85e9 19be e3d6 4bbe 8388 c13d 02a5 cb3d
00000050: 14eb 88bd 6540 90bc 1672 643d d0e5 8dbd
00000060: 32a9 053e 06b8 a0bd b112 a5bd 3a48 bcbd
00000070: c3fc d6bd 9f1a 693d 66fd 0fbd 8726 2c3e
00000080: 0a83 d53d 1343 6ebd f1cc a83d a311 043e
00000090: b330 f4bc 1083 e7bd ce8c 153e 3921 2a3d
000000a0: 8811 fc3d 8c8c e9bd f1f7 ca3c e072 5fba
000000b0: e77a e0bd ee55 6cbd f114 a7bd 62c4 17be
000000c0: 67fc b7bd 88c0 a63d bbf0 4b3d b4f9 abbd
000000d0: 7456 0fb9 98d0 bfbd 54b8 debc 3bbf b0bd
000000e0: 089b e0bd 9e5e 86bd 0cef 563c 0551 abbd
000000f0: 4d12 303e 366d 813d 712f 3d3e dd61 54bd
00000100: f6c5 90bd d34a e5bd 845e 1dbd 6179 72bd
00000110: a4e5 d5bd 0122 17bd 9d94 a93c fa5f f3bd
00000120: 5dd6 a9bc db8b 833d f016 083e beb1 133e
00000130: 7095 973d 37f1 f03c 4ed1 973d 346b 913d
00000140: 2937 44bd 52f9 3cbd 204a 053d 30f5 933b
00000150: 8a82 023d acf1 033e 767a 31be 08fc cdbc
00000160: ea41 70bd 8911 193e 3b9e a73d a967 db3d
00000170: 7d48 893d d8a7 113e c4c2 ef3d 49dd 07bd
00000180: ef49 2c3e f9af 593e d408 c1bd 7820 043e
00000190: 410a 9b3d 2703 033e aa66 5a3d 0d5a 34bd
000001a0: 2daf 143e ed57 14bd df2f 60bd 7902 463e
000001b0: 265f dfbd d39e fdbc 6d7a 2dbc bbcd c1bc
000001c0: 4963 673d cf27 76bd f94d 403e b3f3 f63d
000001d0: cc07 fc3c ab55 ca3d 84b4 ef3c 2eea 8a3d
000001e0: 133e 87bd c376 35be e03b babc f314 f33d
000001f0: 5716 13bd 6aa3 933d 47f0 e4bd 1351 32be
00000200: b8d6 cb3d 0d58 493d 7820 27bc 1de7 0f3e
00000210: 1613 1bbe 9c2d 103e 40fe a93d debe c83d
00000220: f0e7 b63d 7a14 04bd 1d24 3abe 5035 15be
00000230: c170 1d3e 24bc 06be e913 0c3e 1eb3 1ebe
00000240: e02c 333d 1ce4 9f3c d5aa 29be 2abe 48be
00000250: 218b d73b 0d98 1cbe 0dcf c8bd 5b72 8c3b
00000260: 3d20 00be a087 063e 4ada 983d 9e7a 4dbd
00000270: b7eb 8a3c 3f8f 0d3e 1d69 043e 0bd3 ccbd
00000280: 6e3c 7cbd 95bc 863c 7d2f cabc 0afa bc3d
00000290: a2dc 5a3e 88b2 063e 0264 483e a149 19bd
000002a0: 6af8 bbbd 2d8a fdbd b6e9 ac3d 73f2 1c3e
000002b0: 286a 0f3e 614a 1f3e 2139 a5bd eb6e 3a3d
000002c0: bc8b 023e 4dd9 373d 77d0 a1bd 3464 87bd
000002d0: 1647 0b3d 99e8 b63c 719c 0ebe c6b6 80bd
000002e0: 5d59 073e 2f41 12be 07af 18be c8a1 c7bd
000002f0: 0dc2 5ebd 7296 a7bd 3f7a 08be edd7 e6bd
00000300: 2c62 16be cf99 a3bd d990 763d 6434 6a3d
00000310: 8be0 13be 5b6e e03d b729 3dbb accb ba3d
00000320: 62db 10be d745 ecbc 185e 96bd 9e52 783c
00000330: c202 29bb 11bc 9a3d bfae 073e 8f64 1abe
00000340: bdbf 0a3e 4940 1abd dfd6 023e 7fd2 ec3d
00000350: 99c4 293e 4548 c83d fd1d 593e 75fe 1b3e
00000360: 9630 2f3e f942 dbbd f18b 52bc f3ab 24bd
00000370: 7dd4 1d3e 4377 5e3d f8b2 033e 78a4 cf3d
00000380: e052 253e c607 1f3e 87be 2e3e 7d13 523e
00000390: 86b2 493e 1f9e e9bd 3064 113c f6c1 00bd
000003a0: 1702 2dbd b3ff 5f3e db75 833d fd34 623e
000003b0: a7e5 b7bc ae50 2dbd 00c2 323d 4f17 4a3e
000003c0: 972a ea3d e454 cebd 312c e53b 8f7a a2bd
000003d0: b989 503b bef6 7e3d 3c8d a4bd 49c4 8fbc
000003e0: 2757 4d3e 9e4d d63d 909c 8bbd bdf3 193e
000003f0: 2434 403e a45f ec3d 7779 863c fe9a cebd
-0.08686829 0.053138904 0.06267928 -0.110707685 -0.12828146 -0.07237328 -0.09511331 -0.12473569
0.09646883 0.07694098 -0.061473075 0.035032246 0.13636854 0.07837317 0.1535717 -0.053991854
-0.15030487 -0.19906192 0.09449866 0.09943582 -0.066854626 -0.01760883 0.055772863 -0.06928599
0.13052824 -0.078476 -0.08060206 -0.091934636 -0.10497429 0.056910153 -0.03515377 0.16811572
0.10425384 -0.058169436 0.082422145 0.12897353 -0.029808378 -0.11304295 0.14604494 0.04153559
0.12308031 -0.1140376 0.02477643 -0.00085238926 -0.10960942 -0.057699136 -0.08158291 -0.14821008
-0.08983689 0.08142191 0.049790125 -0.083972365 -0.00013669749 -0.09365958 -0.027187504 -0.08630224
-0.1096707 -0.065610155 0.013118517 -0.083650626 0.17194481 0.063196585 0.18475129 -0.051851142
-0.07069008 -0.11195912 -0.038420215 -0.059197787 -0.10444191 -0.036897663 0.020700747 -0.118835405
-0.0207321 0.0642316 0.1329 0.14423272 0.0740155 0.029411895 0.074129686 0.071005255
-0.047904167 -0.046136208 0.032541394 0.0045153126 0.031862773 0.12885159 -0.17331871 -0.025144592
-0.05865661 0.14948095 0.08184477 0.10713131 0.06703279 0.14224184 0.117070705 -0.03317002
0.16825078 0.21258534 -0.09425512 0.12903011 0.07570315 0.12794171 0.053320564 -0.04403119
0.1451995 -0.036216665 -0.054733153 0.1933688 -0.1090682 -0.030959522 -0.010588271 -0.02365767
0.05649117 -0.06009656 0.18779744 0.12058201 0.030765437 0.09879621 0.029260881 0.067829475
-0.066036366 -0.17721085 -0.022733629 0.1186923 -0.035909977 0.07208903 -0.11178642 -0.1741374
0.09953064 0.049156237 -0.010200612 0.14053006 -0.15144 0.14079899 0.083004475 0.0980203
0.08930957 -0.03224609 -0.18177839 -0.14571118 0.15375043 -0.13157707 0.1367947 -0.15498015
0.043743968 0.01951795 -0.16569073 -0.19603792 0.0065778648 -0.15292378 -0.09805117 0.004286093
-0.12512298 0.13137674 0.0746351 -0.050165765 0.0169581 0.13824175 0.12930723 -0.10001191
-0.061581068 0.016447345 -0.024680847 0.09227379 0.21373227 0.13154042 0.195694 -0.037423734
-0.091782406 -0.123798706 0.08443014 0.15326862 0.14005339 0.15555717 -0.08067537 0.045515936
0.12748617 0.04488497 -0.0790109 -0.06610909 0.03400334 0.022327708 -0.13926865 -0.06284861
0.13217683 -0.14282678 -0.14910518 -0.09747654 -0.05438428 -0.08182992 -0.13327883 -0.11271653
-0.14685887 -0.07988321 0.06019673 0.05717887 -0.14441125 0.10958549 -0.0028863975 0.091208786
-0.14146188 -0.028841896 -0.07342166 0.015156416 -0.0025788997 0.07555402 0.13250254 -0.15077423
0.13549705 -0.037658963 0.1277728 0.115635864 0.16578902 0.09779409 0.21202846 0.15233786
0.17108378 -0.107061334 -0.012850747 -0.040203046 0.15413089 0.054312956 0.1286124 0.10138792
0.16144896 0.15530309 0.17064868 0.20515247 0.19697008 -0.11407112 0.008873984 -0.031434976
-0.04223832 0.21874885 0.064189635 0.22090526 -0.022448374 -0.04231327 0.043642044 0.19735454
0.114339046 -0.10074785 0.0069937934 -0.079335324 0.003182037 0.06224703 -0.08034751 -0.01754965
0.20052777 0.10464023 -0.06816971 0.15034385 0.1876989 0.115416795 0.01641534 -0.10088156

hidden_y0.bias f4 [30]
00000000: 8c20 8cbc ca98 84bd c918 dabd 6460 813d
00000010: 10dc 573d a29e 4b3d c6dd 363d f1ee 783e
00000020: 131c 353e 1e4d 2fb7 57cf 183e 97b9 1dbc
00000030: 2dd9 813c a593 0c3e 2cc3 073e 1172 723e
00000040: cca8 03be 5636 1cbb 9829 353d 2d7d 6f3b
00000050: 3733 46be 1e77 0f3e bc38 733e 2ee9 33bc
00000060: cabb 30be 6738 503e 14ae 1abd c74c 6e3c
00000070: ff37 ee3c 0b77 60bd
-0.017105363 -0.06474455 -0.10649259 0.06317213 0.052700102 0.04971183 0.044645093 0.24309899
0.1768649 -1.0448768e-05 0.14922844 -0.009626768 0.015850628 0.13728197 0.13258046 0.23676325
-0.1285736 -0.0023836098 0.04422912 0.0036543116 -0.19355474 0.14010283 0.23752111 -0.010980887
-0.17259136 0.20334016 -0.03776367 0.014544672 0.029079435 -0.05480103

out_y0.weight f4 [1, 30]
00000000: c5dc abbd e7c3 febd 0e0c 10be 278d f33d
00000010: b0f7 f8bd 90e8 7d3d ae89 09bd 62d3 443e
00000020: 1d59 f73d c011 1c26 1abe 503e 1c4a b1bd
00000030: 3c71 e53d f337 a0bd 9883 2ebd 8d09 293e
00000040: 1b23 18be 19bf 03bb cf5e 82bd 0ccb 97bd
00000050: ddf9 debd 6b50 d0bd 1ed7 eb3d 3ac3 bfbd
00000060: f597 2bbe d394 653e b75d 1c3e 64e6 823e
00000070: ed23 93bd da96 97bd
-0.08391718 -0.12439709 -0.14067098 0.11892157 -0.12156618 0.061989367 -0.033578567 0.19221261
0.12077544 5.414743e-16 0.20385018 -0.08656713 0.11203238 -0.078231715 -0.042605966 0.1650755
-0.14857142 -0.0020102917 -0.063657396 -0.07411775 -0.108875014 -0.101715885 0.1151564 -0.093634084
-0.16757186 0.22420053 0.15270124 0.255664 -0.07184587 -0.074018195

hidden_y1.weight f4 [30, 30]
00000000: 49ac 243e f612 ee3c c649 2a3e 1873 de3d
00000010: 0897 eb3d 3c59 0c3d 905b fa3d 1a6a 26bc
00000020: 3b20 adbb 4e60 9a3b 5d0c 813c cbd1 9bbd
00000030: f8ee a63d b631 313c 3708 8bbc 664a 1f3e
00000040: 7401 2c3e 6585 353d 5921 0e3e 6608 18be
00000050: bfb5 363e 845f 9e3d db23 21bd 72bb c43c
00000060: 7612 463e 2d8d 07be e4d1 863d c0ec 293e
00000070: 55b5 97bd 4f4f ad3d 578e 083c 2662 453e
00000080: ace9 2bbd 0fba cdbc d25b fe3d 0850 fb3d
00000090: 0ec1 8d3e 9f7a b1bd d6c5 7d3d 7de3 733e
000000a0: 6915 4a3e eb38 7f3e 772b a8bd dce5 713e
000000b0: 090d 833e c833 cf3d 4e55 533e b7c2 113e
000000c0: 9876 523e ea95 57bd 13a2 b93d ab94 253e
000000d0: 4005 8d3d adbf 853e 73fb 6a3e e462 2b3e
000000e0: 9ed7 323e 3698 7c3e 8387 4f3d fb37 2b3d
000000f0: 6bd1 acbd ddd7 d43d 30ae 893d 4ad0 bf3c
00000100: 173d 42be 20fb 1dbe f384 ce3c 71f5 94bb
00000110: 3e5f 1ebd 433c 05be baff 41be 631e 183e
00000120: a91c 923d b3c4 81ba ec71 533c 9800 18be
00000130: 874f 6cbd eb34 a93d 2c98 4ebe d5aa cebc
00000140: 0773 1f3e 0418 d93d e978 9e3c 749b 13bd
00000150: 9c47 183e d276 933d 29b1 243a ebb4 85bd
00000160: f09e cd3c 9680 9b3c 568a 903c 6578 e5bd
00000170: 2983 f63d 7b7d 153e 50e4 ffbd 627c 9a3d
00000180: 8752 483c 92aa 843d 43b6 87bd 0835 143e
00000190: 924a 18be e874 983c ddd0 fd3d eef7 f0bd
000001a0: 3558 41be 131d ba3d 263e 013e 127d 323d
000001b0: 90ae 333d 8816 5bbd 9062 1fbe 9343 3ebd
000001c0: 1adf bf3d 84cf f63d 0856 8d3d fbd4 c7bc
000001d0: bae6 f73c aade 18bc 6476 88bd f061 a73b
000001e0: 6a5c 33be 8f1e 39be e241 46be 4f0b b13d
000001f0: 0487 df3b e2af 10be 63a3 e03d a194 15be
00000200: 9e01 42be a9ef 243e 8b11 efbd 1e3a 10be
00000210: 5501 da3d 3c8d 92bd 440e 3fbd 39f8 40be
00000220: dd98 863d 4ed6 e9bd 5f31 8f3d 082a 9d3c
00000230: 9d21 663d c35a 09bd 16f1 c6bc e82e 10be
00000240: f5fa f7bd 43be 2cbe 5e48 8f3d 1968 17bd
00000250: 6f8d 8f3d d3e9 bfba a5da 46bd 7f76 1b3d
00000260: 5223 c73d 6fed 8e3d f0c0 543d dd6a 10be
00000270: db3c 62bd 6326 3dbe 8d21 063e e033 f83d
00000280: a375 4dbe b3a1 c73d b3de d23d 4b77 983d
00000290: fbd7 813d 1402 57be 2871 57be c0f5 313d
000002a0: f26f 503d fde9 8abd 078f 2fbe a790 8b3d
000002b0: f2a3 fe3d 13a1 0fbe 40d3 d33c 133a 8e3d
000002c0: f47f 273d 0718 60bd 1f3c 07bc 73bf 39be
000002d0: 3468 783e d61b 313e c978 823e 4fcf 333e
000002e0: 932b 233e bc71 20bc 0f06 853e fe10 0c3e
000002f0: aedb 143d e3f3 cb3b 65ee f2b9 9ab2 9abd
00000300: 6444 2a3e 8fa3 abbd 3379 aebd ce14 ad3d
00000310: 600e 753e 0c5f 1ebd c120 033d 7b82 71bd
00000320: f318 763e 44ee b43d ba57 1bbc 7bdd 3bbb
00000330: abba 213e 599f ae3d 1398 173d 59f1 463e
00000340: a144 663d e732 523e 6497 3abe aba5 56bd
00000350: 90d4 f6bd 3cde 14be 5812 8a3b 0859 b03d
00000360: 2f2c 0fbe 8799 ddbd 2225 17bd 3d07 af3d
00000370: 932f f73d 3a23 a9bd 8c79 19be f1a8 edbb
00000380: 9ecd f43d 54b9 f63d 1071 30be f3a4 c03d
00000390: 3dbb cf3c 3d65 bbbd cf25 183d 2775 f43d
000003a0: e1b6 bb3d 7aa6 debd b3bc edbd 481a 33bd
000003b0: b853 c6bd 42a5 13be e875 a93d 9a17 e4bd
000003c0: 48a2 e5bc f0ca 16be 2aa3 ed3c 6108 24be
000003d0: eee3 0dbd 69ab 113e 2578 04be 25f5 123d
000003e0: 26a2 a2bd bf47 33bc 40b5 f9bc 8af3 803d
000003f0: 0815 23be c6cb b03c 29b0 d83c 6fdc 02be
0.16081347 0.029061776 0.16629705 0.10861796 0.11503416 0.034264788 0.122244954 -0.0101571325
-0.005283383 0.0047111874 0.015752966 -0.07608374 0.081510484 0.010815075 -0.01697169 0.15555725
0.1679743 0.044316668 0.13879909 -0.14846954 0.17842768 0.07733062 -0.039340835 0.024015162
0.1934298 -0.13237448 0.06583002 0.16594219 -0.07407633 0.084623925 0.008334718 0.19275722
-0.041970894 -0.025113134 0.12419857 0.12271124 0.27686352 -0.08665966 0.06195625 0.23817249
0.1973473 0.24924056 -0.08211415 0.2362284 0.25595883 0.10117298 0.2063801 0.14234434
0.20553052 -0.052633204 0.09064116 0.16169994 0.06885767 0.261228 0.22947483 0.16736943
0.17465064 0.24667439 0.050666343 0.041801434 -0.08438381 0.10392735 0.06722677 0.02341475
-0.18968616 -0.15427828 0.02520988 -0.0045458605 -0.03866505 -0.1301127 -0.18945208 0.14855342
0.07134373 -0.000990054 0.012905579 -0.14843976 -0.05769303 0.082620464 -0.20175236 -0.025227943
0.15571223 0.10600284 0.019344764 -0.036036924 0.14871067 0.072003976 0.00062825024 -0.06528648
0.025100201 0.018982213 0.017644089 -0.11204604 0.120367356 0.14598648 -0.12494719 0.075432554
0.012226707 0.06477846 -0.066265605 0.14473355 -0.14872196 0.018610433 0.12393353 -0.11766039
-0.18881305 0.09087577 0.12621364 0.043576308 0.043867648 -0.053488284 -0.15564942 -0.046451163
0.09368725 0.12051299 0.06901175 -0.02439355 0.030261386 -0.009330431 -0.06663206 0.0051081106
-0.17515722 -0.18078063 -0.1936107 0.08644735 0.006821515 -0.14129594 0.109686635 -0.14607479
-0.1894593 0.16107048 -0.11673268 -0.1408467 0.10644785 -0.071558446 -0.046644464 -0.1884469
0.06572125 -0.114178285 0.06991839 0.019185081 0.0561844 -0.033533823 -0.02428488 -0.14080393
-0.12108413 -0.16869454 0.06996225 -0.03696451 0.07009398 -0.0014641829 -0.04854836 0.037954804
0.09723534 0.069788806 0.051941812 -0.14103265 -0.055233818 -0.18471675 0.13098736 0.12119269
-0.20064406 0.097476386 0.10296383 0.07444628 0.06340023 -0.20996886 -0.2103926 0.043447256
0.05088801 -0.06782911 -0.17144404 0.068146996 0.12433614 -0.14026289 0.025857568 0.069446705
0.04089351 -0.054710414 -0.00825408 -0.18139438 0.242585 0.17295775 0.25482777 0.1755955
0.15934591 -0.009792741 0.25981185 0.13678357 0.036342315 0.006224142 -0.00046335455 -0.07553597
0.16627651 -0.08380806 -0.08519211 0.08451234 0.23931265 -0.038664863 0.03201366 -0.058962326
0.24032955 0.08834508 -0.009481365 -0.0028665948 0.15793864 0.08526487 0.037010264 0.19428004
0.056217793 0.2052723 -0.18221813 -0.052404087 -0.12052262 -0.145379 0.0042136125 0.08610731
-0.13981698 -0.10820299 -0.036900647 0.085463025 0.12069621 -0.08258672 -0.14987773 -0.0072528054
0.11953281 0.12047067 -0.1723063 0.094064616 0.025357837 -0.09150169 0.037145432 0.119364075
0.09165741 -0.10871597 -0.11608257 -0.043726236 -0.09683937 -0.1441851 0.08274442 -0.11137314
-0.028031483 -0.14725852 0.029008467 -0.16018821 -0.0346412 0.14225544 -0.12936457 0.03587832
-0.079410836 -0.010942399 -0.030481935 0.062964514 -0.15925992 0.021581542 0.026451187 -0.12779401

hidden_y1.bias f4 [30]
00000000: bfeb 643e 02cc b5bc f017 c1bd b7a8 a2bd
00000010: 76fa 243e aa67 aebd d841 07bb 0cb8 bb3d
00000020: 90f0 93bd 046c 063e 1c07 0e3d 1ff2 503d
00000030: 65a6 40be b4a6 983d 364e 033d c2fd 1f3e
00000040: 3876 a13d 3f79 203d 0a50 d63c ade9 d2bc
00000050: 1ab0 19be 6d0e 693e 7420 e8bc 0de4 843e
00000060: 4ae4 0f3d b6a1 15bd bf93 75bd 4614 883d
00000070: 6923 dc3d c33f 383c
0.22355555 -0.022192005 -0.09428394 -0.07942336 0.16111168 -0.08515866 -0.0020638611 0.091659635
-0.07223618 0.13127142 0.03467475 0.051012155 -0.18813474 0.07453671 0.03205701 0.15624145
0.078838766 0.03917813 0.026161212 -0.02574619 -0.15008584 0.22759409 -0.028335787 0.2595524
0.035129823 -0.036531173 -0.059955355 0.06644492 0.107489415 0.011245671

out_y1.weight f4 [1, 30]
00000000: f1f6 833e 1929 8a3e 489b 42bd 8c5d 0fbd
00000010: 2543 09be b8c1 02be b584 153e 9d32 d9bd
00000020: 6b97 95bc b1a4 c23d 1578 a0bd 0fb8 133e
00000030: 51bb 1cbe 93be 5e3e e3ba 8abd d51e 16be
00000040: 3c2c 053e 3737 483e b9c3 0f3e c2af 233e
00000050: 0506 79be 75ba 0b3e a81f 9e3d 020a 303e
00000060: 4484 893e 9641 59bd dcd4 853e b6c5 5f3e
00000070: 30cb 6f3e d375 1c3e
0.2577434 0.2698448 -0.04751137 -0.035001323 -0.1340452 -0.1276921 0.14601405 -0.10605357
-0.018260678 0.09504069 -0.07835404 0.14425682 -0.1530583 0.21752386 -0.06773927 -0.14660199
0.13005155 0.19552313 0.14039506 0.15985015 -0.24318703 0.13645346 0.07720882 0.17191318
0.26858723 -0.053041063 0.2613896 0.21852764 0.23417354 0.15279321
