DR_Info_CFR/IHDP/Models/netQ1.pth (torch, 8831 bytes, 8 tensors)

hidden1.weight f4 [30, 1]
00000000: fa13 8abe d6b3 4e83 4965 55bd d8f7 b43e
00000010: a12d a9bd 322b 64bb 6b23 72bb 0515 c0bd
00000020: b15b b03e 1dda 7d3e 5137 f9b4 5644 133f
00000030: 12a4 5c83 a349 503e 3c00 ecbc ba3a 163f
00000040: 4e46 193f d401 55bd f825 1b3f b815 a0bb
00000050: 8789 54bd cdc0 ffba efc1 a03d 31f6 f5bb
00000060: 6a48 5683 f342 e0bc edbd d9bc ded6 afbd
00000070: 4d6c 023f de28 233f
-0.26968366 -6.07444e-37 -0.052098546 0.3534534 -0.08260656 -0.0034815785 -0.003694738 -0.09379009
0.34444955 0.24790235 -4.6420112e-07 0.5752615 -6.4840533e-37 0.2034059 -0.028808706 0.5868336
0.598729 -0.052003697 0.6060481 -0.0048854016 -0.05188897 -0.0019512415 0.0784949 -0.007506155
-6.2972075e-37 -0.027375674 -0.026579821 -0.085859045 0.50946504 0.63734233

hidden1.bias f4 [30]
00000000: 5425 a43e 3634 5e83 9c08 683e 42b5 3d3f
00000010: fe9b 123e 30f2 5dbd d594 5183 b30c aa3e
00000020: 5369 483e 82bf 0cbf 49e3 78b5 1c74 163f
00000030: 9a38 fab2 d71c 793e bcd7 3e3f 6250 45bf
00000040: ea67 86be 15e6 98b8 b8e1 2d3f 3659 c6bc
00000050: 8bab 613e 5079 af3e 1c05 023f 3eb0 68bb
00000060: bfe9 0abb 62ee 123e 157a ae99 2467 633e
00000070: f8ae 7e3d 66ee 203f
0.3205973 -6.529987e-37 0.22659534 0.741047 0.14317319 -0.054186046 -6.159043e-37 0.33212814
0.19571428 -0.5497972 -9.271794e-07 0.5877092 -2.912957e-08 0.24327408 0.74547935 -0.7707578
-0.26251155 -7.290781e-05 0.67922544 -0.024212461 0.22038095 0.34272242 0.50789046 -0.003550544
-0.0021196452 0.14348748 -1.8040487e-23 0.22207314 0.062178582 0.6286377

hidden2.weight f4 [30, 30]
00000000: 5937 53b6 c0bf 5703 cc4d cfbb d2ef b23d
00000010: 5295 8235 a1cf 5383 cd0d 4503 47aa 183c
00000020: 7a26 61bc 47e2 2dbd b130 5983 642f 573c
00000030: f153 5a83 7727 8d3d 2247 eabd a91c b83d
00000040: 1420 30be 16aa 5683 5fb6 f0bd c7c4 5483
00000050: b519 34bb ef9f 233b de58 003e 36e6 5083
00000060: 8aa7 5783 08b4 9039 c8fa 4f83 a314 3eb8
00000070: 1977 f23d 0fb2 0f3e 8d9a 5e83 4706 5303
00000080: 8d48 0324 3fc1 15bb 3c58 5103 508d 5083
00000090: 7cfe 5803 ec6e 5283 bba4 58bd 87b8 173e
000000a0: 1bd8 4e03 934f aabd 12ff 5403 f186 123d
000000b0: 8bcc 37be ace0 a03d 9c07 093e f8a5 5803
000000c0: f497 493d 53ab 5883 128e 5e83 5da3 08be
000000d0: cfb8 fe3c f50b 5a83 822e 5303 6eba 15ba
000000e0: bd75 5a83 9c58 5e83 d3fb cdbd 18a6 ab3d
000000f0: 57dd 5583 e9ba 5383 f077 5883 8e70 5903
00000100: 73a5 5783 f14c 5203 6b82 5983 620e 5503
00000110: b08a 4c83 7de9 5503 ed60 5d03 cc9f 5083
00000120: 5b41 5303 8496 5283 91c8 5003 8773 5503
00000130: ffa8 5c83 68cc 5d03 5f58 5d03 836d 1b03
00000140: 8b44 5a83 75ad 5383 9c4b 5583 0428 4f83
00000150: 878b 5303 ea18 5583 0092 5403 6445 5603
00000160: 1b8c 4f83 3347 5883 4d39 753d a6f1 5803
00000170: 1c89 3a3d 0bf9 013e b9d5 4cbc 1054 5103
00000180: 3ab0 5203 6957 01bb c037 acbc 6319 e93d
00000190: 9334 5583 9fee 363d 5409 4a03 745f bc3d
000001a0: 603f 533d e045 07bd 013c 933d f451 5a83
000001b0: 0eda 203d c3c8 5c03 3669 6b3d 40a4 48bd
000001c0: b61c 373d f673 5683 3994 5b83 a7ea 05bd
000001d0: a2d8 5083 7048 21bd e8b6 2cbe 2e94 e63d
000001e0: ab05 013d 4774 5c83 7f6d 82bd 14e8 8ebd
000001f0: 34a7 84bc be9a 5683 7193 5783 a884 a3bd
00000200: 2992 03bc 73d2 2a3d 72bd 5983 1f86 1d3e
00000210: bf11 5a03 0971 0c3e 0c23 5d3c c8da a93c
00000220: 741f b4ba 52ef 5983 7675 7abc 4e8b 5b83
00000230: bf71 153c 4615 523d e9ee 0abe 61a2 5903
00000240: 7994 4e83 3c8c 3bbd c094 5803 d508 ec3c
00000250: 2b7d fb3d b192 473d 6ea2 c53b 21db 5883
00000260: ab09 283c 6124 c43d da2a 5bbc fbae 5c03
00000270: 484d 4303 a56c e5bc 643d 28be 42db 62bc
00000280: 4ed8 5503 e63e 783a 2efe 4f03 c30e cd3d
00000290: 6dfe 7b3d 6332 28be da7b c0bc ad33 4d83
000002a0: 5e89 983d c30d 5a03 2da3 113d cc35 053e
000002b0: 0156 efbd 279b 5a03 cefe 5783 20c7 923b
000002c0: 5c7c 4f83 372d 1cbc 4ed7 c13c 65b8 ba3d
000002d0: c293 b53c c0ae 4f03 9f8c d6bc 9e3a 333c
000002e0: 64c1 b83c 19ed 5d83 0624 5003 e458 243b
000002f0: cc2a f23b 9be8 01be 7e3d 5803 a54a b43d
00000300: 2310 5483 9c6e 09be 4f0f 3bbd b731 633d
00000310: 707e 73ba d5c0 5603 6ad3 d1bb f754 5683
00000320: 903f 30bc 3dc2 463b 1a45 343d 5ae1 5103
00000330: ca2c 4d03 372b 9c3c 6487 5083 9cd1 d73a
00000340: 7a53 ec3d 01b9 1bbd 4193 33bc 6a41 5d83
00000350: 7ee4 dbbc 464b 0d3e 0583 3a3c fab4 3f03
00000360: 1467 5b03 c04b 8739 8ef9 b53c 15c5 bdbd
00000370: 0ed4 5103 d1aa c2bc 84c9 5803 5317 1a3c
00000380: 7d41 413d d482 9fbd b7bc 2e3d 44ec 4e03
00000390: 235f aa3c 7447 5303 7fa5 f9ba 39d5 1dbe
000003a0: da75 ce3c f538 4f83 3c5c 4e03 01c2 e43b
000003b0: 8ab5 4303 e523 1a3b 3d44 a23d 42c0 fb3d
000003c0: 78c9 4a83 5507 5403 f021 f7af 7c8b 1b3d
000003d0: 3fbb 2483 7d8a 5583 1f57 5303 dd4c 5c03
000003e0: 9653 973d 7720 85bd 0443 5983 3a21 fc3d
000003f0: 8ca1 5b03 dffc 373d 36ed a2bc 634c b93c
-3.1473667e-06 6.340294e-37 -0.006326413 0.08737148 9.729213e-07 -6.2245673e-37 5.790894e-37 0.009317941
-0.013742084 -0.042452123 -6.3826464e-37 0.013133857 -6.41608e-37 0.06892293 -0.11439349 0.089898415
-0.17199737 -6.3084197e-37 -0.117535345 -6.252709e-37 -0.0027481143 0.0024967154 0.125339 -6.1389975e-37
-6.3375147e-37 0.00027599954 -6.1119715e-37 -4.531875e-05 0.11839122 0.14032768 -6.541735e-37 6.2014533e-37
2.846755e-17 -0.002285078 6.152087e-37 -6.1287925e-37 6.376883e-37 -6.1840785e-37 -0.052891474 0.14816485
6.0786036e-37 -0.08315959 6.2594007e-37 0.03577322 -0.1794912 0.07855353 0.13381809 6.3667218e-37
0.04921718 -6.3673366e-37 -6.5403025e-37 -0.13343568 0.031093983 -6.407817e-37 6.2060715e-37 -0.0005711679
-6.41996e-37 -6.5341655e-37 -0.10057797 0.08381289 -6.284916e-37 -6.222189e-37 -6.3614376e-37 6.3899775e-37
-6.3372748e-37 6.180178e-37 -6.392028e-37 6.2611585e-37 -6.0109417e-37 6.2863106e-37 6.505733e-37 -6.1309144e-37
6.208235e-37 -6.1886237e-37 6.1355945e-37 6.2727693e-37 -6.4846187e-37 6.518071e-37 6.504751e-37 4.567612e-37
-6.4143126e-37 -6.2206446e-37 -6.268187e-37 -6.087777e-37 6.2167497e-37 -6.2623674e-37 6.24688e-37 6.2968604e-37
-6.0992666e-37 -6.3558428e-37 0.0598691 6.3754094e-37 0.045540914 0.12692659 -0.012502127 6.151608e-37
6.191575e-37 -0.0019735938 -0.021022677 0.11381795 -6.2655426e-37 0.04466116 5.9373173e-37 0.09197894
0.05157411 -0.033025622 0.07189179 -6.415852e-37 0.039270453 6.4882652e-37 0.057473384 -0.048984766
0.044705115 -6.3022064e-37 -6.4528467e-37 -0.032694485 -6.137439e-37 -0.039375722 -0.16866648 0.11258732
0.031499546 -6.478567e-37 -0.06368541 -0.06977859 -0.01619301 -6.3066583e-37 -6.3352076e-37 -0.079842865
-0.008030453 0.041704606 -6.398804e-37 0.15383194 6.4084814e-37 0.13714994 0.013497125 0.020734206
-0.0013742284 -6.4045295e-37 -0.015286794 -6.451823e-37 0.009121357 0.05128982 -0.135677 6.395697e-37
-6.0708397e-37 -0.045788035 6.364745e-37 0.028812805 0.12279733 0.04872388 0.006031326 -6.3728243e-37
0.010256211 0.09577251 -0.013376916 6.4853057e-37 5.7394064e-37 -0.028005907 -0.16429669 -0.01384622
6.284338e-37 0.0009469822 6.1123617e-37 0.10012581 0.061521936 -0.16425471 -0.023496557 -6.0303406e-37
0.07448076 6.408024e-37 0.035556007 0.13008803 -0.11686326 6.424255e-37 -6.3475323e-37 0.004479304
-6.097459e-37 -0.009532264 0.023662236 0.09117202 0.022165183 6.1032436e-37 -0.0261901 0.010939268
0.022553153 -6.5218238e-37 6.116706e-37 0.0025077397 0.0073903557 -0.12686388 6.3547285e-37 0.088033
-6.2319725e-37 -0.134211 -0.045668896 0.055467334 -0.0009288555 6.311031e-37 -0.0064033763 -6.2986483e-37
-0.010757342 0.0030328177 0.044011213 6.167827e-37 6.02955e-37 0.019063575 -6.1281127e-37 0.0016465667
0.115393594 -0.03801823 -0.010960401 -6.5021155e-37 -0.026842352 0.13798246 0.011383777 5.6337606e-37
6.4476644e-37 0.00025805645 0.022213724 -0.09266106 6.1663007e-37 -0.023763092 6.3708024e-37 0.009404975
0.047181595 -0.07788625 0.04266044 6.080918e-37 0.020797318 6.208935e-37 -0.0019046514 -0.15413369
0.02520268 -6.0897216e-37 6.064384e-37 0.006981135 5.7513746e-37 0.002351993 0.07923172 0.1229253
-5.959374e-37 6.2309617e-37 -4.4953152e-10 0.03797482 -4.8410216e-37 -6.275405e-37 6.2107337e-37 6.4740424e-37
0.073889896 -0.06500333 -6.38475e-37 0.12311025 6.4543762e-37 0.04491889 -0.019888502 0.022619432

hidden2.bias f4 [30]
00000000: ec26 9ebd 1597 75bd c829 5503 52c5 0b3e
00000010: af3a a53d 2896 64bc 4096 c73d 051f af3d
00000020: c577 813d 8cb8 39be 60c6 23bd 9982 11bd
00000030: 9da5 5983 71b0 9abc 4a7f 5103 800f 941f
00000040: 2d6c fa36 557d e8bd 1755 793d 252d fc3d
00000050: 0887 053e ee37 c9bc 4185 383e 1a62 c4bb
00000060: 2b82 0abc 7d98 ae3b 74c3 133d dc5e c5b4
00000070: 27dd 0cbe 9c2f f23d
-0.077222675 -0.059958536 6.2643037e-37 0.1364949 0.08067834 -0.013951816 0.09745455 0.085508384
0.06321672 -0.18136805 -0.039984107 -0.03552494 -6.3960683e-37 -0.018882962 6.15657e-37 6.270608e-20
7.463174e-06 -0.1135203 0.060872164 0.12313298 0.13039792 -0.024562802 0.18019582 -0.00599314
-0.008453886 0.0053282366 0.03607507 -3.676313e-07 -0.13756238 0.11825487

out_mu1.weight f4 [8, 30]
00000000: b59c 6dbd e344 c9bc e6b1 4d03 a250 c8bd
00000010: 9f10 d3bd 3041 b93d e5e1 f23d 78b0 253d
00000020: bbc3 643d c19d 89bd b39f 9eb9 4645 44b6
00000030: 3260 5a83 f774 88bb bb48 5503 d3a2 5603
00000040: 8e0b c938 aa42 19bd 3aca 1b3d de74 a93d
00000050: b70c 3b3e 1881 a5bb 155e 303e bd96 9cbb
00000060: fed6 1abb 2744 16be ff81 60bb e8b5 0a34
00000070: 7a87 1bbe dcbc eb3d bd61 3dbe 00c8 5cbd
00000080: 8670 5d83 6873 acbd 9cf6 6c3d 5be3 803d
00000090: 50d0 fd3d f047 57bd ddf6 013d 69de 093e
000000a0: 2201 2ebd 9f95 cb39 14e5 4e03 58a7 8d3c
000000b0: efbf 5603 8a9f 5c83 a863 113a 4ff5 07bd
000000c0: 09ff 353d 444c a93c b42f a73b 0f92 29bd
000000d0: 377b 333d 7b37 9bbb cfec 233b 5c79 023d
000000e0: 70b7 09bb 2c28 1535 a48f 30bb 35a7 febc
000000f0: 2a17 8ebd 4c96 a03d 092b 5303 44c9 9b37
00000100: a7f3 143e 2ce2 653c 00f1 8c3c c5d2 84bc
00000110: c231 94bd fd84 abbd 8fb5 c63c bb4e 6439
00000120: 96b4 4e03 f33e ec3b d15e 5503 2b7e 5c83
00000130: f997 9eb8 95c2 3f3d b5f6 2e3d ebcc 4f3d
00000140: e08c cb3d d24b 643c 9b11 73bd edae b63b
00000150: 0e41 cabc 6b68 44be d000 eb3b 17da ad32
00000160: 0bac 96bd 08fd 00be 6b2f cd3d b10c 733d
00000170: bbdc 5983 6add debc 71b2 e93b e3de 67bc
00000180: f657 ffbd 6bdd 503d 184d c9bc 1569 cd3d
00000190: d740 353d ecb6 8e3b 04af 5d83 c5c4 7fbb
000001a0: 7168 5483 4c7c 5003 1306 8cb8 7b92 cdbc
000001b0: b25f 213d 9f77 29be 883f 8fbd 0b49 db3c
000001c0: 529b b53c 80d2 b4ba f94e 713c 915e 65bd
000001d0: 5c6a 1abb 0634 8db0 6e91 7cbd 7859 c13d
000001e0: d099 36bd c82e 593d 5037 5003 ed34 ed3d
000001f0: 605f 5ebd b5ef babd aa9f 0c3e c5b6 e63d
00000200: 2a3b 063d e80b 3dba 1076 62bc a089 cf39
00000210: 32c8 5703 a54e c83b cc0a 5983 5168 5183
00000220: 534d d638 6b96 ae3d 419f 52bd 8880 babd
00000230: 8a5c 3bbe 744f afbb 79a6 38be 61ac f73a
00000240: 96b8 4eb9 e408 463d 3e62 45bc d0ea f432
00000250: b14e dbbd 303d 793d 7f31 ecbd 5c00 c9bd
00000260: 35bd 4f03 4f2b d33d cef6 2c3e 2b82 d7bc
00000270: 725b 41bd 8323 abbb c1b3 af3c c889 4abb
00000280: 83d3 e6bc a54b b8b9 7e5d 5883 e2ae febb
00000290: f45b 5a83 2780 5d83 1aa6 43b7 4c48 73bc
000002a0: c8f3 12bc 2ef5 a3bd fe52 f33c fe2b 613a
000002b0: 3c9c 38bd 12c0 6e3b a0a8 953c 741f 07be
000002c0: 7a3d d5bb 0bc1 21b4 edcd 663c 2f24 f0bd
000002d0: f428 babd 5e8b 90bd 26d4 4c03 bee3 093e
000002e0: db43 06be db20 9b3d 3e7c 01be 5cdc 0b3e
000002f0: dfe6 b6bd 6082 5d3d e819 293d 9a5e b1ba
00000300: ec89 4d83 88be afbb 8fe9 5683 7187 5303
00000310: 47dc 7739 b0e1 483d 51f2 17bd 4ae1 a5bd
00000320: dfb7 f7bd 8baa 42bc 2d9c c4bd 4b1c 953b
00000330: 0ff0 d13c 31cc 20be 70bf 323c 7a0a 15b5
00000340: b97f 8b3d 7936 b23d a85e 163c 8448 6dbc
00000350: 6c67 5583 36cf aa3d 5f3e 413b 19e6 3d3d
00000360: f4d0 2b3e 2bef 78bd 77ae e8ba 3936 c2bd
00000370: 2f0a 5e3b 0663 bcb7 84f2 4e83 85bc 88bc
00000380: dd49 5c03 ab5b 5283 3897 073a 61c7 063d
00000390: 57f2 a23c e5c6 4e3d ef07 143e cae4 dabb
000003a0: 01dc 963c 6cbe d63a 47cc 663b f492 21be
000003b0: 7d29 40bc 0525 d6b4 ea79 303d 7ed5 29be
-0.058010776 -0.02456898 6.0448303e-37 -0.097810045 -0.103059046 0.09045637 0.11859492 0.040451497
0.055850726 -0.06719542 -0.00030255094 -2.9246598e-06 -6.417487e-37 -0.004164334 6.2678565e-37 6.307586e-37
9.586579e-05 -0.03741709 0.038034655 0.08274244 0.18266569 -0.0050507896 0.1722339 -0.0047787116
-0.002362668 -0.14674436 -0.0034257171 1.2918429e-07 -0.15188399 0.115106314 -0.18494315 -0.053901672
-6.5075233e-37 -0.084204495 0.057852373 0.062933646 0.12393248 -0.05255884 0.031729568 0.13463749
-0.04248155 0.00038830654 6.080093e-37 0.01729171 6.3109277e-37 -6.483533e-37 0.0005546161 -0.03319293
0.044432674 0.02066625 0.005102122 -0.041399058 0.04381868 -0.0047368384 0.0025012975 0.03185402
-0.0021013878 5.5565283e-07 -0.0026941085 -0.03108559 -0.06938012 0.07841167 6.205673e-37 1.8571161e-05
0.14546071 0.014030974 0.017204762 -0.016213784 -0.07236053 -0.08374975 0.024256496 0.00021773104
6.074526e-37 0.0072096526 6.270392e-37 -6.4797023e-37 -7.562334e-05 0.046816427 0.042715747 0.050732534
0.09938979 0.013934093 -0.05934296 0.005575052 -0.024689224 -0.19180457 0.0071717277 2.0239026e-08
-0.07357033 -0.12596524 0.1001881 0.059338275 -6.4023955e-37 -0.027205188 0.0071318676 -0.014152261
-0.12467949 0.05099241 -0.024572894 0.100298084 0.04425129 0.004355302 -6.514697e-37 -0.0039027196
-6.2421093e-37 6.126839e-37 -6.6768516e-05 -0.025094261 0.039397903 -0.16549538 -0.069945395 0.026768228
0.022168789 -0.0013795644 0.014728301 -0.05599839 -0.002356193 -1.0273886e-09 -0.06166213 0.09440893
-0.04458028 0.05302313 6.11892e-37 0.115823604 -0.054290175 -0.09127752 0.13732782 0.11265329
0.032771267 -0.0007211552 -0.013822094 0.00039584655 6.3412634e-37 0.006112891 -6.3782963e-37 -6.153933e-37
0.00010218718 0.08524784 -0.051421408 -0.09106547 -0.1829702 -0.0053500477 -0.18032254 0.0018895977
-0.00019714455 0.048348323 -0.012047349 2.8512119e-08 -0.107083686 0.06084937 -0.11532878 -0.09814522
6.104903e-37 0.10310995 0.16891024 -0.026307186 -0.04720635 -0.005222739 0.021448018 -0.0030904878
-0.028177029 -0.00035151574 -6.358402e-37 -0.0077723125 -6.417e-37 -6.5093175e-37 -1.1661579e-05 -0.01484878
-0.008969255 -0.08005749 0.02970266 0.0008589624 -0.04507087 0.00364304 0.018268883 -0.13195592
-0.0065075727 -1.5064522e-07 0.0140871825 -0.117256515 -0.090898424 -0.07057832 6.0193746e-37 0.13465783
-0.13111822 0.07574626 -0.12645051 0.13658279 -0.08930754 0.054079413 0.04128447 -0.0013532222
-6.040241e-37 -0.0053632893 -6.315706e-37 6.2162806e-37 0.00023637815 0.049043357 -0.037096325 -0.08099611
-0.120956175 -0.011881481 -0.09600101 0.004550492 0.025627164 -0.15702893 0.0109099 -5.552207e-07
0.068114705 0.08701796 0.009177841 -0.014482621 -6.2713797e-37 0.083403036 0.002948664 0.046362016
0.16778928 -0.060774963 -0.001775219 -0.094829984 0.0033880582 -2.2457458e-05 -6.0816353e-37 -0.016691456
6.473698e-37 -6.1818683e-37 0.00051723747 0.032904986 0.019890947 0.05048265 0.14456151 -0.006680106
0.018415453 0.0016383654 0.0035216974 -0.15778714 -0.011728642 -3.9887541e-07 0.043085016 -0.16585347

out_mu1.bias f4 [8]
00000000: 0a88 01be 521e de3d 6f3f 5d3d 10db 0e3e
00000010: ff09 f03c c626 193e b8d5 ce3c bbc5 18bd
-0.12649551 0.10845627 0.054015573 0.13950753 0.029301642 0.14956197 0.025248393 -0.037297945

out_var1.weight f4 [8, 30]
00000000: bda5 0d3e 8023 a23c 209e 5903 721e 9a3c
00000010: c803 c93d 5e5c f53c e052 f43d 7e74 15be
00000020: 1e05 383d d347 f93d 3221 16ba 07f4 1936
00000030: 233b 5003 a1b1 bb3b 3cd1 5803 9ff8 5b03
00000040: ad68 e137 ab3d a23c ca01 48bc e318 4e3d
00000050: 4680 073e 80a3 a73a 29c7 153e e5e6 c639
00000060: 761c 713b 0e74 8dbd 83f7 0d3c 604d 182e
00000070: 4733 20be cba6 cebd 4518 b03c 6270 1a3e
00000080: 5c4b 5403 1cd7 27bc 9918 22be 0cc3 523d
00000090: 0969 d13c bb0f 083e c1c6 58bd 434a 283e
000000a0: cc84 083c 3208 79b5 d444 5c83 be29 08bc
000000b0: d42b 5183 f222 5803 78d9 8a36 a8cb 1f3b
000000c0: a92b 12bc a948 313e 0528 393d c134 2ebb
000000d0: a809 08be 48a4 453b 6237 313b 1d9a 25bd
000000e0: eee2 e63a ca65 2531 cd89 10bc 5e74 12be
000000f0: 0e09 a9bd cd93 473e 95ea 4983 4c18 d43d
00000100: 345e 583c f9b1 393d 3504 7dbd 441a 0dbe
00000110: b2a9 493d 13bd 4e3d d75c 713b cd76 b4b2
00000120: 94df 5603 93e4 97ba ebc5 3d83 e171 5883
00000130: dcd7 39b6 45ce bebd f159 a13c af0f 4d3d
00000140: 01d7 21be b3d9 c3bb 10b1 723d c1e1 69ba
00000150: 4462 ae39 d721 ab3d fa1d 173b dbea 3d32
00000160: 6e49 1f3b 9b50 acbd 03d1 86bd 79f2 073e
00000170: 4d4f 5a03 7636 a6bc 4427 b63b a5b4 b3bd
00000180: fdee fd3d 60c0 983d bcbe 6dbd a307 343e
00000190: 5eba 17bb 8c85 8bb2 920c 5003 a40c 02ba
000001a0: 48e8 5a03 80ea 5c83 4480 b9b8 353c 1cbe
000001b0: 6872 af3c f340 39be 40f9 923d 887f 0e38
000001c0: 64da 8d3d 7f15 8b39 90fc 8f3b 0a51 723d
000001d0: b6df 40bc 77c0 86ac c314 dbbb 8ed4 253c
000001e0: dcc2 003e eff0 1b3b d7bd 4a03 7d3d b2bd
000001f0: f8f5 28bd 42f7 22be 43fd 113e e2cd 5e3d
00000200: 41f3 09be 6383 ab3c 0e84 10bc f030 a3b6
00000210: 359e 5a03 7e7b cd3a 7b38 5603 163a 5583
00000220: 8991 0d36 2644 073e 4b5c 4e3d 1648 1cbd
00000230: 5c9c 28be 2003 60bc 449a 1bbe 214d 6d3a
00000240: 3490 2ebc cad2 13be f30e 8dbb 50bc 17b0
00000250: 6c4a 9c3d 76c0 2c3e b042 bebd 6ff8 7b3d
00000260: 0a58 5883 22fa ebbd 5e48 73bd 6ce7 2dbe
00000270: 3750 d23d 28ae 4b3d 0b6e ff3d 9d87 be3c
00000280: 173a 62bc af54 1038 658c 5103 023b 593b
00000290: 9c16 5583 ea88 4f83 b7d3 0638 5dc4 573d
000002a0: f192 aebc 8957 163b aaaf 873d c1ce 2f3c
000002b0: 1464 b1bc 1e22 b3ba b912 373c f6f8 17bd
000002c0: bc89 cc3a 1457 28ae 1a26 163e 045c 59bc
000002d0: 8aaa 23be 9bc8 9c3c fe2a 5383 0caa a23d
000002e0: 77e6 f43d aef6 80bc a75e b13c 2c03 1a3d
000002f0: 92b6 1dbe 7c0d 083d 340f 42b9 59b0 9a31
00000300: 6be4 5583 e886 10bc 0aa1 5203 4f99 5e03
00000310: d144 9fb4 0e7c 42bd d0aa 823c 205f ffbd
00000320: cfd9 eb3d 73b3 dd3a 95b1 00bd c8c1 383a
00000330: 3e6e babb b296 48be c929 7cbb ef7d e7b6
00000340: a10b e2bc e4ce 003e 959f 08be 297a 9b3d
00000350: ca62 5983 6afc 2a3e 2316 b13c fdad 00be
00000360: 7dc5 cabd 8a2e 063e 0335 e53c 24e9 603d
00000370: 7e93 bbba e46c 5632 2e2a 4f83 8266 92bc
00000380: c565 5c03 d736 4f83 6495 00b9 c5db 913d
00000390: 5828 f83c d228 82bd e4f9 2fbe 4fdb 12bc
000003a0: 6301 e3bd 4ae4 69ba f3d7 983b 7ff3 18be
000003b0: 566c 0f3b 5cc4 c726 570f 7bbd c75d ec3d
0.13832755 0.019792318 6.3952087e-37 0.018813346 0.09815174 0.02995127 0.1192987 -0.1459522
0.044926755 0.121719025 -0.00057269924 2.294082e-06 6.119359e-37 0.005727962 6.3716884e-37 6.464372e-37
2.6870834e-05 0.019804796 -0.012207458 0.050316703 0.13232526 0.0012789816 0.14626755 0.00037937533
0.0036790646 -0.06906901 0.008664968 3.462952e-11 -0.15644561 -0.10090407 0.021495948 0.15081933
6.238771e-37 -0.010244157 -0.15829696 0.051455542 0.02556278 0.1328725 -0.05292392 0.16434579
0.0083324425 -9.2771654e-07 -6.47312e-37 -0.008310733 -6.146989e-37 6.351681e-37 4.138037e-06 0.0024382863
-0.008921542 0.17312874 0.04520418 -0.0026581737 -0.13284934 0.0030157734 0.0027041067 -0.040430177
0.0017615238 2.406852e-09 -0.008821917 -0.14302203 -0.0825368 0.19489975 -5.933788e-37 0.10356197
0.0132060535 0.045335744 -0.06177159 -0.13779551 0.0492341 0.050473284 0.0036829018 -2.1008782e-08
6.3145603e-37 -0.0011588506 -5.5769307e-37 -6.360742e-37 -2.7692795e-06 -0.093166865 0.019696208 0.050063785
-0.15804674 -0.0059768795 0.05925089 -0.00089218846 0.0003326108 0.08356064 0.002305864 1.1054648e-08
0.0024305242 -0.08413812 -0.065828346 0.1327609 6.4155475e-37 -0.02028964 0.00555888 -0.087746896
0.12399099 0.074585676 -0.058043227 0.17581038 -0.0023151855 -1.624246e-08 6.1140136e-37 -0.000496099
6.433109e-37 -6.492138e-37 -8.845379e-05 -0.15257342 0.021416858 -0.18091182 0.07176447 3.397421e-05
0.0692642 0.00026528162 0.0043941215 0.059159316 -0.011772087 -3.829877e-12 -0.0066858246 0.010121478
0.12574333 0.002379473 5.958039e-37 -0.08703134 -0.0412502 -0.15914634 0.14256768 0.054395564
-0.134717 0.020936674 -0.008820547 -4.8634756e-06 6.4246055e-37 0.0015677062 6.2953784e-37 -6.2661754e-37
2.109535e-06 0.1320959 0.050380986 -0.038154684 -0.16465896 -0.01367262 -0.15195566 0.00090523256
-0.010654498 -0.14435878 -0.0043047606 -5.520109e-10 0.07631382 0.16870293 -0.092900634 0.06151622
-6.357776e-37 -0.115223184 -0.059395187 -0.16982812 0.10269206 0.049726635 0.12472161 0.023258025
-0.013807795 3.4411143e-05 6.1580745e-37 0.0033146744 -6.262103e-37 -6.0989002e-37 3.2145264e-05 0.0526775
-0.021310301 0.0022940359 0.06625302 0.010730446 -0.021654166 -0.0013666784 0.011173897 -0.037102662
0.0015605013 -3.827612e-11 0.14662972 -0.013266567 -0.15983024 0.019138625 -6.205668e-37 0.0794259
0.1195802 -0.015742626 0.021651579 0.03760068 -0.15401676 0.033215985 -0.00018506945 4.5020383e-09
-6.2857285e-37 -0.008821227 6.1898317e-37 6.5415926e-37 -2.9666128e-07 -0.04748159 0.01595059 -0.124693155
0.11516153 0.0016914442 -0.031419355 0.00070479186 -0.0056894114 -0.19588736 -0.0038477054 -6.898997e-06
-0.027593436 0.12578923 -0.13342126 0.075916596 -6.3883973e-37 0.16697851 0.021617 -0.12566371
-0.09900949 0.1310369 0.02797938 0.05490984 -0.0014310924 1.2481198e-08 -6.0880253e-37 -0.017871145
6.4769015e-37 -6.0894786e-37 -0.00012262684 0.07121996 0.030292675 -0.06355442 -0.1718517 -0.00896342
-0.11084249 -0.00089222624 0.004664415 -0.14936636 0.0021884642 1.3861622e-15 -0.061293926 0.11541324

out_var1.bias f4 [8]
00000000: af2d aabd bce0 4abd 5b8c ed3d b09d 303d
00000010: 43f1 84bd 9e1a 50bd b097 20be 72c3 14be
-0.08309495 -0.04953073 0.11599036 0.043119133 -0.064913295 -0.050806634 -0.15682864 -0.14527681
