DR_Info_CFR/IHDP/Models/netQ0.pth (torch, 8895 bytes, 8 tensors)

hidden1.weight f4 [30, 2]
-0.2003549 0.43043348 0.25671706 -0.02563839 0.54595953 0.32009616 -0.33147418 0.5387818
0.48989534 0.06752232 -0.4858856 0.6514967 0.59044534 -0.1289503 0.60678315 -0.3082189
-0.030964695 -0.08594574 -0.009890342 0.51127946 0.15068525 0.6543133 0.5537136 0.6043563
0.41339454 -0.33712825 0.41101342 0.6800049 -0.013371922 -0.040495627 -0.1612472 0.14118488
0.022799032 0.21756011 0.51796055 -0.07016714 -0.047809888 -3.5410813e-12 -0.20291089 -0.029749919
0.123257995 -0.5364444 -0.008507746 -0.24566041 0.5616134 0.40426987 0.40468508 -0.38365647
-0.4942361 0.5736141 5.556913e-37 -0.0004067586 0.0068483106 0.14453961 0.4356077 -0.13830873
-0.08254179 0.69460404 0.36070925 0.11393392
00000000: d629 4dbe c761 dc3e 6b70 833e 9a07 d2bc
00000010: 01c4 0b3f a5e3 a33e fcb6 a9be 9bed 093f
00000020: 90d3 fa3e 2449 8a3d ffc5 f8be 7dc8 263f
00000030: 6d27 173f 8c0b 04be 2456 1b3f dece 9dbe
00000040: aca9 fdbc 5204 b0bd 1a0b 22bc 36e3 023f
00000050: 3c4d 1a3e 1481 273f 2dc0 0d3f 18b7 1a3f
00000060: 73a8 d33e 139c acbe 5a70 d23e cd14 2e3f
00000070: e815 5bbc bede 25bd fc1d 25be c592 103e
00000080: 09c5 ba3c 14c8 5e3e 1099 043f cab3 8fbd
00000090: 4dd4 43bd 732e 79ac dfc7 4fbe 1ab6 f3bc
000000a0: b06e fc3d 6c54 09bf 1364 0bbc 678e 7bbe
000000b0: e5c5 0f3f 76fc ce3e e232 cf3e 9f6e c4be
000000c0: 840c fdbe 60d8 123f 8a17 3d03 3742 d5b9
000000d0: cb67 e03b 3102 143e f907 df3e cea0 0dbe
000000e0: ac0b a9bd 92d1 313f e2ae b83e 3056 e93d

hidden1.bias f4 [30]
0.12970239 0.13964416 0.05276234 -0.4565383 -0.42749357 0.3341103 0.56856126 0.23627472
0.664119 -0.51172423 0.39115623 -0.47626388 0.33551306 -0.61734617 -1.0360211e-06 -0.1951496
0.61878693 -0.6191141 -1.4107735e-21 -0.21441193 0.5361557 0.01522427 -0.1392297 0.011012276
0.52747035 -0.07140882 -0.1790709 -0.37754896 -0.012516035 0.5173762
00000000: b4d0 043e e1fe 0e3e 531d 583d 63bf e9be
00000010: 70e0 dabe 8110 ab3e 3b8d 113f 00f2 713e
00000020: b403 2a3f 5c00 03bf a145 c83e dcd8 f3be
00000030: 5ec8 ab3e 660a 1ebf 6a0d 8bb5 4cd5 47be
00000040: d268 1e3f 437e 1ebf a830 d59c cd8e 5bbe
00000050: 8041 093f 376f 793c 3b92 0ebe d56c 343c
00000060: 4c08 073f ca3e 92bd 5d5e 37be 194e c1be
00000070: 0e10 4dbc c472 043f

hidden2.weight f4 [30, 30]
-7.257784e-09 4.2371283e-19 -6.235084e-37 -1.0344363e-06 2.4679694e-12 -1.4330385e-06 -6.103157e-37 -1.1315336e-05
-7.25821e-09 1.8467743e-11 -1.282775e-07 2.3233542e-21 2.1654335e-08 -5.9315247e-37 -5.857964e-06 5.2069156e-12
6.4072487e-37 -2.9075603e-18 2.7673337e-07 6.453514e-37 6.0422183e-37 6.1134944e-37 3.281043e-07 -3.411072e-10
5.8897045e-37 6.040991e-37 -8.151239e-12 -4.506205e-06 1.8054348e-11 -5.4127832e-37 0.13845077 0.07983823
0.08133078 -0.077859126 0.06450865 0.12727028 -0.06572665 0.15687563 0.020777455 0.0062672645
-0.07869803 0.057669606 0.10120989 -0.0035675173 -1.121703e-06 -0.011549858 0.12889098 0.18332663
-4.157368e-10 -6.503755e-06 0.0696438 2.297232e-05 -0.035388887 -0.024928628 -0.04128301 3.9536928e-07
0.013205851 0.026217723 -0.02659169 0.087916784 0.03977234 -0.15795319 0.07263179 -0.16204028
-0.009147213 -0.012584385 -0.088297054 0.13114803 0.14583321 0.0757643 -0.07108309 0.068243384
-0.04190531 0.08731685 6.200723e-37 -0.11063187 -0.022850772 -0.095969446 -6.0587644e-37 4.2320405e-09
0.00068289234 -6.0117654e-06 0.07419813 -3.3067646e-08 -0.15815604 4.726215e-37 -0.06663073 0.009172147
0.04001356 -0.0061728377 0.09188955 0.07908165 0.03558766 0.030653197 0.07233418 -0.1842233
-0.016517865 -0.10702177 0.029111296 -0.0037981241 0.14596488 -0.05480948 0.02047526 -0.0028310164
2.3155861e-11 -0.024453277 -0.07096485 0.0074640266 -4.0185935e-09 4.3387515e-33 0.12737583 7.859851e-16
-0.0628086 0.004479052 -0.113706745 -6.3627954e-06 -0.12885313 -0.08136041 0.092175096 0.155524
-0.11309905 0.17818777 0.022843868 0.04586588 0.11508128 0.19490705 -0.07136872 -0.11328946
0.12466834 -0.040452134 0.12425295 0.10272174 0.07834696 -0.038936283 -5.974831e-37 0.052539654
-0.0144441705 -0.14848047 1.9406132e-06 -5.037758e-37 -0.052807193 2.373197e-06 -0.11857673 0.014376552
-0.06002358 -3.5968863e-19 -0.008876315 -0.013944601 0.09855239 0.03750581 -6.0094485e-37 -1.5759104e-12
-5.626647e-37 -2.1442836e-06 2.6813673e-11 -6.6507494e-07 1.1157424e-15 6.7170875e-23 -1.28948495e-05 1.1033706e-09
-1.5234373e-16 -2.4778543e-18 -4.7693577e-12 -6.305176e-14 -1.3555809e-25 1.2509609e-08 -2.2939195e-23 -3.0106373e-32
2.6319913e-20 -2.0619808e-25 2.222123e-18 -7.885594e-09 1.8389465e-11 6.045203e-37 1.5109746e-32 -1.1344656e-06
-1.2065351e-14 9.00723e-09 4.609258e-14 -1.1784437e-12 -3.4177377e-12 5.811734e-37 -8.51827e-06 -6.345161e-37
5.647114e-20 -1.1272521e-19 1.0504943e-06 -1.9288377e-14 -2.4997213e-15 2.9025096e-24 -6.2707317e-37 -1.8246993e-23
2.532863e-06 -1.4519161e-05 5.8418873e-37 2.6880755e-13 -4.498723e-14 -1.7979283e-13 -6.8978823e-18 5.471058e-37
-6.373731e-37 -1.836484e-07 5.4792927e-37 -5.3916373e-37 6.3062363e-37 -1.3428782e-05 -4.5629127e-09 6.3886175e-37
7.1061313e-06 -6.0661574e-07 -0.01194771 -0.03978413 0.067953706 0.06891125 0.117421255 0.1038669
-0.0112073 -0.018904135 0.080420144 0.0048399535 0.15045425 0.10877416 -0.13456395 -0.17557228
5.9640384e-37 -0.0030044816 -0.13668674 -0.04166987 -5.141209e-37 6.168836e-37 -0.09519739 4.619808e-07
0.11209593 -0.005040137 0.08210099 -1.081344e-09 -0.07563408 -0.018702365 -0.015964024 -0.05744586
-0.030639177 -0.06253792 0.014912304 0.10909521 -0.16576067 -0.04155657 -0.18533528 0.00020307883
-0.040553413 -0.03818485 0.11110676 0.044713836 -0.05139008 -0.08157056 -3.9616575e-06 -0.004071126
00000000: 2560 f9b1 ac1d fa20 3e2b 5483 f6d6 8ab5
00000010: fcaa 2d2c d456 c0b5 ffad 4f83 00d7 3db7
00000020: e463 f9b1 a971 a22d a7bc 09b4 358c 2f1d
00000030: 6302 ba32 ded6 4983 878f c4b6 ba33 b72c
00000040: 0207 5a03 438a 56a2 f291 9434 099a 5b03
00000050: 259b 4d03 0c08 5003 5026 b034 9286 bbaf
00000060: 906a 4803 7490 4d03 eb65 0fad 0234 97b6
00000070: c7ce 9e2d fe2f 3883 0ac6 0d3e 3a82 a33d
00000080: c190 a63d 9b74 9fbd 1c1d 843d 2453 023e
00000090: b29b 86bd 01a4 203e 7b35 aa3c a05d cd3b
000000a0: 6f2c a1bd f736 6c3d 2147 cf3d 02cd 69bb
000000b0: 6c8d 96b5 9e3b 3dbc fffb 033e fab9 3b3e
000000c0: c18d e4af d43a dab6 69a1 8e3d aeb4 c037
000000d0: f0f3 10bd 1f37 ccbc 6018 29bd 2443 d434
000000e0: 5b5d 583c 8dc6 d63c d1d6 d9bc b70d b43d
000000f0: 52e8 223d 7bbe 21be fabf 943d e3ed 25be
00000100: 31de 15bc bd2e 4ebc 16d5 b4bd ab4b 063e
00000110: 4d55 153e 502a 9b3d 0394 91bd 30c3 8b3d
00000120: e7a4 2bbd 2dd3 b23d eaff 5203 f692 e2bd
00000130: 8b31 bbbc a18b c4bd 482b 4e83 6c69 9131
00000140: 2104 333a acb8 c9b6 30f5 973d 4306 0eb3
00000150: a8f3 21be 24d3 2003 b175 88bd c646 163c
00000160: 42e5 233d 8445 cabb 9730 bc3d 8ff5 a13d
00000170: 5ec4 113d 6a1c fb3c f123 943d 08a5 3cbe
00000180: 7950 87bc 3b2e dbbd d07a ee3c f3e9 78bb
00000190: d177 153e e87f 60bd bcbb a73c 9388 39bb
000001a0: 5dae cb2d 3d52 c8bc 0556 91bd cb94 f43b
000001b0: ec13 8ab1 8539 b409 cf6e 023e 778b 6226
000001c0: cca1 80bd 03c5 923b 15df e8bd ff7f d5b6
000001d0: 13f2 03be 49a0 a6bd 4cc6 bc3d af41 1f3e
000001e0: 7aa0 e7bd db76 363e 1023 bb3c dcdd 3b3d
000001f0: bcaf eb3d b795 473e c329 92bd 4e04 e8bd
00000200: 1d52 ff3d 23b1 25bd 5578 fe3d c75f d23d
00000210: 5f74 a03d a77b 1fbd 1e50 4b83 d233 573d
00000220: 3ea7 6cbc 440b 18be 7b3b 0236 106d 2b83
00000230: 5b4c 58bd 3743 1f36 5bd8 f2bd a18b 6b3c
00000240: 49db 75bd 9c52 d4a0 f76d 11bc e577 64bc
00000250: d6d5 c93d b19f 193d ae7d 4c83 28ca ddab
00000260: 0277 3f83 83e6 0fb6 06db eb2d 9a87 32b5
00000270: a1cb a026 c268 a21a f556 58b7 67a5 9730
00000280: efa3 2fa5 58d5 36a2 8ece a7ac ddfa 8da9
00000290: 13d0 2796 d8e9 5632 b2da dd99 3c52 1c8b
000002a0: a595 f81e c842 7f96 b7f6 2322 3679 07b2
000002b0: 65c1 a12d 25b5 4d03 98e8 9c0a f143 98b5
000002c0: 9c59 59a8 37be 1a32 2095 4f29 e9d9 a5ab
000002d0: 7d80 70ac 58c3 4503 b1e9 0eb7 26ea 5783
000002e0: b656 851f 1b15 05a0 b6fe 8c35 f8bb ada8
000002f0: b81f 34a7 2092 6018 c761 5583 5e79 b099
00000300: 41fa 2936 5297 73b7 04ca 4603 4053 972a
00000310: bf9a 4aa9 c16d 4aaa a87c fea2 a32b 3a03
00000320: 07e3 5883 e330 45b4 5f73 3a03 c977 3783
00000330: 1197 5603 2e4c 61b7 cec7 9cb1 b564 5903
00000340: 3471 ee36 51d6 22b5 54c0 43bc aff4 22bd
00000350: 502b 8b3d 5721 8d3d 8e7a f03d 2bb8 d43d
00000360: d39e 37bc d8dc 9abc 51b3 a43d 7998 9e3b
00000370: ae10 1a3e fdc4 de3d 22cb 09be 38c9 33be
00000380: 1af2 4a03 d6e6 44bb 9cf7 0bbe 07ae 2abd
00000390: 3ff2 2e83 24ea 5103 d9f6 c2bd 2806 f834
000003a0: 8d92 e53d bc27 a5bb 9024 a83d 699e 94b0
000003b0: 0ae6 9abd b435 99bc fcc6 82bc 5a4c 6bbd
000003c0: 03ff fabc e213 80bd bc52 743c 4f6d df3d
000003d0: 2abd 29be 3937 2abd 88c8 3dbe 8ff1 5439
000003e0: 561b 26bd b867 1cbd f18b e33d db25 373d
000003f0: 687e 52bd 770e a7bd 61ee 84b6 1567 85bb

hidden2.bias f4 [30]
1.0213551e-12 0.12683062 -0.11069371 0.0077229673 0.04027619 -1.9598591e-12 -1.3353473e-05 -0.0683754
-0.08324719 4.7886182e-08 -1.0204005e-15 -0.060484353 -2.2209719e-12 1.0662395e-06 -0.008607117 -0.093048364
-0.06795309 0.007850457 -0.11550343 0.16285563 0.014723714 -0.17395805 -2.947873e-08 0.06128631
0.02856987 0.14726874 0.12615933 6.3886405e-18 -1.1996041e-13 0.07220429
00000000: 32be 8f2b e3df 013e 62b3 e2bd f210 fd3b
00000010: a5f8 243d afe9 09ac bb08 60b7 6708 8cbd
00000020: 817d aabd 6aab 4d33 220e 93a6 71be 77bd
00000030: 7949 1cac b61b 8f35 de04 0dbc 2490 bebd
00000040: fd2a 8bbd 349f 003c 108d ecbd a0c3 263e
00000050: bc3b 713c 0f22 32be 6a38 fdb2 5b07 7b3d
00000060: 5c0b ea3c 9ecd 163e e92f 013e 01b3 eb22
00000070: 3c10 07aa d8df 933d

out_mu0.weight f4 [8, 30]
-1.7064144e-06 -0.07799996 -0.18298934 0.09247407 0.01647431 -5.8490677e-08 -5.3468133e-37 -0.05165067
0.12016286 3.8134185e-06 6.2642526e-37 -0.1892559 -6.1609663e-37 -1.2987933e-06 0.0059045334 0.10878622
-0.071807854 -0.00444873 0.043046646 -0.15663356 0.17438444 -0.12457068 -1.6699885e-05 -0.036302216
-6.3623416e-37 0.14256224 -0.108137324 3.4732204e-09 4.5706744e-13 -0.08589595 -7.54163e-06 0.15879355
-0.007366255 -0.122224644 -0.15042304 6.882057e-21 1.2196158e-05 0.042872306 -0.12076248 -5.8272263e-07
5.997002e-15 -0.05741983 2.8956743e-08 8.071591e-22 -0.0010834056 0.110780716 -0.02833257 -0.06234129
0.09386024 -0.046259 0.1853453 0.0132405 1.1159373e-07 0.026533497 -6.2267085e-37 -0.1589547
-0.11361781 4.2391318e-10 -5.184687e-37 0.013285212 -1.3187204e-09 -0.042642467 -0.048837498 0.17707372
0.053300444 4.5410144e-07 3.2526502e-14 -0.0016954658 -0.01086819 2.5922218e-06 3.9703565e-08 0.14917183
-5.4245193e-23 -1.3686596e-06 0.0067051095 -0.032422233 -0.08706632 -0.020446287 0.09224021 0.021268478
0.10538369 -0.055428803 6.5603444e-07 0.05899293 -6.9463363e-06 -0.07265674 -0.12588064 -2.3069837e-09
-6.274951e-37 -0.12558651 -1.09411334e-10 -0.081854954 -0.0060477406 -0.10990779 0.09358807 1.2987611e-20
3.227431e-07 0.025000785 0.037086327 1.3133117e-10 -1.7948134e-24 -0.07279908 5.755774e-37 3.1343834e-11
0.00037730078 0.032491513 0.015427631 0.06983761 0.09799633 0.10818026 0.002163845 -0.059630442
-1.1788451e-05 0.11284951 -3.9403307e-11 -0.06414265 0.015606216 -5.8751265e-37 3.9669275e-24 -0.05255506
6.1192004e-37 0.029351715 0.041437835 -0.14898454 0.13217385 6.415623e-37 1.0421247e-25 -0.11730921
-0.11837681 5.865819e-37 2.5069383e-07 0.069954716 4.6907806e-13 1.2635682e-07 -0.008495302 -0.01323199
0.04522393 0.13577116 -0.05082349 -0.0748237 -0.13131957 -0.012962025 -1.1879077e-08 -0.115208745
7.227577e-18 0.035911188 -0.09975847 -3.8930142e-16 2.6250883e-11 -0.13086376 -6.2278784e-37 0.01599026
0.014181301 0.08929927 -0.16684982 -6.1074206e-37 1.6037283e-14 0.0046793623 0.013282552 -5.189149e-37
-1.0810808e-10 0.050311632 -3.0464016e-23 -6.438474e-37 0.012781807 -0.06974879 -0.0021737358 0.027819144
0.14496756 -0.073424056 0.003602177 0.03826594 -2.112385e-22 0.04857179 -9.6157234e-35 0.01906507
0.13887191 -8.3110304e-14 5.9774173e-37 0.12570472 2.1713088e-27 -0.13111214 -0.08437646 0.06887437
0.0024031228 8.456444e-08 6.2215607e-37 0.062792994 -0.067832395 6.2479115e-14 -1.0844846e-05 -0.079611555
6.3000666e-37 2.1139943e-15 -0.0031336003 -0.09562804 0.08827861 0.0756294 0.10043862 -0.08470174
-0.09106997 -0.017532524 1.6842116e-11 0.074454114 -1.40666275e-33 -0.013068183 -0.008009759 -1.1371734e-05
-7.4650206e-06 0.13598399 -2.4226598e-31 -0.09741845 -0.04440648 -0.04493663 -0.07225522 -2.9558645e-08
6.313617e-37 0.124611065 0.13287939 -1.03644e-05 2.4597021e-08 -0.14280774 -6.294046e-28 -2.7245168e-18
0.004771903 0.031216232 0.113069706 -0.12243861 0.034060065 0.07026363 0.041206118 0.006492208
-1.5500234e-05 0.07343896 -6.1542863e-37 0.113504134 0.10516621 -1.30859e-12 -3.7608575e-14 0.097470455
00000000: f407 e5b5 71be 9fbd 8f61 3bbe 0c63 bd3d
00000010: 22f5 863c 2e37 7bb3 50f1 3583 a78f 53bd
00000020: f217 f63d 08ea 7f36 5629 5503 4ccc 41be
00000030: 96a5 5183 3352 aeb5 d17a c13b 4fcb de3d
00000040: ff0f 93bd a7c6 91bb ae51 303d 8c64 20be
00000050: d691 323e ea1e ffbd bb16 8cb7 a2b1 14bd
00000060: d07f 5883 d6fb 113e 1a77 ddbd 8aad 6e31
00000070: 2ea7 002b 37ea afbd 1c0e fdb6 c79a 223e
00000080: a060 f1bb ea50 fabd 7f08 1abe 96ff 011e
00000090: 1a9e 4c37 df9a 2f3d 5252 f7bd 656c 1cb5
000000a0: 9510 d827 0e31 6bbd 8dbc f832 e9f2 731c
000000b0: 0f01 8eba 00e1 e23d b519 e8bc 9559 7fbd
000000c0: cc39 c03d 147a 3dbd 29cb 3d3e afee 583c
000000d0: 4da5 ef33 c75c d93c 48e2 5383 05c5 22be
000000e0: 74b0 e8bd 7a0c e92f fe6c 3083 38aa 593c
000000f0: 593e b5b0 dea9 2ebd d409 48bd d052 353e
00000100: 9151 5a3d 3acb f334 817c 1229 643a deba
00000110: 7e10 32bc 08f6 2d36 8886 2a33 80c0 183e
00000120: 2628 839a c9b2 b7b5 89b6 db3b 2dcd 04bd
00000130: d44f b2bd f97e a7bc 6fe8 bc3d 3b3b ae3c
00000140: 67d3 d73d 5009 63bd 581a 3035 92a2 713d
00000150: 9314 e9b6 0fcd 94bd dbe6 00be e388 1eb1
00000160: 8886 5583 c099 00be 1b99 f0ae 92a3 a7bd
00000170: 202c c6bb 5617 e1bd 1aab bf3d 3c54 751e
00000180: 7945 ad34 72ce cc3c d5e7 173d 7066 102f
00000190: f1dd 0a98 af17 95bd dddb 4303 05da 092e
000001a0: 74d0 c539 d215 053d 2dc4 7c3c 0507 8f3d
000001b0: 4db2 c83d 9d8d dd3d 4ccf 0d3b 0d3f 74bd
000001c0: 03c7 45b7 a51d e73d 2e4c 2dae 395d 83bd
000001d0: 37b1 7f3c 92eb 4783 8c76 9918 f943 57bd
000001e0: c139 5003 0273 f03c b8ba 293d 678f 18be
000001f0: 9558 073e f54f 5a03 4002 0116 d03f f0bd
00000200: 8a6f f2bd 7d9a 4703 1997 8634 6b44 8f3d
00000210: a308 042b b3ac 0734 e12f 0bbc fdca 58bc
00000220: ba3c 393d 9807 0b3e 4b2c 50bd 2b3d 99bd
00000230: a378 06be ac5e 54bc bc14 4cb2 90f2 ebbd
00000240: 4453 0523 9c17 133d 2b4e ccbd c06a e0a5
00000250: bce7 e62d 2601 06be 79ec 5383 01fe 823c
00000260: b058 683c 89e2 b63d aeda 2abe 23d3 4f83
00000270: 7573 9028 5655 993b 109f 593c dd93 3083
00000280: 70bb edae 9213 4e3d a050 139a 0517 5b83
00000290: c96a 513c 74d8 8ebd 3c75 0ebb f9e4 e33c
000002a0: 6072 143e 5a5f 96bd 8012 6c3b bfbc 1c3d
000002b0: 265f 7f9b 37f3 463d 39a1 ff86 5a2e 9c3c
000002c0: 7034 0e3e d425 bba9 a666 4b03 bdb8 003e
000002d0: 6007 2c13 4342 06be 91cd acbd 010e 8d3d
000002e0: b67d 1d3b cb99 b533 70b5 5303 9d99 803d
000002f0: b6eb 8abd c2b0 8c29 42f2 35b7 620b a3bd
00000300: 5261 5603 5054 1827 175d 4dbb a2d8 c3bd
00000310: 6acb b43d 96e3 9a3d c3b2 cd3d 1b78 adbd
00000320: e482 babd 5ea0 8fbc 1325 942d 667b 983d
00000330: d1b8 e988 ef1b 56bc 5d3b 03bc 3ac9 3eb7
00000340: 0a7c fab6 633f 0b3e 573d 9d8c 5383 c7bd
00000350: 92e3 35bd 790f 38bd 8bfa 93bd 26e8 fdb2
00000360: 5cd7 5603 1634 ff3d 8911 083e c2e2 2db7
00000370: 6c49 d332 313c 12be 5e77 4792 ab08 49a2
00000380: a05d 9c3b 2fb9 ff3c 1791 e73d 18c1 fabd
00000390: 9182 0b3d 61e6 8f3d bfc7 283d 97bc d43b
000003a0: 8006 82b7 2a67 963d 656b 5183 db74 e83d
000003b0: 6261 d73d ec2a b8ab bc5f 29a9 979e c73d

out_mu0.bias f4 [8]
0.05388192 -0.015205801 0.0022145957 -0.07671739 0.108988754 0.046164125 0.08417557 -0.015621183
00000000: 4ab3 5c3d c121 79bc c022 113b 021e 9dbd
00000010: 7f35 df3d 9816 3d3d 3e64 ac3d feef 7fbc

out_var0.weight f4 [8, 30]
-3.5365028e-34 -0.017905602 0.11926449 0.12944643 0.11942824 3.3295114e-13 -3.8396635e-07 0.117059804
-0.14393313 5.802425e-37 6.298028e-25 0.18025316 1.4418503e-21 5.026278e-37 0.0029360533 0.039915133
0.070438586 -0.15904072 -0.069285884 -0.06498935 0.12551482 0.0041474714 -9.2261547e-07 -0.11419877
8.164672e-07 -0.13877639 0.021915134 -1.0895487e-17 -4.238052e-21 -0.122243896 -6.1724027e-37 -0.04680142
-0.017228063 0.17080186 0.15788677 -6.3258613e-37 4.852271e-37 -0.09564229 0.052174695 -4.9119983e-08
-4.4642103e-08 -0.040743444 8.731746e-15 5.9239437e-37 -0.006392563 -0.1136513 0.07512695 -0.12046424
0.015159555 0.059279166 0.11637937 0.103283845 -6.477113e-10 -0.06788625 -6.2913386e-21 -0.12579949
0.12666069 -6.3492623e-37 -9.740857e-06 -0.12545227 -9.798611e-10 -0.08745628 0.09149885 -0.086832166
0.07554442 6.3783573e-37 -6.2574393e-37 -0.054786455 0.10165886 -4.813111e-08 -6.167967e-37 0.056909367
6.032112e-37 3.833523e-28 6.3460543e-06 0.16557723 0.09587265 -0.038878504 -0.014262701 -0.115606464
-0.0824454 0.10304035 2.1972902e-08 -0.1286381 2.191478e-06 0.07563581 0.11168303 -6.453143e-37
-1.3937197e-10 0.10206777 -6.46298e-37 0.018032106 0.09135729 -0.051089175 -0.104068734 -1.5033281e-14
9.815141e-18 0.11631143 0.072806925 -1.7386712e-06 -8.007801e-06 0.17985894 -6.373836e-37 1.2027166e-08
-0.00046866207 0.024997463 0.015412652 0.0477072 0.031927362 -0.11605605 0.00046749093 0.11182929
-8.8110034e-14 0.059875168 1.2129374e-06 0.012487037 -0.13028777 -2.514921e-15 7.638276e-09 -0.049356263
-6.441963e-37 0.09737033 -0.105327934 0.079870425 -0.15910639 3.463789e-07 -6.403313e-37 0.088322446
0.13131838 -6.0340813e-37 -2.2735735e-31 0.0049492083 -1.656122e-08 6.3024015e-37 -1.0288464e-05 -0.0635131
-0.1551399 0.113636024 -0.12095413 -0.08633316 -0.13970134 0.02643881 -8.5956645e-11 -0.114574395
6.239079e-37 -0.06492535 -0.035322994 6.0960263e-37 1.3945297e-05 0.01772201 -1.1870779e-34 0.012277044
-0.004720367 0.15896066 0.02947259 -6.118234e-37 -5.0016396e-37 -0.13114649 0.10714436 -2.353431e-13
-6.041483e-37 0.06559173 4.295859e-09 -6.144354e-37 -0.005065598 -0.16229953 0.073876925 0.09175151
-0.0015025485 -0.09840663 0.14699571 0.17459734 1.8002584e-06 -0.08613851 -2.6675778e-07 -0.15776514
-0.07525218 8.361415e-17 6.2487275e-37 -0.17301922 -1.64396e-24 -0.09876077 -0.017540947 0.104734525
0.100995086 1.6221456e-08 -2.1376438e-24 -0.05139735 -0.09203049 -1.3907449e-07 -2.384856e-22 0.030979984
-6.1125316e-37 1.2866651e-16 0.00059507095 -0.006273538 0.10541533 0.02465691 0.016368875 -0.012862988
0.020022362 0.06396625 -1.10822775e-05 -0.09179629 -1.4148716e-05 0.09762767 -0.068374746 -6.2274203e-28
-6.570442e-11 0.15476158 -5.909373e-37 0.1577739 -0.0020421 0.009870256 0.15108947 6.340858e-37
2.6406407e-36 -0.114957705 0.06066943 6.110088e-37 5.584705e-37 0.15766755 1.4318896e-06 -5.900753e-37
-0.008189359 -0.13071544 0.14739494 0.030160611 -0.05161713 0.021062985 -0.09106692 0.07949337
-4.2104435e-08 0.0037802428 -5.9474775e-37 -0.14503984 -0.033731483 -6.391623e-37 -5.554582e-37 -0.16159199
00000000: 7a0a eb87 c5ae 92bc f140 f43d 9b8d 043e
00000010: cb96 f43d 516f bb2a ef23 ceb4 0dbd ef3d
00000020: 3563 13be 4072 4503 1eea 4217 4994 383e
00000030: e2e2 d91c 0e09 2b03 cd6a 403b 0d7e 233d
00000040: 1b42 903d 92db 22be c2e5 8dbd 2319 85bd
00000050: f586 003e 83e7 873b a7a9 77b5 0be1 e9bd
00000060: 332b 5b35 661b 0ebe 5e87 b33c 7cfc 48a3
00000070: ed1b a09d 025b fabd 3609 5283 d9b2 3fbd
00000080: de21 8dbc afe6 2e3e 12ad 213e 0642 5783
00000090: 3e1d 2503 1be0 c3bd 22b5 553d fef7 52b3
000000a0: 83bc 3fb3 99e2 26bd 124c 1d28 d494 4903
000000b0: b578 d1bb 03c2 e8bd 29dc 993d f5b5 f6bd
000000c0: c85f 783c b6ce 723d 4f58 ee3d 7b86 d33d
000000d0: a10a 32b0 f207 8bbd 18ae ed9d 95d1 00be
000000e0: 57b3 013e e00d 5883 aa6c 23b7 8f76 00be
000000f0: ccab 86b0 471c b3bd c063 bb3d 10d5 b1bd
00000100: 08b7 9a3d 540b 5903 fced 5483 c367 60bd
00000110: 8532 d03d b7b8 4eb3 92e2 5183 cc19 693d
00000120: 1b43 4d03 78fa f211 31f0 d436 148d 293e
00000130: e158 c43d 113f 1fbd 1bae 69bc 15c3 ecbd
00000140: 22d9 a8bd d206 d33d ecbe bc32 b5b9 03be
00000150: 4e11 1336 f3e6 9a3d 13ba e43d ce96 5b83
00000160: b93d 19af e808 d13d 7fec 5b83 11b8 933c
00000170: 8819 bb3d e242 51bd fd21 d5bd 6368 87a8
00000180: b10e 3523 b034 ee3d cc1b 953d 4a5c e9b5
00000190: 3e59 06b7 f12c 383e f1e3 5883 09a0 4e32
000001a0: c2b6 f5b9 7bc7 cc3c 5985 7c3c a068 433d
000001b0: 44c6 023d cbae edbd 9219 f539 c106 e53d
000001c0: fa67 c6a9 aa3f 753d 36cc a235 6e96 4c3c
000001d0: 286a 05be 1b38 35a7 7e39 0332 cb29 4abd
000001e0: 6a35 5b83 186a c73d 2cb6 d7bd 1b93 a33d
000001f0: c9ec 22be f4f5 b934 b9e4 5983 66e2 b43d
00000200: 5378 063e 4354 4d83 3890 938c f82c a23b
00000210: 8242 8eb2 a975 5603 9e9c 2cb7 2813 82bd
00000220: fedc 1ebe 01ba e83d cdb6 f7bd 71cf b0bd
00000230: de0d 0fbe 3496 d83c 4a05 bdae fba5 eabd
00000240: 0b4e 5403 95f7 84bd d8ae 10bd e16f 4f03
00000250: 98f6 6937 c02d 913c 2bca 1d87 a825 493c
00000260: 4fad 9abb 95c6 223e 8070 f13c 5631 5083
00000270: 6d32 2a83 444b 06be 816e db3d 847c 84aa
00000280: bd94 4d83 f554 863d c69a 9331 df14 5183
00000290: 51fd a5bb d931 26be c94c 973d 37e8 bb3d
000002a0: 29f1 c4ba 6a89 c9bd 0b86 163e a5c9 323e
000002b0: 68a0 f135 6369 b0bd e936 8fb4 2f8d 21be
000002c0: d11d 9abd 15cd c024 18a2 5403 f32b 31be
000002d0: f763 fe97 1643 cabd 08b2 8fbc 0e7f d63d
000002e0: 83d6 ce3d 5c57 8b32 6664 2598 0786 52bd
000002f0: 7b7a bcbd 8154 15b4 dc27 909b bcc9 fd3c
00000300: a9ff 4f83 a757 1425 89fe 1b3a 4092 cdbb
00000310: fee3 d73d 4afd c93c 0518 863c 48bf 52bc
00000320: f005 a43c bd00 833d 05ee 39b7 b1ff bbbd
00000330: 4660 6db7 04f1 c73d 0f08 8cbd d65a 4592
00000340: 4d7c 90ae d279 1e3e e615 4983 7b8f 213e
00000350: c1d4 05bb dbb6 213c 33b7 1a3e aac4 5703
00000360: 10a4 6004 f26e ebbd 8280 783d 60ea 4f03
00000370: a409 3e03 9a73 213e 5a2f c035 cfca 4883
00000380: a92c 06bc 45da 05be b3ee 163e 6313 f73c
00000390: 7c6c 53bd 488c ac3c 4b81 babd 6ccd a23d
000003a0: 51d6 34b3 f3bd 773b d661 4a83 5385 14be
000003b0: 062a 0abd e47e 5983 3c03 3d83 5f78 25be

out_var0.bias f4 [8]
-0.17814094 -0.039472893 -0.14552003 -0.15582891 -0.071412146 -0.046284057 -0.024125889 -0.15801957
00000000: 946a 36be 54ae 21bd 3403 15be 9d91 1fbe
00000010: 8840 92bd 5a94 3dbd a8a3 c5bc e2cf 21be
